Shooter2Agents1EnvPlaybale/Assets/Models/OldModels/collectManyCubes.onnx (onnx, 79278 bytes, 8 tensors)

network_body._body_endoder.seq_layers.0.weight f4 [128, 8]
000000 42 8b 66 3e b4 65 f6 3e cb ab 67 be 28 58 3b be
       0.2251406 0.48124468 -0.22624128 -0.18295348
000010 9b e9 0b bf 99 43 67 be dd ff 50 be bb 48 9d 3e
       -0.5465333 -0.2258438 -0.20410104 0.3071955
000020 af e0 dc bd 6c 35 48 3e a9 2c 0e 3f 78 2e d8 bc
       -0.107850425 0.19551629 0.55536896 -0.026389346
000030 fd 95 73 3e c3 70 6e 3d 22 76 3c bd 6b bb 8a 3e
       0.23787685 0.058213007 -0.046011098 0.27096114
000040 ca a3 ac bd 1a 5e a8 3e f7 3d 64 3e 8b df a4 3e
       -0.08429678 0.32884294 0.22289263 0.322018
000050 da 9f 27 be 4f 39 d8 be a0 5b 0b 3d 74 65 49 3e
       -0.16369572 -0.42231223 0.034022927 0.19667608
000060 90 1b 74 3e 43 a8 81 bd 5c 41 ce be f8 63 d8 bd
       0.2383864 -0.063309215 -0.4028424 -0.105659425
000070 94 e5 cd bc b7 a5 c2 3e 72 1b da 3e 50 dd 2f 3d
       -0.025133885 0.38017055 0.42599064 0.04293567
000080 32 b3 7d 3f d8 bf 3e be f5 0d 0b bf ef e6 03 3d
       0.99101555 -0.1862787 -0.5431817 0.032202657
000090 e1 d5 ff 3d 8c 26 f6 be 69 af ae 3e 2a 53 f5 3e
       0.12491966 -0.48076284 0.34118202 0.47915012
0000a0 6f 0d 48 3f 18 e3 9a 3e e4 2b 7c bd 68 f1 03 3e
       0.781455 0.30251384 -0.061565295 0.12885058
0000b0 16 ec 23 bd c9 cf 32 bf e1 c2 10 bf 08 7c d1 be
       -0.04002007 -0.69848305 -0.5654736 -0.4091494
0000c0 9a 2a b4 be 65 df d0 be 7a 92 20 3d 18 47 b9 3d
       -0.35188752 -0.40795437 0.03920219 0.09046763
0000d0 bc ad 72 be 58 e1 76 be 00 25 48 3e b6 4e 5a bf
       -0.23699087 -0.241094 0.19545364 -0.85276353
0000e0 13 1d 25 bf 9c c3 12 3f d5 81 ce be b3 ab 63 be
       -0.6449749 0.57329726 -0.4033343 -0.22233467
0000f0 8c ec f6 bd 2a 0f a0 3b 47 41 6e 3e e9 da 20 be
       -0.120568365 0.00488462 0.23267089 -0.15708508
000100 d5 20 8c bd 73 1f ea bd 04 96 48 3e 55 2d b5 be
       -0.068422 -0.1143178 0.19588476 -0.35386148
000110 ac 42 4f be 83 5a d5 3e e7 be 83 3e f7 e1 89 bd
       -0.20240277 0.41670617 0.25731584 -0.067325525
000120 c3 61 19 3e d2 84 54 bd f7 fa ca bc 0e a2 95 3d
       0.149787 -0.05188448 -0.024777872 0.073063
000130 df dc cb 3e a1 3a b8 be 9e 77 8c 3e 99 df d2 3e
       0.3981695 -0.3598223 0.2743501 0.41186216
000140 6b 8a 6d 3e 1c c1 d6 bd 72 3a 5e be a4 86 f7 3e
       0.23197334 -0.104860514 -0.21701983 0.4834491
000150 04 b2 64 be c4 15 5c 3e d3 8e c5 3d 80 81 8d be
       -0.22333533 0.21492678 0.09646382 -0.27637863
000160 b2 6d 81 bf 07 6f d3 3b ad 05 08 bf 44 43 0a bf
       -1.0111601 0.0064524445 -0.5313366 -0.5400889
000170 4c 84 3b bf 0f 3c 49 be 30 9b 19 3e 61 1f 87 bd
       -0.73248744 -0.19651817 0.15000606 -0.06597782
000180 48 32 8c be dd 50 5e 3e 77 2c bf 3e d7 cf 53 3e
       -0.27382112 0.21710534 0.3733861 0.20684753
000190 a1 b7 a9 be c7 00 98 be 35 d2 00 3f 8b c2 b2 3d
       -0.3314791 -0.29688093 0.5032075 0.087285124
0001a0 26 e6 eb be 92 f6 2c bf 1e 80 38 ba ea 33 f4 be
       -0.46074027 -0.67563736 -0.0007038134 -0.47695857
0001b0 99 b8 c9 3e 9c 18 8c 3e 1e 70 62 3f 2d bc bf 3e
       0.3939865 0.27362525 0.8845233 0.37448254
0001c0 47 84 cd 3e a9 0c 8a bd 8e 6d 1c 3f 96 a3 87 3e
       0.40139982 -0.06740696 0.6110467 0.26491994
0001d0 4a a9 5e 3e 05 c6 9d be 50 44 c6 3c 45 63 04 3e
       0.21744266 -0.3081514 0.024202496 0.12928493
0001e0 73 b7 bc 3e 5d 08 78 3e ec b7 1e 3f bc 78 21 3e
       0.3685871 0.2422194 0.6199939 0.15768713
0001f0 65 61 82 3d 3a 7a ee bc d6 7d 45 be a4 54 b5 bd
       0.06366233 -0.029111017 -0.19286284 -0.088540345
000200 1a da b6 bd e9 76 6a be cd f5 8b 3e 43 5c ac 3c
       -0.08928318 -0.22896923 0.2733597 0.021040088
000210 52 e2 a7 3e fd 21 af be 92 13 88 3d a1 60 f9 be
       0.32789856 -0.34205619 0.06644358 -0.48706535
000220 7f 53 d9 be 48 f0 cd bd bb ac 1e 3e c2 1d 05 bf
       -0.42446515 -0.10055596 0.15495579 -0.5199853
000230 3c 6a ce be 79 9d 94 3e 4d dd 9e be 5d ca 78 bf
       -0.40315425 0.29026392 -0.31028214 -0.9718378
000240 9e 2a 60 be 7f 88 90 3e fb 29 ca 3d eb 46 b4 bd
       -0.21891257 0.28229138 0.098712884 -0.08802589
000250 20 22 9f be 3c c6 8e 3d c0 18 9f 3e 8b e2 f9 bd
       -0.31080723 0.06971404 0.3107357 -0.12201413
000260 fe c2 16 3e 80 f0 c3 be e0 2e 89 3d 03 4a fc 3e
       0.14722821 -0.38269424 0.06698394 0.49275216
000270 e7 bf 1d be 46 11 5a bf e5 fb 36 be 9e 9f 88 be
       -0.15405236 -0.8518261 -0.17869528 -0.26684278
000280 98 22 9a 3e 78 0b e8 be 9d 93 22 3e 85 da 58 be
       0.30104518 -0.4532125 0.15876622 -0.21177109
000290 4b fe d6 be 6b 05 b7 3b 28 5a 8f bc d5 12 12 3e
       -0.41990885 0.0055853627 -0.017499045 0.14264996
0002a0 40 d9 ce be 72 e4 8f 3e 42 75 0f 3e d7 ef 6e be
       -0.40400124 0.28103977 0.14009574 -0.23333679
0002b0 e7 72 f6 3e 69 68 3e be f9 ab 6a 3a ea ee 58 3e
       0.4813454 -0.18594517 0.00089520175 0.21184888
0002c0 d9 44 e6 be cc 95 ee 3e bb 1d 8d 3e 9f 3b fb be
       -0.44974402 0.4659866 0.27561745 -0.49068925
0002d0 fa 0c 05 bf c4 15 5b 3c da fc 6c 3e 8f b4 93 bd
       -0.51972926 0.013371889 0.2314333 -0.07212173
0002e0 01 75 85 be 12 83 97 be e1 cb 09 bf 6a b1 5d be
       -0.2606583 -0.29592186 -0.5382672 -0.2164971
0002f0 03 cb 9a be 98 8b 5b 3d de 1d a9 3d ab 59 02 bf
       -0.3023301 0.053599924 0.0825765 -0.5091807
000300 b6 b4 9a be 11 ae 22 3d 1f f4 6a 3e 71 68 db 3e
       -0.30215997 0.039716784 0.22944687 0.4285312
000310 3e b7 9b 3e 33 92 63 bc 54 07 64 3e 9c 94 ac 3d
       0.3041324 -0.013889837 0.2226842 0.084267825
000320 a1 e1 9e 3d 8e ca 87 3d 1f f4 fc bd 97 1b 98 3e
       0.07757879 0.06630431 -0.1235125 0.2970855
000330 0c 02 be 3e 4b b4 3d be 20 47 99 3f 0c 4b 0f bf
       0.37110937 -0.18525808 1.1974831 -0.5597389
000340 8f eb 38 3e 81 9b 78 be 7d fd 79 bf 51 d3 97 bd
       0.18058608 -0.2427807 -0.9765242 -0.07413352
000350 a0 d5 18 be 8c d1 04 3e 05 9a e5 bd 4d c5 2b 3f
       -0.14925241 0.12970561 -0.112110175 0.6709793
000360 94 f0 b2 3e 38 5a ac be bf 7c 90 bd 4d a9 9f bc
       0.34949172 -0.3366258 -0.070550434 -0.019489909
000370 8a 84 6e be 11 9e e8 be 93 5e 21 3b 75 c6 96 3d
       -0.23292747 -0.45433095 0.002462302 0.073620714
000380 d2 d4 0f 3f 7a 33 35 3f 58 8e 0f 3e 07 ce 4f bd
       0.56184113 0.7078167 0.14019144 -0.050733592
000390 c1 dd d8 3e a2 63 9a 3b cc b8 e5 be e3 b9 50 bd
       0.42356685 0.004711584 -0.4486755 -0.050958525
0003a0 cc 90 3d be d8 21 87 3e 2c b3 0d bd 37 4f 8f be
       -0.18512267 0.26393008 -0.0345947 -0.27990124
0003b0 4d f7 d3 3e bc 93 35 bd c8 e8 d0 3e fd 79 d8 3e
       0.41399613 -0.044330344 0.40802598 0.4228057
0003c0 be 06 22 3e 0f 14 e2 bd 09 db 56 bf 57 fe 73 3d
       0.15822884 -0.11038982 -0.8392797 0.05956873
0003d0 dd a4 c2 3e 93 b7 83 bd 76 d8 63 be 2f dd 46 be
       0.38016406 -0.064314984 -0.22250542 -0.19420312
0003e0 d3 f2 ea 3d d4 ce 9d be 17 cf 2c bd d0 39 03 bf
       0.11472096 -0.3082186 -0.042189684 -0.5126009
0003f0 47 01 86 ba a1 51 f3 bc 24 31 02 3f db ba a7 be
       -0.0010223769 -0.02970201 0.5085623 -0.32759747

network_body._body_endoder.seq_layers.0.bias f4 [128]
000000 c6 86 85 3a 65 97 1b bc 55 9e e1 3c 81 8b b6 3b
       0.001018726 -0.0094965445 0.027541319 0.0055708294
000010 c0 cf 1e bd 6e 93 7f 3c e4 cc 64 3d 55 7e 93 3b
       -0.038772345 0.015599115 0.05585946 0.004501144
000020 68 d0 fa 3a 2b f6 04 3d 80 2f 44 bc e2 c7 e3 bc
       0.0019135596 0.032461327 -0.0119742155 -0.027805272
000030 18 de 4d 3d eb 88 c4 3b d6 36 90 39 7f f5 93 3c
       0.050260633 0.005997767 0.00027506676 0.018061398
000040 84 0e 55 3d 59 d7 81 bc 94 e4 c5 3b 47 e6 6d 3c
       0.052015796 -0.015849756 0.0060392115 0.014520234
000050 34 dd 74 3c af ec d4 3b c9 4f d6 3c 4e 0b c6 bb
       0.014945317 0.0064979414 0.026161091 -0.006043828
000060 05 40 78 3d 3f 3f 12 3d 03 da ac 3c 65 6e b5 bc
       0.06060793 0.035704847 0.02110005 -0.022147367
000070 5d 95 91 3b 79 bc d6 3b 26 ef 02 bd 86 4e 38 3c
       0.0044428543 0.0065532294 -0.03196635 0.01124919
000080 8b b6 28 bc e1 b2 d3 bc 71 ad 54 3d 5c 1e b3 3c
       -0.010297428 -0.025842132 0.05192322 0.021865062
000090 e8 da f3 bc e8 dc c9 bc 33 ee 82 3d 37 b5 ae bc
       -0.029767469 -0.02464147 0.06393089 -0.021326644
0000a0 1e d1 48 bc fa cb c3 3c 45 b5 a1 3c ae 14 11 3c
       -0.012256889 0.023900975 0.019739756 0.008855028
0000b0 ab 5b 1e 3c 4d e2 85 bc a2 e4 c4 3c f7 57 0b 3d
       0.00966541 -0.01634326 0.024034802 0.034019437
0000c0 45 85 86 bb 5a a6 bd 3c 85 87 01 3d cc 22 8c bc
       -0.0041052424 0.023150612 0.031623382 -0.017106436
0000d0 10 04 c9 3c 5e cd e3 bb 75 02 41 3d c5 0f 8a bb
       0.02453807 -0.006951972 0.047121484 -0.0042133057
0000e0 4e 34 2e bb 22 d2 ba bc 80 86 77 bc 99 ae 23 3d
       -0.002658147 -0.022805277 -0.015107751 0.03996143
0000f0 8d 79 21 3d aa 1c 3f 3c 12 3a bb 3c 16 c1 4f bc
       0.03942256 0.011664549 0.022854839 -0.012680313
000100 6b 81 73 3b 14 ab 5a 3d 46 2a 58 bc 5f 2e 3f bc
       0.0037155997 0.05338581 -0.0131936725 -0.011668771
000110 3b 59 fb 3a 6f 9a 0a 3d ba 39 d2 bc e5 4e 2f bb
       0.0019176373 0.033838686 -0.025662292 -0.0026749906
000120 ae 46 7e 3a fd 45 27 3b 5d 67 55 3d 65 2d 22 38
       0.0009699863 0.0025523894 0.052100528 3.8666087e-05
000130 7f df 29 3c fd 88 ea b9 e6 5f 52 3d 1b cc e4 3c
       0.010368227 -0.00044734022 0.051360987 0.027929356
000140 e9 9b 6b ba 72 b1 f9 3c 72 ef 20 bc 35 3c c5 3c
       -0.0008987771 0.03048012 -0.009822713 0.02407656
000150 33 c3 df bb 4c 0f 47 3c 53 d7 1c bd ca 6a 93 bc
       -0.0068286895 0.012149643 -0.038291287 -0.017995257
000160 d5 20 3c bc ad 58 4c 3c 3c 97 d8 3c d1 43 7c 3d
       -0.011482437 0.012472314 0.026439302 0.061588112
000170 6c d7 b4 bc b6 41 2e bb 6b 2b 17 3d 18 a5 f8 3c
       -0.022075377 -0.002658946 0.03690664 0.03035216
000180 07 9a b4 3c 55 8f 8e 3c 03 6e 1a 3d f5 cc ce 3c
       0.022046102 0.01740233 0.03770257 0.025244216
000190 d8 f7 2d 3d 83 fe 36 bc 29 eb 34 bd 5e 4e 6f 3d
       0.04247269 -0.011169079 -0.04416958 0.058424346
0001a0 95 8c 37 bc 8a 5b b1 3c c4 54 43 bd 4c d5 ec 3a
       -0.011202951 0.021650095 -0.04768826 0.0018068939
0001b0 74 6c c3 bb 96 f7 93 3c 55 23 20 3d 10 37 bf bc
       -0.0059638564 0.018062394 0.039096195 -0.023341686
0001c0 69 78 e3 bc 6d 83 9c 3c 67 ef b4 3c 5f 6d 6a bd
       -0.027767377 0.019105637 0.022086812 -0.05723321
0001d0 2f 99 93 bc b8 19 85 3c 3f 31 1b 3d 88 fa 95 3c
       -0.01801738 0.016247615 0.03788876 0.01830794
0001e0 41 0d 91 3b d2 77 45 3d 20 ed fb 3c 16 cb 0f 3d
       0.004426629 0.048209973 0.030752718 0.035105787
0001f0 a0 5b f3 ba 8c 4e 73 b8 0d 8f 0d 3d 8f 95 d4 bc
       -0.0018566735 -5.8008867e-05 0.034560252 -0.025950221

network_body._body_endoder.seq_layers.2.weight f4 [128, 128]
000000 ac a0 c1 3d 40 f2 a8 bd 86 e1 3c bd 9d 30 22 bb
       0.09454474 -0.082493305 -0.046113513 -0.0024748214
000010 37 fb fc bb 1a c1 38 bd 1d 79 12 3e b8 66 64 bc
       -0.007720377 -0.04510603 0.14304014 -0.013940506
000020 11 42 d5 3d 04 14 7b bd 53 d5 b4 3c f4 b7 21 3d
       0.10412992 -0.061298385 0.022074377 0.039482072
000030 79 0d e8 b9 d5 20 85 3e e8 f9 9c bd 16 c5 01 3e
       -0.00044260526 0.2600161 -0.07664853 0.12672839
000040 5f 23 21 bc bd 22 08 be 0a 38 82 bc 9e 2c cd 3d
       -0.009835093 -0.13294502 -0.015895862 0.10018276
000050 9e 3f 65 bd 3e b9 fd 3d af 0f 1d bd d7 c0 e3 bd
       -0.055968873 0.12388848 -0.038345035 -0.11120766
000060 53 61 07 bd 0d c7 69 bc f5 6c 87 bd 85 9d 91 3d
       -0.0330518 -0.014268649 -0.06612579 0.071101226
000070 07 cb d8 bd 2a 98 23 3d 08 10 4a 3e f0 58 56 bd
       -0.105855994 0.039940037 0.19732678 -0.05233091
000080 1f b8 a6 3c 26 56 9d ba 67 6a d0 3d 53 9d 33 3d
       0.020351468 -0.0012003824 0.10176545 0.043851208
000090 49 8e c7 3d 60 9d e9 bb 15 d1 98 bc 69 96 8b 3d
       0.097439356 -0.0071293563 -0.018654386 0.06815798
0000a0 8e f4 8b 3d dd 85 05 be 44 37 aa 3d 2d 59 39 3e
       0.068337545 -0.13039346 0.08311322 0.18100424
0000b0 3a 92 30 be 50 3d 10 3d e2 7d 7e bd d6 29 95 3a
       -0.17243281 0.035214722 -0.06213177 0.0011380266
0000c0 76 19 80 bd bc 44 66 3c 5f d6 9c 3d 4e 41 01 3d
       -0.06254856 0.0140544735 0.076580755 0.03155642
0000d0 f6 e9 e7 bc b5 f0 b1 bd 34 ff 94 3d 77 67 39 3d
       -0.028309803 -0.08688489 0.07275239 0.045264687
0000e0 b9 71 87 bd 31 28 ab bc b7 81 eb bc 57 b3 56 bb
       -0.06613488 -0.020893188 -0.028748376 -0.0032760703
0000f0 35 b1 c2 3d f3 84 49 bd 98 66 98 3d 32 f8 a8 3d
       0.09506456 -0.049199056 0.07441443 0.082504645
000100 f3 67 90 bc 13 52 f9 3d 0a 60 5e be 1a c6 40 3d
       -0.017627692 0.121738575 -0.21716323 0.047063924
000110 5b f0 32 3c 9a 98 ec bc ad 76 da bd f8 dd ab 3d
       0.010921563 -0.02888136 -0.10667167 0.083919466
000120 53 9f 87 bd f0 8e b3 bc 5e 3c e3 bd 00 b1 c2 bc
       -0.066221856 -0.021918744 -0.110954985 -0.02376604
000130 84 77 ab bd 3b 12 d1 3c 20 4e 81 bd b9 90 ff bd
       -0.08372405 0.025521388 -0.06313729 -0.124787755
000140 3b ec db 3d c2 49 8f bc 21 28 18 bd 1c 0c e1 bd
       0.10738417 -0.017491225 -0.037147645 -0.10988638
000150 c3 26 13 be b0 43 65 bd e1 1c ce bc f4 82 57 3c
       -0.14370255 -0.055972755 -0.025160255 0.01315378
000160 93 d4 c7 3d 5a e6 2c be 18 a6 fe 3c 3e 26 32 3c
       0.09757342 -0.16884747 0.031085059 0.010873375
000170 f4 97 34 3e 25 2d 6a bd a0 55 08 3e 02 ce ae bd
       0.1763609 -0.05717196 0.13313913 -0.085353866
000180 aa 12 a6 bd e3 4d a0 bd 70 c6 00 3d ab ac d4 3d
       -0.08109029 -0.07827356 0.031439245 0.10384496
000190 92 2f 90 3d 1d 5f 4c bc b7 a7 15 be 5d 89 3a 3d
       0.07040323 -0.012473849 -0.1461476 0.045541156
0001a0 e5 cb 1b bd 86 0d 82 3d 64 6e b2 bc 05 9e b3 3d
       -0.038036246 0.06350236 -0.021781154 0.08770374
0001b0 f7 a8 6a 3d 64 34 e4 3d cc af 1c 3e e0 8c 23 3e
       0.057290044 0.11142805 0.15301436 0.15971708
0001c0 bb e9 f9 bd fe 17 6c 3d 26 a5 05 3d f7 27 5a 3c
       -0.12202784 0.05764007 0.0326282 0.013315192
0001d0 27 db b6 3d 2e 2c 12 be ae db 0a 3d 87 88 13 be
       0.08928519 -0.14274666 0.03390091 -0.1440755
0001e0 ec d9 2c bc 11 e3 be bd 97 e9 4c bd ae cc b8 3d
       -0.0105500035 -0.09320653 -0.050027456 0.090234146
0001f0 44 6e f7 bb 82 94 1b 3d 78 e8 ae 3b a3 0b 0b be
       -0.0075509865 0.037983425 0.005337771 -0.13578658
000200 8c a5 a0 bd 54 d6 5b bd 9e f7 8c 3b 59 93 3a 3b
       -0.078440756 -0.053671196 0.004301979 0.0028469174
000210 d8 31 85 3d 05 ae bb 3d 39 27 08 3e af ea bf bd
       0.065036476 0.09164051 0.13296212 -0.09370934
000220 e6 f2 71 3e 0e b9 23 bd 0c f6 f8 bd 0a 64 ac bd
       0.23627815 -0.039971404 -0.12156305 -0.084175184
000230 89 9f 20 3c c8 19 cf 3d 0a 78 bb 3b 89 a7 95 3d
       0.009803661 0.10112339 0.005721097 0.073073454
000240 ca c2 b5 3d 64 bb 31 3d 3a 0c 3b be 0d 67 ca bd
       0.08875044 0.0433916 -0.18266383 -0.098829366
000250 e2 cf 43 3d 16 2c e4 bd f4 56 a2 3c 4d 94 14 bd
       0.047805674 -0.11141221 0.019816853 -0.036274243
000260 f6 2a 96 bc c8 e2 54 3c 5f 6f 9d 3c eb 48 8d 3d
       -0.018331032 0.012993522 0.019218145 0.068986736
000270 e6 64 8a 3d d4 aa 49 3d fe 60 d7 bc 56 b6 1f 3d
       0.06757526 0.04923518 -0.026291367 0.03899225
000280 18 f2 89 be a6 ce f7 bd c0 66 92 bd e3 88 97 3d
       -0.26942515 -0.12099962 -0.07148504 0.07399156
000290 f8 5f 34 3e 85 1c 37 b9 c6 79 22 3d 44 fd 9a bd
       0.17614734 -0.00017462864 0.039666913 -0.07567838
0002a0 e2 67 01 3e c2 12 0d bd 8a f0 dd bd 55 15 1c 3e
       0.12637284 -0.034441717 -0.10836895 0.15242513
0002b0 30 57 9a 3d 81 2e 60 bd 88 2e 5f 3d c9 13 96 3d
       0.07536161 -0.05473185 0.054487735 0.073279925
0002c0 28 9a f6 bc a7 cc 3e be a7 64 b2 3d c9 48 dc 3d
       -0.030102804 -0.18632756 0.08710604 0.1075607
0002d0 bc 7a f2 bd c0 d5 51 3d 18 28 63 bd 3b 22 d9 3d
       -0.11839816 0.05122924 -0.05545816 0.10602232
0002e0 26 dd 09 bd 56 3b 6e 3d a5 d5 88 3e ec 73 d1 bd
       -0.03365817 0.058162056 0.26725498 -0.102271885
0002f0 b8 4e 80 bd 76 73 30 3d 58 cd d7 3d 3d 1d 06 3d
       -0.062650144 0.043078862 0.10537213 0.032742728
000300 e5 b6 64 be 0b 96 ab bd 46 74 1a 3e cc 12 06 bd
       -0.22335394 -0.08378228 0.15083417 -0.03273277
000310 13 c7 24 3e b1 36 0b be 19 6a e2 3d 52 87 74 bd
       0.16091566 -0.13595082 0.11055393 -0.059699364
000320 99 27 05 be 8f 32 76 bd d7 17 cc 3c 10 b6 ab 3e
       -0.13003387 -0.06010681 0.024913711 0.3353734
000330 78 8a 12 3e ac e9 6e 3d 64 37 c2 bc 2d f7 48 3d
       0.14310634 0.058328316 -0.023708053 0.04906385
000340 4d 52 4e 3d bc cc 25 3c ec 17 01 3c a2 a0 ad bd
       0.050371457 0.010119613 0.007879239 -0.08477904
000350 4e 1a 29 be 3a e9 b2 bc 3c fc 87 3d af 72 8b bd
       -0.1651394 -0.021839727 0.06639907 -0.068089835
000360 dc 61 88 3c d3 34 67 3b b0 58 ba 3d 3f ae c2 bd
       0.016648225 0.0035279288 0.09098947 -0.09505891
000370 da d7 7e 3a a8 cf 32 3e c9 55 0f 3e 30 49 99 bb
       0.00097214954 0.17462027 0.13997568 -0.004677914
000380 b8 99 65 3d e0 29 49 3e d4 4b 22 3d 38 48 e7 bc
       0.0560548 0.1964488 0.039623097 -0.028232679
000390 71 d1 32 bd 9e ac e3 3c 34 4d c5 bd 65 f8 c1 3c
       -0.04365677 0.027792271 -0.09633866 0.023678014
0003a0 4f bf e5 bd ec cb e9 3d d5 ef c8 3c 3a 98 1c 3e
       -0.1121813 0.11415848 0.024528423 0.15292445
0003b0 b2 d6 53 bd 5e 50 05 bd e2 90 68 bd 44 11 a4 bd
       -0.05171842 -0.032547347 -0.056778796 -0.08011106
0003c0 62 5e fa 3c 82 1a 1e 3c a3 4b 08 bd 4c 31 ca bd
       0.030562583 0.009649875 -0.033275258 -0.09872684
0003d0 d7 cf 9a bd d4 83 48 bc e2 f6 35 3d cf e5 d0 3c
       -0.075591736 -0.0122384615 0.0444249 0.025500206
0003e0 46 6f 5e bc 84 a1 56 3e 4e 17 7e bd 81 43 05 3e
       -0.013576334 0.20960051 -0.062033944 0.13014032
0003f0 9b 50 e5 bd fe 5e a8 bd d8 90 0c 3c e8 9c 81 3d
       -0.11197015 -0.08221243 0.008579455 0.063287556

network_body._body_endoder.seq_layers.2.bias f4 [128]
000000 22 ba 32 3c 39 2a 6d 3a 4b 06 17 3d 18 dc 81 3c
       0.010908635 0.0009047124 0.036871236 0.01585202
000010 40 f2 66 3b 65 2e 91 3c f3 a1 11 3c 00 36 d7 3c
       0.0035239607 0.017722318 0.008888709 0.026270866
000020 ee ea 1a bb 95 18 97 3c f0 82 38 bc 56 51 00 39
       -0.0023638564 0.018444339 -0.011261687 0.00012237331
000030 e4 28 0d 3d 8d be de 3c d5 4d aa 3b 28 e4 19 3c
       0.034462824 0.027190471 0.0051972666 0.009392776
000040 9b f6 40 bc 79 bb 6c 3d 93 22 95 bb ae 22 e0 ba
       -0.011777545 0.057795975 -0.0045512407 -0.0017100179
000050 c6 54 c4 3c 25 ab 96 bc 64 dd c3 bc e4 9d fc 3c
       0.023966204 -0.018392155 -0.023909278 0.030837007
000060 0b c0 e0 bb a6 f2 ed bb 1e 04 a3 3b 88 2f b0 bb
       -0.006858831 -0.007261592 0.004974856 -0.00537676
000070 d9 23 fa 3c e1 e8 af 3c d2 9e 84 bb 9f 8b 97 bb
       0.030534672 0.02147335 -0.004047253 -0.0046247984
000080 c6 3b 1e 3c 89 0c fc 3c d4 a6 ea 3c a4 6e 6a 3d
       0.009657806 0.030767696 0.028644003 0.05723442
000090 2b 62 5c ba 24 13 bd 3b 1b 4c 28 bb 4c fd e9 bc
       -0.0008406962 0.005770104 -0.0025680128 -0.028563164
0000a0 4f b7 5d bb d6 ff 85 3c dc 27 4a 3b 79 18 3a 3d
       -0.0033831184 0.016357344 0.0030846512 0.045433495
0000b0 19 9c 3c 3d 81 6b ef bb f1 a7 a2 bb 62 27 ca 3c
       0.046047304 -0.0073065166 -0.004963868 0.024676982
0000c0 0e 8b 41 bc 53 b3 8e 3d 75 33 92 3c f5 5f 9a 3c
       -0.011812938 0.06967797 0.017846802 0.018844584
0000d0 d8 72 0b 3c 35 ed 14 3d e4 18 76 3b 5e a2 a4 bc
       0.008511268 0.03635903 0.0037551457 -0.020096954
0000e0 a4 1d 84 bc 66 02 7a bb 60 98 98 bb a0 58 8f 3b
       -0.016127415 -0.0038148402 -0.0046568364 0.0043745786
0000f0 75 8d 26 3d 56 38 15 3d 57 76 c2 3b 71 1c b2 ba
       0.040662248 0.03643068 0.0059345174 -0.0013588798
000100 06 9a c9 bb 36 3f ba 3c 0f 3c 09 3c f5 34 e4 bb
       -0.006152394 0.02273522 0.0083761355 -0.006964321
000110 85 5a 1b 3c 25 7b 12 3d 11 91 89 3b 22 d1 6b bc
       0.009482031 0.03576197 0.0041982015 -0.014393123
000120 71 9f 32 3d 58 56 86 bc 4f 0f bd 3b 2c 4f 5a 3c
       0.043609086 -0.016398594 0.005769647 0.01332454
000130 86 1c 41 bb 91 c4 ab 3c 68 23 86 3d 01 0a a4 bc
       -0.0029466464 0.020967754 0.06549722 -0.020024301
000140 e0 59 94 bc 1c 74 80 39 00 71 1d 3d 62 54 f0 3c
       -0.018109262 0.0002450057 0.038437843 0.029337112
000150 2b c9 25 3c 9e 84 97 3c 54 3c ae 3c 3e 05 a8 3c
       0.010118763 0.018495854 0.021269001 0.020510312
000160 c8 13 2b 3d f2 b4 46 bb ac d1 3c 3b ee 14 69 bb
       0.04176691 -0.0030320254 0.0028811498 -0.0035565454
000170 6e a2 41 3c 95 fd 1d 3d 83 ab b9 39 ba 86 ee 3c
       0.011818511 0.038571913 0.00035413736 0.029116977
000180 7f f6 ad 3c 0e fb de 3c bb 7e c3 bb a7 e6 18 3d
       0.021235703 0.027219322 -0.005966035 0.037329342
000190 43 0f 97 bc 63 11 dd 3c 38 90 4d 3d 35 26 00 bc
       -0.018439895 0.02698583 0.050186366 -0.007821609
0001a0 77 d8 f8 bb df 86 fe bb 0b 6b 0b bc 2e 43 9c 3c
       -0.007594164 -0.0077675427 -0.008509408 0.019075003
0001b0 35 68 49 3b 70 a0 30 3d 62 9f 86 3d 94 89 58 3c
       0.0030732278 0.043121755 0.065733686 0.013216395
0001c0 15 b7 36 ba 1a f0 05 bc 37 49 bb 3c b7 00 a6 bb
       -0.00069700304 -0.00817492 0.02286206 -0.005066003
0001d0 01 1c 64 bc 79 bc 2c bc 22 68 a6 b9 2b 61 ac 3c
       -0.013922692 -0.010542982 -0.00031739572 0.021042427
0001e0 6b 74 b3 3c 0c 3b a9 3c f2 70 3b 3c 1f 29 2e 3d
       0.021906098 0.020658039 0.0114405025 0.042519685
0001f0 92 ba cc 3b c8 cd f8 3a bd 35 f1 ba ba 12 c9 3b
       0.006247827 0.0018982226 -0.0018402856 0.0061362656

action_model._continuous_distribution.log_sigma f4 [1, 2]
000000 c1 be 66 bc ab fb 7a bc
       -0.014083565 -0.015318791

action_model._continuous_distribution.mu.weight f4 [2, 128]
000000 6e 9c 82 3b 27 a6 39 3b 80 1f 63 bc cd 32 26 bd
       0.003985933 0.0028327794 -0.013862491 -0.04057579
000010 bd f0 98 3c 8d ab 5f bd 3c 15 16 3d cd 92 0d 3d
       0.01866948 -0.054606963 0.036641344 0.03456383
000020 45 63 81 bc 46 7b 83 3d 67 06 93 3c ae 4e f3 bb
       -0.015794406 0.06419997 0.017947389 -0.007425151
000030 ca e6 46 bd a4 59 90 bd 0d f6 81 3d d4 07 a8 bc
       -0.04855994 -0.070483476 0.063457586 -0.020511545
000040 e3 76 ee bb e7 63 89 bc e8 5a 22 3d 66 f3 f4 3a
       -0.007277356 -0.01677127 0.039637476 0.0018688261
000050 7b 19 81 bd 17 38 f3 3c 11 d4 5c bb ca 9d 60 3d
       -0.06303688 0.029689832 -0.0033695737 0.05483798
000060 90 d2 29 3d b5 05 c3 bc da ea 12 3d a7 70 28 bb
       0.041460574 -0.023806432 0.035868503 -0.0025701912
000070 4a a2 86 bc d4 fb c4 3c 8c d0 62 bc 2e c6 17 3c
       -0.016434807 0.024045862 -0.013843667 0.009263558
000080 72 d5 0d 3d 48 95 ab 3c 82 96 51 3d 07 53 73 bd
       0.034627385 0.020945206 0.051168926 -0.059405353
000090 26 52 f6 3c 52 3d 51 bc 97 40 30 3d 3a 4a e5 b9
       0.030068468 -0.012770968 0.043030348 -0.00043733587
0000a0 de 15 a0 bc ae a2 10 bd 81 9b 0e 3d e9 75 b3 bd
       -0.019541677 -0.035311393 0.03481627 -0.08762724
0000b0 56 9f f7 bc 55 fa b7 3c 75 a7 00 bd c1 50 04 bd
       -0.030227344 0.022458235 -0.0314097 -0.032303575
0000c0 e6 db 94 3b 59 1e fe bd 8d e6 4a bc 2a 0a b2 bc
       0.0045428155 -0.12408132 -0.012384069 -0.021733362
0000d0 f9 74 80 3d 5a d0 1e bd f9 ca 9b 3c 1b 7f 81 ba
       0.06272311 -0.03877292 0.019017683 -0.0009879799
0000e0 34 8b 18 3c 59 68 04 3d 0c 7d 92 ba 59 95 5e 3d
       0.009310532 0.032326076 -0.0011176183 0.054341648
0000f0 44 c7 10 bd dc 3e d9 bc ae ac 01 bd 3b dd 3b bb
       -0.035346285 -0.026519231 -0.03165882 -0.00286658
000100 05 88 f2 3c 1e bc a8 3d ca 05 47 3d 14 9f 48 3b
       0.029605875 0.082390055 0.048589505 0.0030612396
000110 c0 cc 96 3d 79 9a 03 bd 0f 0f 4a 3c 2f 72 ae 3c
       0.07363272 -0.03212974 0.012332692 0.021294681
000120 f5 ef 5c bd 69 df 3a 3a 72 ba 59 3c c0 9b 00 bd
       -0.05393978 0.00071286276 0.013289081 -0.031398535
000130 09 3a cd 3c 72 b6 20 3d 4b b1 94 bd f2 aa 00 3b
       0.025052087 0.039236493 -0.072603785 0.0019633141
000140 5b 97 ad 3c e4 d6 fd 3b 46 b3 b4 bc 2f b1 83 bd
       0.021190336 0.007746564 -0.02205814 -0.064302795
000150 47 90 6b bc 24 fd de bc 5d 25 09 bd dd 5e 20 bb
       -0.01437766 -0.027220316 -0.033482898 -0.0024470605
000160 6f 74 8b 3c 3f fe 48 bc 0c c2 05 bd f3 e0 ab 3c
       0.017023293 -0.012267648 -0.03265576 0.020981288
000170 49 68 19 bd 0d eb b3 3d 76 1f c1 bb f3 73 52 3d
       -0.03745297 0.08785067 -0.005893643 0.05138011
000180 1d 89 46 bd ae 78 01 bd 3f af 05 3d 5d 47 bd bc
       -0.048470605 -0.03160923 0.03263783 -0.023105318
000190 d3 98 32 3c a6 98 53 bd bb 6b 5a bd 09 4e 83 3c
       0.010900694 -0.05165925 -0.053325396 0.016028421
0001a0 d4 fa 43 3d c7 28 c2 3b 26 fe a8 3c 77 81 64 3d
       0.04784663 0.005925271 0.020629 0.05578753
0001b0 8c 37 4b 3d bf 54 22 bd 99 3c ac bd 62 10 b5 bb
       0.04961352 -0.0396316 -0.084099956 -0.0055256346
0001c0 d2 dd 26 3d e9 84 14 bc 82 1f af bc 21 d4 e4 3b
       0.040738888 -0.009064891 -0.021377329 0.0069832955
0001d0 3d 82 ce 3c 34 5b 86 bb 27 2a 6b bc cb 45 8f bc
       0.025208587 -0.0041002277 -0.014353312 -0.017489335
0001e0 f5 3d d9 bc 37 4c 9b bc 94 f6 8d bb 1b a5 18 bd
       -0.026518801 -0.01895724 -0.004332373 -0.03726683
0001f0 b0 7c 3b 3d 61 2c 1c 3d 6a 5a 7b bc b9 c5 aa bb
       0.04577321 0.03812826 -0.015341381 -0.0052115587
000200 9a f9 08 bc 90 ab 16 3d 5f 02 66 bd ac 88 cd 3c
       -0.008360291 0.03678471 -0.056154605 0.025089584
000210 71 33 7d bc c7 3d 72 3d d9 b5 19 bc 30 28 99 3d
       -0.015454159 0.059140947 -0.009381735 0.07478368
000220 fe a3 49 3d 9d f6 37 3c 9c b8 b1 ba 01 2c cf 3c
       0.04922866 0.011228231 -0.0013559046 0.025289537
000230 ec 70 a1 3c 84 07 ce bc 90 43 42 bb a5 77 24 3d
       0.019707166 -0.025150068 -0.0029642321 0.040153164
000240 de 7a 7e 3d 5c bb 8a bd ac 0d 9d bc 3e e4 97 bc
       0.062128894 -0.06774017 -0.019171558 -0.018541452
000250 2b 55 cc bc 8c 87 b8 3b ea 7a 59 b9 34 36 e2 3c
       -0.024942955 0.005631393 -0.00020740522 0.027613737
000260 ef 52 cc 3b 0e f4 a0 3c 94 5e c5 bc 08 cc 2f 3c
       0.0062354724 0.019647624 -0.02409295 0.010729797
000270 b8 0d 1e bd 6b a3 3f bd f3 71 e3 3c 36 af 84 3c
       -0.038587302 -0.046786707 0.027764296 0.016196828
000280 27 62 0c bd e6 63 3c bd 61 9b a9 bc e8 b1 b5 3c
       -0.034273293 -0.045993708 -0.020703973 0.022179559
000290 e9 56 42 3d 97 d7 96 bc 70 96 fe 3b f0 c1 a3 3a
       0.047446165 -0.018413348 0.0077693984 0.0012493711
0002a0 ee bb 65 3a 60 ef 1e 3c be 25 26 bc b4 a6 63 3c
       0.00087636604 0.009700626 -0.010140834 0.013894726
0002b0 05 33 72 bd cf 4c 7c 3c ca 7e 26 3d 21 93 36 bd
       -0.059130687 0.015399172 0.04064826 -0.044573907
0002c0 f7 db 0d 3d 3d ce 3d bc 4c 2d 7e 3d dd 0a 9e bc
       0.034633603 -0.011584816 0.062054917 -0.01929229
0002d0 f9 06 1e 3d 7f 4c fe 3c 4a 6c 1a 3d 10 c1 0f 3c
       0.03858087 0.031042336 0.03770093 0.008774057
0002e0 2a fa 97 3b ba 66 32 3c 89 e4 67 3d 93 a7 f1 bc
       0.004637976 0.01088875 0.056614432 -0.02949885
0002f0 08 87 ec 3a 73 4b 88 bd b5 cf 8c bc 3e 6a 49 3d
       0.0018045614 -0.06655016 -0.017188886 0.049173586
000300 36 86 1b 3d 2f dd 8c bb 78 30 78 bb 62 76 8d bb
       0.03796979 -0.004298828 -0.0037870687 -0.004317091
000310 2d 0f cf bc 46 d6 96 bd af 12 48 bc a6 e3 94 3c
       -0.025275791 -0.07365088 -0.012211486 0.018174957
000320 69 26 05 bd 7e a0 61 bc 97 09 ca bc 25 95 86 bb
       -0.032507334 -0.0137711745 -0.024662776 -0.004107135
000330 db 94 a6 3c 04 d3 56 bd c7 eb cb bc 76 39 cc 3c
       0.020334652 -0.052447334 -0.0248927 0.024929743
000340 08 da 57 3c 2b 0d 49 3d 52 6a 07 bd 6c 25 75 3b
       0.013174541 0.049084824 -0.03306038 0.0037406338
000350 af c0 60 bc 00 5d f8 3c dc 1a 2a 3c 96 55 e2 bc
       -0.013717814 0.030317783 0.01038238 -0.027628701
000360 a0 e1 4c bd 6d d2 17 3c 55 64 d8 3c 5c 49 af 3c
       -0.05001986 0.009266478 0.02641503 0.021397285
000370 c9 0d 87 3d 30 fa 1e 3d 58 12 b1 3c 17 0d 9e bc
       0.06594426 0.038812816 0.021615192 -0.019293351
000380 36 e1 bc 3a 97 7d 8d bc 63 ec c3 3c 80 2c ea bc
       0.001441038 -0.0172718 0.023916429 -0.028585672
000390 0a 2d 01 3c c2 1d 8b 3c 32 79 2e 3c 42 8b 93 3c
       0.007884273 0.016981963 0.010649012 0.01801074
0003a0 d4 c6 0a 3d 29 08 18 bc 7f 77 0d 3c 46 98 85 3b
       0.033881024 -0.009279289 0.008634447 0.0040769903
0003b0 a5 8e 3e 3d 24 01 eb bc 43 79 9f bc 12 86 b2 bc
       0.046522755 -0.028687067 -0.019467002 -0.021792445
0003c0 14 a0 2e bd 97 f5 84 3c 66 a2 28 3d 5f 03 85 bc
       -0.04263313 0.016230388 0.0411705 -0.016236959
0003d0 f5 14 a3 3c a5 3d a0 bb fc 3d 99 3c ea 9f 8a bc
       0.019907454 -0.004890161 0.018706314 -0.016921956
0003e0 34 05 92 3c b4 54 9c bc 78 a0 37 bc f1 f3 1f bd
       0.017824747 -0.019083358 -0.011207692 -0.039051
0003f0 75 47 91 3d bf 6a 89 3c 9e c1 a3 3c df 97 24 3d
       0.070937075 0.016774533 0.019989785 0.040183898

action_model._continuous_distribution.mu.bias f4 [2]
000000 b0 c3 8f bc f3 72 34 bc
       -0.017549366 -0.011013734

action_model._discrete_distribution.branches.0.weight f4 [1, 128]
000000 5f b4 d7 bb 54 bc 26 3c 70 e4 65 3b 17 f9 8c 3a
       -0.006582781 0.010176737 0.0035078786 0.0010755387
000010 87 38 12 3b 89 5c 05 bb 2f 88 a4 bc 04 9b 0a bc
       0.0022311525 -0.0020349345 -0.020084469 -0.00845981
000020 8f b4 92 3b e6 f9 29 bc b2 5c 66 ba 15 a5 bd bb
       0.0044770907 -0.010374522 -0.00087876164 -0.0057875016
000030 42 72 de ba 3b 06 ec bb 2f 64 10 3c b9 0e b5 ba
       -0.0016971307 -0.007202891 0.008812948 -0.0013813592
000040 64 21 12 3c 60 99 a4 3b 2f 7d 0f 3c 33 49 e0 3b
       0.008919094 0.0050231665 0.008757873 0.0068446635
000050 8b 09 47 bc 1b 6b 5f 3b 9d 0e 74 bb 8d 79 d4 39
       -0.012148271 0.003409094 -0.0037240156 0.00040526353
000060 fa 88 51 bb ad e3 77 3b af 1d f6 bb 6f f9 b1 3c
       -0.0031972514 0.0037824914 -0.007510863 0.021725385
000070 b2 69 a0 bb f9 56 92 bb b0 f9 02 bc cb 27 56 ba
       -0.0048954124 -0.0044659344 -0.0079941 -0.0008169382
000080 5b 77 52 3b d0 2e 6f 3b bc f9 1e 3c c1 31 30 bb
       0.0032114598 0.0036496408 0.009703096 -0.0026885124
000090 25 74 c2 bb 5d f0 d1 ba a2 ad 29 ba a0 d9 53 bb
       -0.0059342557 -0.0016017068 -0.00064727117 -0.003232576
0000a0 d8 8f 25 3c 7f 3a 80 bc fc 17 49 3c d3 39 a3 bb
       0.010105096 -0.015652893 0.012273785 -0.0049812584
0000b0 5d b9 4a bb 20 a6 c9 bb 53 1f 5b bc 4a 55 b8 3a
       -0.003093324 -0.006153837 -0.0133741675 0.0014063504
0000c0 2b 18 8d bc 07 28 1c 3b 4b 42 7c 3a 11 9b a4 3b
       -0.017223438 0.002382757 0.00096229155 0.005023368
0000d0 64 af 9d 3c ff 5e 7a 3c 12 13 dc bb 3f 63 c2 3a
       0.019248672 0.015281438 -0.0067161405 0.0014830603
0000e0 ec 3f 31 3c 64 5b ad b8 d2 73 f2 3b 05 6e 09 39
       0.010818463 -8.266306e-05 0.0073990608 0.00013106324
0000f0 78 4f de bb a6 e3 08 3c 20 c9 54 3c 7f 70 e0 3a
       -0.0067843758 0.008355057 0.012987405 0.001712337
000100 1c 5d 49 bc 07 fe 70 bc 0b 75 99 3b b6 32 00 bc
       -0.012290265 -0.014709002 0.004683142 -0.00782459
000110 57 f4 90 3b cc c0 01 bc c9 c1 87 bb ea d3 92 bb
       0.004423659 -0.0079195015 -0.004142974 -0.0044808285
000120 cd 10 fa 3b d7 b2 cd 3a 5d 73 17 bc 1c 9f 42 3c
       0.0076313973 0.0015693557 -0.009243813 0.011878755
000130 0f 94 a9 3b 3f 89 07 3b 5f cf 8e 3c e7 2b 93 bc
       0.0051751207 0.002068117 0.017432867 -0.01796527
000140 f3 d0 90 ba 33 0e b9 b9 1d 99 06 3c 64 f9 8f 3b
       -0.00110486 -0.0003529653 0.008215216 0.0043937434
000150 d0 4f 90 bb 0a 24 58 3c 27 c9 eb 39 b5 ec 60 3c
       -0.0044040456 0.013192186 0.00044972563 0.01372831
000160 ad 5e 90 b9 ff 52 3c 3b 77 5a 39 3c 33 53 94 bb
       -0.0002753636 0.0028735993 0.011313072 -0.0045265197
000170 4b 4b 61 3b cf 34 47 bb fc 4d 84 3b 5a 5f bd 3b
       0.0034377153 -0.0030396467 0.004037617 0.005779189
000180 37 8f a9 bb 28 0f e5 3b 9a 8d 26 3c a0 c7 28 3b
       -0.0051745432 0.006990332 0.010165596 0.0025753751
000190 b7 6b 4d 3b db 2a ef 3b 92 08 f7 bb 77 91 3c ba
       0.003134472 0.00729881 -0.0075388635 -0.0007193307
0001a0 fa 9d 5a 3b ca a7 7e ba 58 47 e1 3b 78 f8 96 bc
       0.0033358322 -0.00097143336 0.00687496 -0.018429026
0001b0 28 ee 0e bc 58 54 82 3c d5 0a ab bb f6 b4 86 3b
       -0.008723773 0.015909359 -0.005219797 0.0041109277
0001c0 d0 ad f9 39 07 51 10 3b 8d 42 6e 3b 47 9e 53 3b
       0.0004762248 0.0022020952 0.0036355585 0.0032290386
0001d0 57 3b 1a bb c7 63 13 39 8f e6 8c bb 52 1c 41 bc
       -0.0023533904 0.00014056182 -0.0042999457 -0.011786537
0001e0 c6 44 c4 3b 13 c7 b5 bb c0 f2 a4 bb e7 16 1d 3c
       0.0059896437 -0.005547413 -0.005033821 0.00958798
0001f0 08 24 57 3c ad a2 e0 bb 83 ec 04 3b 68 b4 3e b9
       0.013131149 -0.00685533 0.0020282574 -0.00018187019
