Shooter2Agents1EnvPlaybale/Assets/Models/OldModels/RollerBallB-42240.onnx (onnx, 79278 bytes, 8 tensors)

network_body._body_endoder.seq_layers.0.weight f4 [128, 8]
000000 52 9e e4 3e 74 f6 78 3e 43 59 08 be b8 b9 3a 3e
       0.4465204 0.24312764 -0.133153 0.18234909
000010 56 be d4 3e 60 e4 b6 3e 49 76 1d be e3 c5 de be
       0.41551465 0.3572111 -0.15377153 -0.4351035
000020 d4 47 3e bd 28 e9 e7 3d c4 30 9a 3d 47 4d ba 3e
       -0.04645522 0.11323768 0.075288326 0.36387083
000030 6e 68 94 bd 9e 74 72 3e 21 f3 fd be e1 05 38 3e
       -0.07246481 0.23677298 -0.49599555 0.17970993
000040 90 c9 8a 3e 0b 45 87 be d7 f8 d7 3e a4 8a 96 3e
       0.27106905 -0.26419863 0.42182037 0.2940265
000050 31 db a6 3e c6 56 d3 3d c8 e2 8c 3e 9c 7a d1 be
       0.32589105 0.10319285 0.2751677 -0.40913856
000060 25 6a 82 be 5f d8 2f 3e 7c 71 fc 3c 3b 0b cb 3e
       -0.25471607 0.17172383 0.030815832 0.39657006
000070 98 92 ad 3e c3 98 92 3e 2b 32 33 be 16 b2 35 3d
       0.33900905 0.28632173 -0.17499606 0.04435929
000080 48 c4 48 be af 70 1f bd f8 f5 61 bf 20 83 7b be
       -0.19606125 -0.038925823 -0.88265944 -0.24561739
000090 3f 97 cb bd 16 25 41 3d db a5 ae be 16 08 0e bd
       -0.09940957 0.04715451 -0.34110913 -0.03467568
0000a0 45 b6 8e 3e 09 c2 f5 be 54 6b fb be 0e d2 d9 be
       0.27873436 -0.479996 -0.49105322 -0.42543072
0000b0 97 ee 51 3d f4 56 49 3d c4 67 8c 3e cf 30 80 bd
       0.051252928 0.04915519 0.27422917 -0.062593095
0000c0 f6 b4 af be 3d 5d 32 bd 24 f2 03 3f f8 a0 9c be
       -0.3431775 -0.04354595 0.5154135 -0.3059156
0000d0 95 97 22 bd 5b 29 90 be d4 c2 be bd 88 10 e2 3e
       -0.03969534 -0.28156552 -0.09314504 0.44153237
0000e0 65 c9 e8 3e 84 3a d6 3d 97 4a 2a 3e 08 bd 4e bf
       0.45466152 0.1046038 0.16630016 -0.8075719
0000f0 7c 6b 78 bd 4e 72 2b be da 7d 82 3e ed 2e 29 3e
       -0.06064938 -0.16742823 0.25486642 0.16521807
000100 a6 71 25 3e 37 45 a9 bd 70 a1 1e 3f 58 d8 1d be
       0.16156635 -0.08265155 0.61965084 -0.1541456
000110 0c 1a 02 bf 8b ee 48 3e 51 3f bb 3d 7b 4e b4 3d
       -0.50820994 0.19622247 0.09142936 0.088040315
000120 78 8e 4d bd a4 34 15 bf 32 2e a7 3e 82 fb 75 3e
       -0.050184697 -0.5828345 0.32652432 0.24021724
000130 c0 b6 0a bf aa 8c 89 be 82 f6 14 3f 3c cd 2a 3e
       -0.54185104 -0.2686513 0.5818864 0.16679853
000140 92 48 ba be 6e 7a b2 3c 7f b4 ff 3e 07 db a0 be
       -0.36383492 0.021786895 0.49942395 -0.31417105
000150 e6 df da bd 3b e3 67 be 43 05 64 bf 5e 13 c5 3d
       -0.106872365 -0.22645275 -0.8907053 0.096228346
000160 80 be fd be 5c 95 4a be 19 96 55 3e a0 49 a1 3e
       -0.49559402 -0.19783539 0.20858039 0.31501484
000170 01 f6 b1 be eb de 4e be a6 bc f7 3e b3 79 98 3e
       -0.34758 -0.20202224 0.48386115 0.2978035
000180 85 fa fc 3d 3d 23 49 bd 71 d2 d5 3e 7f f3 a8 be
       0.1235247 -0.04910587 0.41762117 -0.32998273
000190 0c 66 0d 3d 10 c5 36 3e 83 67 f1 3e aa fe 1c be
       0.034521148 0.17848611 0.47149286 -0.15331522
0001a0 40 da 85 be 06 21 25 3f a7 ea 4c bf b2 33 89 3e
       -0.26143074 0.64503515 -0.8004555 0.26797253
0001b0 f2 75 c4 3c 6d 9f 04 b8 80 d2 ac 3d 52 0c a9 be
       0.023982022 -3.161973e-05 0.08438587 -0.33017212
0001c0 c6 39 e1 be aa b7 fa bd 7a b6 39 3e 25 05 e6 3d
       -0.4398939 -0.122420624 0.18136016 0.1123145
0001d0 ff 71 0b 3f 7d 8d c3 3d 56 8c e8 3e 0f ce e2 3c
       0.5447082 0.09548471 0.45419568 0.027686147
0001e0 4c 97 a8 bd 02 21 cf 3b 2a cd a9 be 6a 8b 83 bd
       -0.082319826 0.0063210735 -0.3316434 -0.064230755
0001f0 39 fc 3e be f5 86 de be 9a b0 b5 be 4f 0e ba 3e
       -0.18650903 -0.4346234 -0.354863 0.36339042
000200 14 2e a6 bd 32 d9 bd be 93 9a f9 3d bb 22 a1 be
       -0.081142575 -0.3707977 0.12187686 -0.3147181
000210 19 b8 3c 3c 71 02 c6 3d 9a 33 8c 3d df 3c 46 3d
       0.011518502 0.096684344 0.0684578 0.048397895
000220 97 25 cc bd fc 6b 1f 3f d6 a5 1e 3e e8 4f c9 be
       -0.09968107 0.62274146 0.15492949 -0.39318776
000230 d2 28 7d 3e 75 19 b9 3e df 84 09 3f d6 fe 2e 3e
       0.24722603 0.36152235 0.5371837 0.170894
000240 f8 98 83 be 12 bc db 3d f2 85 ce 3d 73 e5 79 be
       -0.25702643 0.10729231 0.10084142 -0.24403934
000250 fa bd de 3d 78 f2 86 bd 99 f1 13 bf be 28 b7 3e
       0.10876079 -0.06589216 -0.57790524 0.3577327
000260 4b 74 ea 3c 26 b3 be bd 81 da fd be 68 23 25 3e
       0.028619906 -0.093115136 -0.49580768 0.16126788
000270 6b 45 41 be f1 5a 9d be 6d f4 61 3e 34 50 3a be
       -0.18874137 -0.30733445 0.22065897 -0.18194658
000280 3a 86 02 3d 75 a9 e6 3e dd 1d 2d 3e fa c8 08 3e
       0.03186629 0.4505116 0.16905923 0.13357916
000290 95 25 5c bf b5 1b 23 3f d7 4d 0d 3f f6 6f 8b bd
       -0.85994846 0.6371415 0.551969 -0.06808464
0002a0 7f 85 79 3e 07 e8 1c 3d 81 d8 06 bf 3c 50 67 3e
       0.24367331 0.038307216 -0.5267411 0.225892
0002b0 1d c6 68 be 48 36 f2 bd 95 3a 09 3e da 44 01 be
       -0.22731824 -0.118267596 0.13401254 -0.12623921
0002c0 84 a5 e0 be fa f9 fc 3e 16 33 26 3f 13 e5 b8 be
       -0.43876278 0.49409467 0.649217 -0.3611227
0002d0 a2 1c 68 be d9 f5 21 bf 08 7e 0a 3f 48 e6 82 be
       -0.22667173 -0.6326576 0.5409856 -0.25566316
0002e0 13 e6 17 3f f6 17 f0 bd b3 aa 86 3f c0 10 7c be
       0.5933544 -0.1172332 1.0520843 -0.24615765
0002f0 11 d7 96 3c c0 e0 5d be 10 cb 43 3f b5 92 d9 be
       0.018413099 -0.21667767 0.76481724 -0.4249474
000300 36 fb 40 3d 8e a9 c4 3d fe 55 b5 3d 91 1d ce 3e
       0.047114573 0.096026525 0.08854292 0.40256932
000310 d5 da 0f be 97 1d b8 bd ae 3b 71 3e e8 59 9d 3e
       -0.14048322 -0.08990019 0.23557922 0.30732656
000320 57 05 86 ba 00 1e fc bd 86 43 e3 3e eb 3d ba 3e
       -0.001022498 -0.123104095 0.44387454 0.36375365
000330 c2 ad 47 bf 1e b8 b0 be cb 02 4c 3d 50 d7 42 3e
       -0.7799951 -0.3451547 0.04980735 0.19027448
000340 e2 79 4a be 58 16 2c 3f f6 d6 54 be 56 20 5e be
       -0.19773057 0.67221594 -0.20785126 -0.21692023
000350 8c d8 1b be 8d e9 94 3e db 97 0b bf 9f 51 0b 3e
       -0.15219325 0.29084435 -0.5452859 0.13605355
000360 e2 17 b2 be f5 34 72 3e 71 10 10 3f 58 dd 42 bf
       -0.34783846 0.23653014 0.5627509 -0.76118994
000370 31 a1 e1 3d 5e e1 ee 3d a3 8d a4 bc 54 03 be be
       0.11017073 0.11664079 -0.020087069 -0.37111914
000380 49 7f ee 3e 66 6a 61 3e 84 ba 5b bd 71 82 0a 3e
       0.46581486 0.22013244 -0.053644672 0.13526322
000390 ba 46 06 3d eb 8a a8 be d4 9d e5 3e 3d d5 cc 3c
       0.032782294 -0.32918486 0.44846976 0.025004024
0003a0 d4 cf cb be 35 42 f8 be 1f a9 a4 be 80 e8 03 3f
       -0.39806998 -0.48488012 -0.3216028 0.5152664
0003b0 c4 02 10 be 7a 92 c0 be bd 26 26 3e 91 50 34 3f
       -0.14063555 -0.37611753 0.16225715 0.70435435
0003c0 9a 33 9b 3e 39 37 41 3e 94 c9 f9 3e 34 78 24 be
       0.30312806 0.18868722 0.48786604 -0.16061479
0003d0 c6 9d c7 bd 13 2d 0c be 57 f5 c0 3e da 56 a3 bd
       -0.0974689 -0.1368907 0.3768718 -0.0797555
0003e0 4d 99 a9 3d 8c ba 23 3e ff 3b 73 bd 06 ce ef 3e
       0.08281193 0.1598913 -0.05938339 0.4683687
0003f0 10 bc b1 be cf 5b 30 3f 62 72 f1 be 5b e9 84 be
       -0.34713793 0.6889009 -0.4715758 -0.25959286

network_body._body_endoder.seq_layers.0.bias f4 [128]
000000 ed b8 c2 bc 23 c5 c9 bd c4 a3 9e 3c 41 ba e3 bc
       -0.02376982 -0.09852054 0.019365199 -0.027798774
000010 73 83 c4 bc 30 9e 9e bc bf a5 86 3d ea a8 2a 3d
       -0.023988461 -0.019362539 0.06574582 0.041664995
000020 22 58 a2 bd ac d3 d8 bc 56 fa ed bc 9d f7 95 3a
       -0.07926966 -0.02646812 -0.029050034 0.0011441592
000030 f3 2d db bc 3c e7 65 3d 74 41 8b bb 38 a7 aa bc
       -0.026755309 0.056128725 -0.004249746 -0.02083169
000040 1f 68 27 bd 70 34 39 bd c5 89 5e bc b6 5d 02 bd
       -0.040870782 -0.045216024 -0.0135826515 -0.03182765
000050 73 79 b0 bd a9 af 0b bd 4f 2a 9f 3b f5 89 d8 bc
       -0.086169146 -0.03410307 0.0048573385 -0.02643297
000060 de f3 9a bd 93 10 97 bc 4c 5b cc 3c f8 9a 1e bd
       -0.07566045 -0.01844052 0.024945877 -0.03872201
000070 95 56 85 ba 76 34 6a bc 7c ab 01 3d 55 98 3b bd
       -0.0010172898 -0.014294734 0.03165768 -0.045799572
000080 a1 36 91 3d 67 ef af 3b ad da b7 bc 2e a4 1d 3c
       0.07090498 0.005369115 -0.02244314 0.009621663
000090 ad 45 01 bc cb 22 be bd df e4 a5 bd 52 00 0d 3d
       -0.007890147 -0.0928398 -0.08100294 0.034424134
0000a0 8e 05 92 3d 5c 25 54 3c 10 ac 9f bd 01 86 6f bd
       0.07129966 0.01294836 -0.0779649 -0.058477405
0000b0 ba 49 d0 bc e8 67 1a 3d dc 34 88 3d 7e 6a 98 3c
       -0.02542578 0.03769675 0.06650707 0.018605467
0000c0 7c 6d 53 3c 18 c9 a5 bd 4d 37 46 3c 5a a2 1d 3d
       0.012904521 -0.08094996 0.012098146 0.03848491
0000d0 63 8c 05 3d 8b 90 41 3b 09 b1 d3 3c 12 55 63 bd
       0.032604586 0.0029535617 0.025841253 -0.05550105
0000e0 0b ad 93 3d 42 23 bd bd 54 c5 d5 bd a3 7c 7a bd
       0.0721074 -0.092352405 -0.10438028 -0.06115402
0000f0 d5 79 a5 3d a9 05 42 bd ba 86 41 bd fd 5d 15 3d
       0.08079878 -0.04736868 -0.047247626 0.036466587
000100 ab 25 7b bc f1 35 b7 3d 63 c0 9a 3b 05 10 1e 3d
       -0.015328805 0.089458354 0.0047226413 0.038589496
000110 b0 83 97 bd 88 83 b3 bd 41 b1 8e bd 72 5f f7 ba
       -0.07398164 -0.08765322 -0.06967402 -0.0018873049
000120 1d 47 8b 3c ea 0b 46 3c e5 59 09 bd 12 31 b4 bd
       0.017001683 0.0120878015 -0.033532996 -0.08798422
000130 e6 98 32 bc 2a 12 84 3c 6f da 92 3c cb c9 d6 bd
       -0.010900712 0.016121943 0.017926423 -0.10487708
000140 9f aa 36 3d a2 91 3a 3d 2a c2 cf 3c 55 29 20 bd
       0.04459631 0.045549043 0.02536114 -0.039101917
000150 28 8f f5 bc bc 79 47 3d 62 45 7e 3d 72 f0 76 bd
       -0.029975489 0.04870008 0.062077887 -0.0602879
000160 cd 3e d9 bc 00 f9 6b bd 21 35 87 bd bf 99 e0 bc
       -0.026519204 -0.05761051 -0.066019304 -0.027417062
000170 ce a5 8b 3b d2 21 a4 bc 2d b6 cc bc d0 e0 c7 3c
       0.004261709 -0.020035658 -0.024989212 0.024399191
000180 3d 87 1d 3d 15 b6 27 bd 53 f6 2a 3d 68 bf da bd
       0.03845905 -0.04094513 0.04173882 -0.10681039
000190 64 67 c6 3b d5 73 73 bb 30 fd ad bc be 02 5e bc
       0.0060548056 -0.0037147899 -0.021238893 -0.0135504585
0001a0 d0 00 24 3b a9 00 1c 3c 89 69 87 bc fe b7 7e bd
       0.0025024898 0.009521642 -0.016529815 -0.062187187
0001b0 ec 40 5f bd 6d a5 91 bd 53 25 09 bd 84 bb d1 bb
       -0.054505274 -0.071116306 -0.03348286 -0.0064005274
0001c0 5d b3 df bc 80 f4 29 bd 1a 8e 74 bd 7d 22 a2 bd
       -0.027307207 -0.04149294 -0.05970583 -0.07916734
0001d0 9c 0b 0e bd 14 f0 25 3d a1 ed 7d bc 0c 6c bc 3c
       -0.03467904 0.04051216 -0.01549855 0.02300074
0001e0 a4 c3 07 bd 2b c2 86 bd 54 fa 8b bd 61 ad 40 3b
       -0.03314556 -0.06580003 -0.06834856 0.0029400217
0001f0 f1 7e de 3b e2 5e 9e 3d b9 6b b1 bc 91 25 c4 3c
       0.006790035 0.07732941 -0.021657811 0.023943694

network_body._body_endoder.seq_layers.2.weight f4 [128, 128]
000000 03 66 5b 3d 63 4d 97 bd ef 97 42 3c 18 38 b2 bd
       0.053564083 -0.07387807 0.011877044 -0.08702105
000010 5c 8f 77 be cc 9a c5 bd 94 3b f3 3d 0c 81 30 3e
       -0.24175781 -0.09648666 0.11876598 0.17236727
000020 5a e6 eb bd 43 a6 73 3e a3 62 92 3d a4 da e5 bb
       -0.115185454 0.23793893 0.0714772 -0.0070145894
000030 3c d0 11 bd d1 4e bf bd ac be b4 bd bb e1 d2 bd
       -0.03559898 -0.09341205 -0.0882543 -0.10296961
000040 04 9e 2c 3d f2 35 06 3e 47 6e 73 3c 67 98 e8 3c
       0.042142883 0.13106516 0.014857835 0.028392984
000050 f1 38 32 3e d0 0e e1 3b a9 64 bc bb bd 7f 78 3d
       0.17404534 0.006868221 -0.0057493043 0.060668696
000060 4d 1b 5f 3e 44 bc 00 be 6f a2 2f be b5 6d 10 3b
       0.21787758 -0.12571818 -0.17151807 0.0022038047
000070 23 dc 85 bd ab bb 41 3c 1b 9e a0 3c 5d f8 72 bd
       -0.06536128 0.011824529 0.01960664 -0.05931889
000080 cb c3 d9 3c 63 05 91 bd 79 6a 01 3d a3 f2 aa 3d
       0.02658262 -0.070811056 0.03159568 0.083470605
000090 b0 cd bd 3d 1b 36 27 bc aa c0 7a 3c 25 a0 b5 bd
       0.092677474 -0.010205771 0.015304724 -0.08868436
0000a0 c2 bf 88 3d 2e e6 77 3e 67 6b a4 3d 7d 36 0d 3d
       0.066772 0.242089 0.08028298 0.034475792
0000b0 62 5f 35 be 1e 18 eb 3d a7 46 08 bd 83 80 00 3d
       -0.17712167 0.11479209 -0.033270504 0.03137256
0000c0 f1 eb cb 3c f4 30 ba 3d e0 51 f6 3d 4d ca a5 bc
       0.024892779 0.09091368 0.12027335 -0.020238066
0000d0 a0 12 41 be ae 0d 3e 3c 9e 4f 82 3c 1b 5a 44 be
       -0.18854761 0.011599941 0.015907105 -0.19174998
0000e0 9f d0 61 3d 96 99 ab 3c de 11 9c 3c a0 30 d1 3d
       0.055130597 0.020947259 0.019051488 0.102143526
0000f0 fc 41 38 bc 59 f6 9f 3d 4b a7 50 3d 42 b3 f1 3d
       -0.011246201 0.07810659 0.050940793 0.11801769
000100 28 23 29 be 6a d7 09 be 62 ba 01 be 39 0a 83 be
       -0.16517317 -0.1346108 -0.12668756 -0.25593737
000110 90 84 50 3e cd 61 72 3d 26 0b 26 bd 5a 70 e2 bd
       0.20363069 0.0591753 -0.040537976 -0.110565856
000120 e6 45 49 bd 49 de 37 3c dc c0 b6 38 39 32 b1 3d
       -0.049138926 0.0112224305 8.714359e-05 0.08652157
000130 f3 d8 e3 bd 91 0d 4b be 88 1f 89 bd 28 08 d8 3c
       -0.11125364 -0.19829394 -0.06695467 0.026371077
000140 bf 5e ef 3c d5 af 99 3b 5e b7 47 bd e4 ab 5e bd
       0.029219983 0.0046901503 -0.048758857 -0.054363146
000150 7a d1 88 bd 86 4c 52 be c1 02 d7 bd 91 97 5d bd
       -0.066805795 -0.20537004 -0.10498572 -0.054099623
000160 18 cf 63 3c dc 74 ba 3c da c4 7e bd ed 5c 45 3d
       0.0139043555 0.022760801 -0.06219945 0.048184324
000170 43 63 8b bc cd d3 c6 3d ad 76 11 bd a4 37 f1 3d
       -0.017015105 0.097083665 -0.03551357 0.11778191
000180 33 cd a7 bd 5f 55 b1 3b 94 8a a1 3d 14 92 6f bd
       -0.081934355 0.0054117884 0.0788776 -0.05848892
000190 16 1b 0b 3d 40 b3 da 3d 62 40 25 3d 6f 7c 14 bd
       0.033961378 0.106787205 0.040344603 -0.03625148
0001a0 8d 06 60 3e 8e 50 8a bd 90 42 80 bd 8b 03 a2 3d
       0.21877499 -0.06753646 -0.06262696 0.07910832
0001b0 55 98 48 3d ef 3a cd 3d be 6d e8 bc 3a 57 24 be
       0.0489734 0.10021006 -0.028372642 -0.160489
0001c0 94 26 56 3d c1 20 38 3d 7c 1f 09 bc 07 0e a8 3c
       0.052282885 0.04495311 -0.008369323 0.020514501
0001d0 6b d6 81 bd 72 4b 7b bd 0a ff 06 bd 14 18 ac bd
       -0.06339725 -0.061351247 -0.032958068 -0.0840303
0001e0 e1 4e 64 3d 66 fb c6 3d 3f 24 28 3e 71 4b 09 be
       0.055739287 0.09715919 0.16420077 -0.13407685
0001f0 34 da ff 3d 6c 54 98 bd 1f b7 3d 3d 76 80 c7 bd
       0.12492791 -0.07437977 0.046317216 -0.09741299
000200 33 bc fe bc 25 20 67 bd 6f 06 16 3e a4 65 5f bd
       -0.0310956 -0.05642714 0.14650892 -0.05454029
000210 a8 78 53 be 54 cb 13 be b3 70 cb bd 1b 3f fc 3d
       -0.20651495 -0.14433032 -0.09933605 0.12316724
000220 4d 33 a9 3c d0 c6 ed 3d 71 47 52 bd 02 8e e8 3d
       0.020654345 0.11610186 -0.051337663 0.11355211
000230 23 98 88 bc c3 fc 2d bb 14 bb 3c 3d 1e 75 d6 3d
       -0.016674107 -0.0026548363 0.04607685 0.10471557
000240 79 72 f8 3d b9 13 59 3c 61 54 e8 3c 06 81 b4 3d
       0.12131209 0.013249331 0.028360547 0.08813672
000250 16 49 53 3d e9 3a aa bd 51 97 78 3d 9f 5a 27 3b
       0.051583372 -0.083120175 0.06069118 0.0025536192
000260 fa df a7 3d 05 12 09 3d 87 91 28 be 97 93 8f 3d
       0.08197017 0.03346445 -0.16461764 0.070105724
000270 78 50 15 be ba 51 24 bd 82 74 4e 3c fb 66 d4 3c
       -0.14581478 -0.040117003 0.01260102 0.025928011
000280 99 bd 8a bd 8e df 64 3d 95 06 3b 3d bb 4c bf bc
       -0.06774444 0.05587726 0.045660574 -0.023352018
000290 34 1f f0 bd c4 54 0e be 38 8e 07 be 1b 5d b6 3d
       -0.117247015 -0.13899523 -0.13237846 0.08904477
0002a0 49 cf da bd c5 2d e4 3c ad d6 68 bd 1a 4b c7 3d
       -0.10684068 0.027853856 -0.056845356 0.09731121
0002b0 5e a5 38 bd 3a b7 7f bd ad 9a a4 be 64 86 84 bd
       -0.04507958 -0.062430598 -0.32149258 -0.064709455
0002c0 4d 34 bb 3d b2 d2 69 bd 93 d0 03 3e 32 05 73 bd
       0.09140835 -0.0570857 0.12872534 -0.059331127
0002d0 8d 06 39 bc 08 af fa bc 20 53 b6 3d 7e be 28 3e
       -0.011293066 -0.03060104 0.089025736 0.16478917
0002e0 59 97 53 3d 59 55 44 bd 3b 56 f1 bc f4 76 0c 3e
       0.05165801 -0.047932956 -0.029460063 0.13717252
0002f0 05 85 82 be 29 53 61 bd 31 0c c5 bc 42 ba 0b 3e
       -0.2549211 -0.05501095 -0.024053665 0.1364527
000300 4a 42 20 be b3 e1 20 bd 23 a3 d0 3c a9 16 35 be
       -0.15650287 -0.039277744 0.025468415 -0.17684425
000310 c5 28 9e 3d bb e5 b2 3a a7 a5 4a bd 3e d6 98 3d
       0.0772262 0.0013648787 -0.049474385 0.074627385
000320 66 0f cb bd 2c 6a a0 3d 28 ce ae 3d 2f d8 4e 3e
       -0.099150464 0.07832751 0.08535415 0.20199655
000330 f5 f0 45 bd 4e ee 38 3d f5 b2 a0 bb d8 d6 e6 3d
       -0.048325498 0.04514914 -0.004904146 0.11271447
000340 10 09 6b 3d 5e fc a5 3a d6 12 05 be 0a 95 2c bd
       0.05738169 0.0012663712 -0.12995467 -0.042134322
000350 4d f4 61 bd 8b 41 2f bc c7 5e 73 3b af fd c9 3d
       -0.055164624 -0.010696779 0.003713535 0.098628394
000360 d9 a4 d5 3d 47 40 94 bd 11 3c 14 3d 61 e7 05 be
       0.10431833 -0.072388224 0.036190096 -0.13076545
000370 f8 c7 83 bd fe d8 c7 3c f8 7f 2b 3d 6e b0 3e bd
       -0.064346254 0.024395462 0.041870087 -0.046554975
000380 bb 56 23 3d 9c 36 e8 bd da b9 25 3d c4 7d 08 bd
       0.039877634 -0.11338541 0.040460445 -0.033323064
000390 e5 80 18 be 34 6f 1f 3e d2 87 a0 bd 9a b9 88 3d
       -0.1489292 0.15569764 -0.07838406 0.06676026
0003a0 c4 48 14 3e c0 8c 2d 3d 11 29 9d bb b8 b8 7e 3d
       0.14480883 0.042370558 -0.0047961553 0.06218788
0003b0 bb b2 f7 3c a7 9f 8a 3d 0b 64 14 bd ad 4d 54 bc
       0.030236593 0.067687325 -0.03622822 -0.0129579725
0003c0 89 18 f9 3d 40 0f 83 bd 6b ae a3 bd 45 65 bd 3d
       0.12162883 -0.06399393 -0.07992252 0.09247831
0003d0 fa 2d 65 be ac d8 16 3c 3e 98 0b be 26 ab 6b 3d
       -0.2238082 0.009206932 -0.13632295 0.057536267
0003e0 c1 72 ae 3d b6 6e 2e be c6 6b 32 be 1e f5 89 bc
       0.08517981 -0.1703442 -0.17423925 -0.016840514
0003f0 4c b9 9e 3c 87 0d 42 be 10 c0 03 3c 66 64 52 3e
       0.019375466 -0.18950473 0.008041397 0.20546111

network_body._body_endoder.seq_layers.2.bias f4 [128]
000000 d8 4e 2e bc 4b 0b 39 bc 35 02 0a bb 89 d6 8e 3c
       -0.010638915 -0.011294196 -0.0021058444 0.017436283
000010 2f cb 0c bd 5e 4c a5 bc 93 48 09 bc a1 70 20 3d
       -0.03437346 -0.020178016 -0.008379119 0.03916991
000020 85 da 1d 3c 17 4e a8 bc 64 5f 08 bd 12 f1 23 bb
       0.009634619 -0.020545049 -0.033294097 -0.0025015515
000030 30 cb 1b b9 d2 a7 4b bd 37 2c be 3c 48 ee a7 bc
       -0.00014857645 -0.049720593 0.023214443 -0.020499364
000040 bf 60 5a bc ca 4d da bc c3 20 72 3c d6 f0 e9 bc
       -0.01332873 -0.02664842 0.014778319 -0.028557222
000050 45 7d 75 bc 77 64 29 bd 98 35 c1 3c 58 ba 24 3d
       -0.01498348 -0.041355576 0.023585126 0.040216774
000060 4d 99 04 3d 0f f6 82 bd 25 9e e1 3a 6a 53 36 bc
       0.03237276 -0.06394588 0.0017213268 -0.011128286
000070 dd 78 c0 3c 93 47 55 bb 57 b4 8e 3b 5a 9e 18 3c
       0.023495132 -0.0032543882 0.0043549943 0.009315098
000080 4d fc 7e 3c ba ee 98 bc dc 84 5f bd 2f 74 b4 3a
       0.015563083 -0.018668521 -0.054570064 0.0013767536
000090 7d 28 4f bb 8a 66 db 3c eb 63 84 bc 4f a5 9b bd
       -0.0031609826 0.026782293 -0.016160926 -0.075998895
0000a0 a3 17 40 3d 11 f1 73 3d b9 22 c3 3d ec 45 08 bd
       0.04689754 0.05955607 0.09528107 -0.033269808
0000b0 ba 2c ff bc 94 04 17 bd 06 d5 0c 3d 7f 7d 20 3d
       -0.031149257 -0.0368696 0.034382842 0.039182182
0000c0 12 a2 c4 3c 5b 93 ff bc 30 1f 1a bd c5 4f b3 bc
       0.024003062 -0.031198194 -0.0376274 -0.021888623
0000d0 04 d3 9b bc 65 b1 75 bc 26 8c 7d bc 83 11 04 bd
       -0.019021519 -0.014995907 -0.0154753085 -0.032243263
0000e0 97 ba 6b 3d d9 18 61 bc b8 2a b4 3c 2d 4a a3 bc
       0.057550993 -0.013738834 0.021993026 -0.01993283
0000f0 a4 d2 40 3d ff 05 f8 bc 6b 5f eb 3b cf c4 e8 3c
       0.047075883 -0.030276297 0.0071830056 0.028414158
000100 ae 28 fc 3c db fb 89 bc c4 8a 43 bd e2 ec 16 3d
       0.030781116 -0.016843727 -0.04773976 0.036847003
000110 54 5a c5 bb 2c 5a 5e 3c 28 71 b6 bc 30 e5 9f bd
       -0.006022731 0.013571303 -0.022270754 -0.07807386
000120 0e 71 ba bb 4f c8 f5 3c 70 5c 01 3b 6f 74 6d 3d
       -0.0056897467 0.030002741 0.0019738935 0.057972368
000130 12 b2 24 3d b7 e2 a5 3c 83 8b 13 bd 35 10 fe 3b
       0.040208884 0.020249708 -0.03602172 0.007753397
000140 8c cb ed bc f4 46 e5 bc 47 9f 80 3d c1 45 c3 3c
       -0.029027723 -0.027987935 0.0628038 0.023836972
000150 ca 92 a5 3c ca 3c 7f bc f5 db 8f bc c3 8b 43 3d
       0.020211596 -0.015578458 -0.017560938 0.04774071
000160 f2 d4 65 bb 5d d4 a4 3c d5 b6 0b bd 54 92 a9 3c
       -0.0035069552 0.020120794 -0.03410991 0.020699657
000170 b2 ed 49 3d 57 b5 aa bc 37 80 99 3c 2a 50 a8 bc
       0.04929895 -0.020838423 0.018737895 -0.020546038
000180 0a b9 29 3d fa ad 3a 3d a4 3c 9a bc 95 39 e5 3c
       0.041436233 0.045576073 -0.018827744 0.027981559
000190 57 4d f0 bb 18 a6 03 3d 5a 3e 9b 3c 68 c5 80 3c
       -0.0073334384 0.03214082 0.01895063 0.01571913
0001a0 1d c7 83 bc dd 10 b4 ba b9 24 e3 39 37 8b 81 3d
       -0.016086156 -0.0013737936 0.00043324174 0.06325381
0001b0 cd d6 c7 3c 18 99 be bd cf d8 80 3c ac aa cd 3c
       0.024394417 -0.09306544 0.015728382 0.025105797
0001c0 a9 ed ed bc e3 d1 85 3c 7b 73 89 3b 0a 6b f1 3c
       -0.02904399 0.016335433 0.0041946745 0.029469986
0001d0 e4 5f 79 bb ae d4 8b bb f9 7c 13 3d 33 f0 32 3d
       -0.003805154 -0.0042672968 0.036007855 0.043686103
0001e0 ab c8 cb 39 f8 5a 57 3a 1f 7f 41 3d fc 36 03 bc
       0.00038868687 0.00082151545 0.047240373 -0.008008715
0001f0 ed 0a 04 bd a9 11 a5 bc 6f 37 57 3a 8f 1a c9 bb
       -0.032236982 -0.020150023 0.00082098594 -0.0061371992

action_model._continuous_distribution.log_sigma f4 [1, 2]
000000 ee 9d 30 bc 9f f5 47 3d
       -0.010779841 0.048818227

action_model._continuous_distribution.mu.weight f4 [2, 128]
000000 8c 62 95 3c 03 62 05 bc 6b 3b 37 3c 64 b2 57 3c
       0.018235467 -0.008141044 0.0111836 0.01316509
000010 0e 46 96 3b 82 5f c6 bb 72 e6 49 bc 7e 34 cb bc
       0.004585988 -0.006053866 -0.012323009 -0.024805304
000020 d5 0c 04 bd d7 9a a4 3c 8e e2 1a bd 05 6b 37 bc
       -0.0322388 0.020093365 -0.037813716 -0.011194949
000030 f2 60 4b bc e0 be 6c 3c 52 78 e8 bc 7a 66 29 bc
       -0.01241325 0.014449805 -0.028377686 -0.010339374
000040 6d 2e 14 bd 84 ac 46 bc f9 7e e2 bc 64 d6 cb 3b
       -0.036177088 -0.012126092 -0.027648436 0.0062206257
000050 8f e2 f8 bc 14 44 04 bd 92 d1 14 3d 64 dc 80 bc
       -0.030381469 -0.032291487 0.036332674 -0.01573009
000060 a9 0b b5 bc ab 81 a4 ba 13 84 8b bc 20 28 21 3c
       -0.022100287 -0.0012550851 -0.017030751 0.009836227
000070 30 1a 84 3c cf bb 39 bd f3 06 87 3c 0e ba 96 3c
       0.016125768 -0.045345124 0.016482806 0.018399265
000080 74 e5 56 3c a3 2f 28 bd da 06 b9 bc 0b 5a 86 3c
       0.013116229 -0.041061055 -0.022586275 0.016400358
000090 cc 2e 58 bc d3 6c 8e bd 61 6f 1a 3d 48 e9 3b bc
       -0.013194751 -0.0695435 0.037703875 -0.011469193
0000a0 ef ac 2a bd 9c 8f a9 bd b5 7b 61 3d 0a 9c de bb
       -0.04166883 -0.082793444 0.055049617 -0.0067935036
0000b0 f3 94 0a bb e9 d6 22 bc 53 e3 57 bc b4 13 17 bc
       -0.002114591 -0.009938934 -0.013176757 -0.009221006
0000c0 1e 7b 60 bc b3 e6 f8 bb 49 54 b2 bb ca 0a 30 3c
       -0.013701228 -0.007595861 -0.0054421765 0.01074476
0000d0 3d 92 ec 3b 39 cd 6f 3c b0 34 a6 3b 68 d1 08 b7
       0.0072195814 0.014636331 0.005072199 -8.154988e-06
0000e0 8f 43 a6 3d d3 02 72 3c 62 bb e7 bc 54 d8 b9 bb
       0.081183545 0.014771181 -0.028287593 -0.0056715403
0000f0 a9 f6 37 bb 88 74 f2 3b 20 39 de bb f5 60 f9 bb
       -0.0028070605 0.0073991455 -0.006781712 -0.007610435
000100 8d 79 55 3d e5 b3 67 3b 22 5d 93 bc 8d fa 5e bc
       0.052117873 0.0035355028 -0.017988745 -0.013609541
000110 a9 f8 bd 3c ed f3 a4 bc 94 e8 3d 3b 26 26 9c bc
       0.02318986 -0.020135844 0.0028977739 -0.01906116
000120 f8 38 19 bb e3 05 03 3d df 01 6d bc f0 99 ef bc
       -0.0023379903 0.031988036 -0.014465778 -0.029248208
000130 c5 2f 06 3d bd a5 95 bc 4f 39 f1 bc c1 69 a4 bc
       0.0327604 -0.018267507 -0.029446272 -0.020069959
000140 b7 df 03 3c 98 8c 24 3a a7 02 6d bd 9c a8 bd bc
       0.008048943 0.00062770536 -0.057863858 -0.023151688
000150 50 f0 4c bb 0d 8c 37 bc e8 7c cd 3c 5e e4 4c bc
       -0.0031271167 -0.011202824 0.025083974 -0.012505619
000160 e1 2f dd ba 5b 7f 14 bd d2 9f 46 3c 8e 12 48 3d
       -0.0016875231 -0.03625427 0.012123065 0.04884582
000170 05 1f 3a 3d ee 92 de bc 60 c1 d8 3c db 0c e6 bc
       0.04543974 -0.02716967 0.026459396 -0.028082302
000180 17 d3 86 bd e3 5b b5 3d 32 0b 17 3c f9 7a 6d bc
       -0.06583231 0.088554166 0.009218978 -0.014494651
000190 57 5f 96 3b 5a 6a 06 bd b8 76 99 b9 ee 06 08 bc
       0.004589002 -0.03281627 -0.00029270886 -0.008302433
0001a0 8c f4 32 3c 12 f5 07 bc 13 ef 31 bd 79 ee 71 3d
       0.010922562 -0.008298175 -0.04344089 0.059065316
0001b0 cf df f4 bc 3a a1 0d bc 44 08 04 bd f5 be 07 bd
       -0.029891877 -0.008644396 -0.032234445 -0.033141095
0001c0 18 55 b7 3c 49 35 07 bd bb 86 80 bc 79 d5 89 3c
       0.022379443 -0.0330098 -0.015689244 0.016825425
0001d0 40 e6 b2 bc 28 eb ef bb 56 d2 c5 3c 92 81 2d bd
       -0.021838307 -0.007321734 0.024148148 -0.042359896
0001e0 64 fe 8c 3d 37 5a ea bb 60 2f 0c 3d 75 e6 90 bb
       0.06884459 -0.0071518677 0.034224868 -0.004422004
0001f0 75 19 85 bc ab f3 b6 3c 1c c1 e0 3b 09 e0 66 bc
       -0.01624749 0.022332987 0.006858958 -0.0140915
000200 76 3f 35 bb 20 02 03 bd 5a 33 c0 bb 2e 35 d6 bc
       -0.0027656234 -0.03198445 -0.0058654966 -0.026148405
000210 a8 88 6f bc 95 c9 9b bc 0a a5 7d 3d fc 63 5b bc
       -0.014619984 -0.01901702 0.06192497 -0.013390537
000220 52 98 19 3c ca 09 dd 3c c4 54 4f bb 90 60 e1 bc
       0.009374695 0.026982207 -0.0031636218 -0.027511865
000230 66 1e 53 bc ff b3 0e bd 1a e5 5d 3d 59 e0 93 3b
       -0.0128856655 -0.034839626 0.054173566 0.0045128283
000240 fc 4f 25 3d 41 39 8c 3d 4f 5f aa bd 3f 48 c9 3c
       0.040359482 0.06846858 -0.0831896 0.024570582
000250 93 9a d5 3c 9e 4b 2c 3d 0a ee ac bb bd e9 b0 bd
       0.026074683 0.0420643 -0.0052774 -0.08638332
000260 93 ad 4e bd 73 e1 8c 3c 47 0a 0f bd 68 3e 4a 3c
       -0.050458502 0.017197346 -0.03492191 0.01234398
000270 e0 55 8f bb d4 43 35 3b 17 5a c5 3c e8 e6 55 3c
       -0.004374251 0.0027658837 0.02409081 0.013055541
000280 de 35 6e bd 65 25 23 3d a8 20 02 3d ea ee b1 bb
       -0.05815684 0.039830584 0.031769425 -0.005430092
000290 e5 86 48 3d 2d 91 59 bc e6 dd 6b bb aa 09 de 3c
       0.04895677 -0.0132792415 -0.0035990416 0.027104218
0002a0 7f e9 30 3c a7 f6 3e bd ed 0d 66 bb f8 ba 4e bc
       0.010797857 -0.046621945 -0.0035103515 -0.012617819
0002b0 5d 0a 8c bb e8 22 27 3d d2 98 3e bd 38 d8 a3 bd
       -0.0042736963 0.040804774 -0.04653246 -0.08000225
0002c0 70 72 7a bd 15 b1 b1 bc dc 89 27 3c b0 2b 1b 3d
       -0.061144292 -0.021690885 0.010225739 0.03788346
0002d0 50 7a b5 bb fd 94 25 3c 0e 7b ef 3c 33 7b 59 3d
       -0.0055382624 0.010106322 0.029233482 0.053096008
0002e0 9b 90 d4 3c 79 83 11 bc 54 fd 6c bd 62 40 f3 3b
       0.02594786 -0.008881443 -0.05785878 0.0074234465
0002f0 8e 3e e0 bc 87 b9 10 3c 87 f3 6e 3a 4b b7 59 bd
       -0.027373578 0.008833296 0.0009115268 -0.053153317
000300 8a 80 83 b9 d4 71 be bc cc 77 50 3c 50 8c ec bc
       -0.00025082036 -0.023247637 0.012723874 -0.0288755
000310 f1 1f 32 3d db 17 be bb a1 6e 82 bb 5c 31 07 3d
       0.043487493 -0.0058011836 -0.003980473 0.033006057
000320 9b 29 86 bc 5a d1 83 bc 35 2e 58 bc a9 4a 67 bd
       -0.01637726 -0.016091038 -0.01319461 -0.056467686
000330 c4 6b 44 ba 8e f1 1c bd 94 e9 56 bd 3b ef c8 bc
       -0.0007492865 -0.038316302 -0.05246885 -0.024528136
000340 07 41 89 3c 7c 93 19 3d 08 b8 3c 3c f6 bd 0f bd
       0.01675464 0.037494168 0.011518486 -0.03509327
000350 3d db b1 bc 58 27 0f bd 2d 6f 25 bd d3 d8 b1 bd
       -0.021710986 -0.03494963 -0.04038923 -0.08683934
000360 43 51 44 bd 5d 5a c7 bc b4 c4 29 3c bf bd 64 bd
       -0.04792906 -0.02433508 0.010361839 -0.05584502
000370 2f d7 ef bc 3f 3d 28 3c 7a 0a bc 3c 77 7a 46 3d
       -0.029277412 0.010268508 0.022954214 0.048456635
000380 15 90 39 bd 0a 16 1e 3d 17 c1 0c 3c 23 74 88 bd
       -0.045303423 0.038595237 0.008590958 -0.06662776
000390 d3 2d ab 3c 4e f0 12 bd c5 bd d2 3a e7 81 50 bd
       0.020895874 -0.035873704 0.0016078284 -0.050905135
0003a0 dd fd 55 3c 89 a2 4c 3b 29 72 48 bc 18 4e 8e bd
       0.013061014 0.0031224808 -0.012234249 -0.06948489
0003b0 01 4a 08 bd 0e eb a6 3c c0 7d e6 3a 9b 83 d1 3c
       -0.0332737 0.020375755 0.0017585084 0.02557545
0003c0 cc fb ef 3b e7 2a 92 ba 80 12 61 bd 87 ff 3b bb
       0.0073237177 -0.0011151702 -0.054949284 -0.0028686242
0003d0 c7 1d a0 ba af ba 6a bc 40 af 45 b9 e1 3e ca ba
       -0.0012215906 -0.014326735 -0.0001885267 -0.0015430116
0003e0 2e b8 b4 3c 32 e5 16 bc dd 64 fa bd 51 40 14 bd
       0.02206048 -0.009209918 -0.122262694 -0.03619415
0003f0 76 3d 3e 3d 94 af 5c 3c 48 7d 08 bd 05 ce 39 bd
       0.046445332 0.013469595 -0.033322603 -0.04536249

action_model._continuous_distribution.mu.bias f4 [2]
000000 59 12 62 3a 7c 92 fa bc
       0.000862395 -0.030587427

action_model._discrete_distribution.branches.0.weight f4 [1, 128]
000000 59 f3 20 bc 38 ab 31 3c ca e0 67 3c 6a 4d 70 39
       -0.009823644 0.010844044 0.014152715 0.00022917023
000010 ef 84 40 3c f7 fa 71 3a b2 b4 5b bb ab cc 37 3b
       0.011750444 0.0009230817 -0.003352445 0.0028045576
000020 f5 2d 9f ba c3 70 2b bc 5a 0e 53 bb 42 0d 5f 3c
       -0.0012144434 -0.010463896 -0.00322046 0.013614001
000030 33 ec b5 3b 17 bf 5e bb 9c 92 82 bc 5b ea 1a bb
       0.005551839 -0.003398841 -0.01593905 -0.0023638222
000040 f0 ea 93 bb fb 4d 55 bb e3 9c 2e 3c 08 cc 1a bc
       -0.0045140907 -0.00325477 0.010657522 -0.009448059
000050 8b d9 03 bb 4d 0c b0 bb db c9 51 3c 39 eb 9b bb
       -0.002011868 -0.00537256 0.012804474 -0.0047582653
000060 41 01 40 ba 01 04 a7 3a b7 7b 5e 3c 55 64 c6 bc
       -0.00073244056 0.0012742282 0.013579301 -0.024217764
000070 1b ba 79 bb d3 4d 39 3c 9a 31 4e 3b 95 3b 88 3c
       -0.0038105312 0.011310059 0.003146267 0.016629973
000080 6d ee d2 3b 9d 1f ab 3b 9a 5e 84 bc 59 0d 8e 3b
       0.006437114 0.0052222745 -0.01615839 0.0043350873
000090 73 b7 94 bb cd d4 f0 bb 8b 5d 0c 3a c3 1b 6c 3c
       -0.0045384704 -0.0073495866 0.0005354515 0.014410916
0000a0 e7 ed bf 3b 52 3f dc 3b 48 cd c5 bb 3f 2c f1 bb
       0.0058572176 0.0067214156 -0.0060364343 -0.007360011
0000b0 13 60 ca 3b 10 2c 5a bb 18 17 48 b9 33 ae 3a bc
       0.0061760037 -0.0033290423 -0.0001908209 -0.011394071
0000c0 66 a1 c1 3b 5b 9c 89 39 23 8c 21 3a 40 4c f4 bb
       0.005909133 0.0002624717 0.00061625446 -0.007455379
0000d0 da 7d 01 bc 0c 2d 90 bc 79 9a 01 3c 52 2f d8 bb
       -0.0079035405 -0.017599605 0.007910364 -0.006597438
0000e0 62 7c 52 3c cf d3 af 3b b7 6a 1a 37 db ac 3f 3b
       0.012847038 0.0053658257 9.203962e-06 0.0029247317
0000f0 6d 2e 3f bb f0 01 11 3a c3 06 cf bb 3e 79 93 3b
       -0.002917196 0.00055316 -0.0063179447 0.004500537
000100 73 62 55 bc 8f d2 50 3a 60 a0 9c 3b e8 68 11 bc
       -0.01302396 0.0007965946 0.0047798604 -0.008875109
000110 0b 4b 7a 3b c3 33 81 bb 2c 41 2d 3c b6 0b 21 bc
       0.0038191702 -0.003942938 0.01057462 -0.009829452
000120 2e 4d 24 3c b2 43 72 ba 03 2c 67 ba fe d7 45 3c
       0.010028167 -0.0009241655 -0.0008818509 0.012075422
000130 08 58 55 bb 5e b3 4b bb 45 86 51 bc d7 4b 36 3c
       -0.0032553691 -0.0031082253 -0.01278836 0.01112648
000140 f7 7c 2e 3c 17 b3 3c bb f5 8e 50 3b 60 e1 0d bc
       0.010649911 -0.002879327 0.003182349 -0.008659691
000150 2f 79 35 bc e5 62 ee bb 17 f0 95 b8 ad 6e 29 bc
       -0.011076256 -0.0072749727 -7.149594e-05 -0.010341329
000160 d0 04 78 3b 5f 55 8a 3b b8 58 00 bc 5d c4 40 bb
       0.0037844665 0.004221603 -0.007833652 -0.0029413917
000170 09 61 ac 3b 8e 73 09 bc 1b 12 83 3b 90 1c 0c 3c
       0.005260591 -0.008389367 0.003999961 0.008551732
000180 b0 18 76 3c b3 89 33 bb 07 54 28 bb d9 e9 36 bb
       0.015020534 -0.0027395308 -0.002568485 -0.002791038
000190 c7 49 91 3a fe a8 8f bb d2 7a 27 bc bc ea 83 3b
       0.001108461 -0.004384159 -0.010222154 0.0040257853
0001a0 e7 81 1b bc 7a da e2 ba 3f ad a8 b9 5f b5 16 bb
       -0.00949142 -0.0017307543 -0.00032172535 -0.002299629
0001b0 f4 84 07 3b 37 a9 50 3b 0e 6a 2d 3c 7a 2e 67 bb
       0.0020678611 0.003183914 0.010584367 -0.0035275505
0001c0 15 8d dc bb ee fd 22 bc c5 9a f9 3b 9d 2e 0d bb
       -0.0067306855 -0.009948237 0.007617327 -0.0021542676
0001d0 49 cc ac 3b 83 b4 01 3b 5f 44 24 bc a0 c4 df ba
       0.005273376 0.0019791431 -0.010026067 -0.0017072149
0001e0 6b ef 56 3c 4c 52 35 bc 23 05 5d 3c 0f 6a 12 3b
       0.013118605 -0.011066984 0.013489994 0.0022341048
0001f0 cd db a8 bb 7a dd ab bc 74 32 34 bc bf b4 39 bc
       -0.0051531554 -0.020979632 -0.010998357 -0.011334597
