Shooter2Agents1EnvPlaybale/Assets/Models/OldModels/RollerBallA-21128.onnx (onnx, 79278 bytes, 8 tensors)

network_body._body_endoder.seq_layers.0.weight f4 [128, 8]
-0.11742446 -0.13078427 0.1711278 0.37164402 0.5210953 0.3234247 -0.06903115 1.0129036
-0.06909458 -0.19027771 0.07340105 0.40815428 -0.23358922 0.15961729 -0.10825181 -0.44492832
0.20149231 0.3036474 -0.6897646 0.12836765 -0.39119184 -0.16374317 -0.023696134 0.017486792
-0.7215153 0.32464415 -0.010591592 -0.4139327 0.024604132 -0.38518482 -0.37605348 0.010340049
-0.17552754 0.14816149 0.3786663 -0.033027045 -0.015068128 0.4682246 0.12014034 0.10785995
0.07054075 -0.006325193 -0.21798064 -0.09892006 -0.04298516 0.058114104 -0.091397226 0.15551047
0.7975362 0.30808342 -0.42388818 0.24512847 -0.0920698 0.1636949 -0.12396823 -0.022118408
-0.7706417 -0.2908278 0.30798563 0.09849032 0.1050653 -0.3805633 0.24852721 -0.1469912
0.3434909 0.29796475 0.07926305 -0.09639664 -0.24992916 0.6871887 -0.11481047 -0.4668044
-0.3017456 -0.6000042 0.40800288 0.023965808 0.42456666 0.049539357 0.52835953 -0.4426195
-0.24196891 -0.36369687 0.23965073 0.31678426 0.109870695 -0.2655113 -0.53397727 0.45888528
-0.20809807 -0.2674494 -0.0012815386 -0.1330848 0.6015168 0.15445237 -0.37562537 -0.1924144
0.08190808 0.19041547 0.20384514 -0.2532721 -0.5448717 0.033033993 -0.58857363 -0.3497525
0.6115386 -0.14759773 0.3852384 0.2574253 -0.2806401 0.19065486 -0.64678097 -0.45908567
0.11505934 -0.11936354 2.5196756e-05 0.06562595 -0.3832322 0.46815348 -0.59247416 0.65813947
0.12866929 0.48137295 0.19859774 -0.27582827 -0.10844022 0.42506236 0.095122255 0.12437154
-0.30063415 0.06922887 -0.02837336 -0.18323572 -0.25036612 -0.23738906 0.44795072 0.09120023
-0.25439397 -0.053886045 0.29527086 -0.55939287 0.23041166 0.49741125 -0.3347066 -0.19203928
-0.03132902 -0.5283618 0.23691201 -0.062586255 -0.12662674 -0.16405402 0.23826861 -0.0038885134
0.008202385 0.3963314 -0.0928384 -0.11091659 0.6540685 0.17694058 -0.4517985 0.1951484
-0.021066677 -0.45612425 -0.014627899 0.41042262 -0.19523972 -0.60558087 0.36483377 -0.24792813
0.04017838 0.003102407 0.4110933 -0.30136597 0.06544136 -0.36658445 0.03387941 -0.67197543
0.029469738 0.725859 -0.4582676 -0.7861484 -0.22674972 -0.25349483 0.28370094 0.39243358
0.50092435 -0.020141738 -0.16999923 0.24160793 -0.24260741 0.54210633 0.3836027 -0.40328118
-0.35963216 0.050107125 0.28349182 -0.18347572 -0.58779514 0.051138498 0.40964314 -0.16782878
0.37981957 0.14741535 -0.43324283 0.019792562 -0.23316751 0.41955236 -0.414998 0.20768912
-0.23015954 -0.02724094 0.12646043 0.41896173 -0.06291702 0.44589168 0.15623085 0.13858533
-0.4615606 1.0261576 -0.39916065 -0.04218224 0.34121603 0.12489062 0.21885993 0.0054475255
0.43664172 0.20252746 -0.7396349 0.28068408 0.055386726 -0.022868691 -0.2493817 -0.2173312
-0.18642801 0.21959437 0.1182831 -0.7360117 -0.22981076 -0.32148463 -0.16871978 -0.26469305
-0.075283766 0.16818438 -0.25521746 0.83636636 -0.24366023 0.2415781 0.30138814 0.5385166
-0.9772943 0.09976716 -0.19487688 0.37967584 0.20492883 0.17676055 0.38670546 -0.042300764
00000000: 3c7c f0bd 50ec 05be 203c 2f3e 2048 be3e
00000010: 8066 053f ec97 a53e 3460 8dbd d3a6 813f
00000020: 7681 8dbd 29d8 42be 4a53 963d 99f9 d03e
00000030: 0332 6fbe b772 233e 20b3 ddbd a5cd e3be
00000040: 0054 4e3e ac77 9b3e 6a94 30bf cf72 033e
00000050: 4c4a c8be 4aac 27be 651e c2bc 7640 8f3c
00000060: 3ab5 38bf c237 a63e 5b88 2dbc fdee d3be
00000070: 9b8e c93c f236 c5be 158a c0be 4f69 293c
00000080: 7ebd 33be a5b7 173e 8de0 c13e 5e47 07bd
00000090: 4fe0 76bc 23bb ef3e 230c f63d ade5 dc3d
000000a0: ab77 903d 9143 cfbb 5136 5fbe 9a96 cabd
000000b0: 3511 30bd 0e09 6e3d 782e bbbd 233e 1f3e
000000c0: 552b 4c3f 1cbd 9d3e df07 d9be f502 7b3e
000000d0: 178f bcbd a39f 273e 0ee3 fdbd aa31 b5bc
000000e0: c648 45bf 62e7 94be 4bb0 9d3e 4bb5 c93d
000000f0: 7a2c d73d 31d9 c2be eb7d 7e3e dc84 16be
00000100: 0ade af3e d68e 983e aa54 a23d 9a6b c5bd
00000110: 6eed 7fbe 99eb 2f3f c021 ebbd fc00 efbe
00000120: 667e 9abe e099 19bf c1e5 d03e f153 c43c
00000130: cd60 d93e c8e9 4a3d 9242 073f 069f e2be
00000140: b3c6 77be 7a36 babe 0067 753e 8c31 a23e
00000150: e303 e13d 19f1 87be bcb2 08bf 03f3 ea3e
00000160: a917 55be 21ef 88be 4df9 a7ba 6247 08be
00000170: 01fd 193f c328 1e3e f851 c0be 4808 45be
00000180: 6cbf a73d 46fc 423e c8bc 503e e1ac 81be
00000190: b67c 0bbf a74e 073d c3ac 16bf c212 b3be
000001a0: cb8d 1c3f dc23 17be f83d c53e 40cd 833e
000001b0: 0fb0 8fbe 073b 433e 7093 25bf 470d ebbe
000001c0: 3ba4 eb3d df74 f4bd 9f5d d337 e666 863d
000001d0: 0337 c4be d0b1 ef3e 63ac 17bf d47b 283f
000001e0: e2c1 033e 8476 f63e 355d 4b3e 5d39 8dbe
000001f0: e815 debd c6a1 d93e 75cf c23d 82b6 fe3d
00000200: b8ec 99be dec7 8d3d 406f e8bc 25a2 3bbe
00000210: fd2f 80be 1e16 73be cc59 e53e 30c7 ba3d
00000220: ed3f 82be 9db7 5cbd be2d 973e 5f34 0fbf
00000230: 09f1 6b3e b0ac fe3e aa5e abbe f2a5 44be
00000240: dc52 00bd b842 07bf 1099 723e 392d 80bd
00000250: 71aa 01be c7fd 27be b0fc 733e 6ed6 7ebb
00000260: 4c63 063c f3eb ca3e 0f22 bebd 3d28 e3bd
00000270: 0971 273f e92f 353e 2252 e7be fbd4 473e
00000280: 0694 acbc 1e89 e9be dba9 6fbc ea22 d23e
00000290: ecec 47be 5907 1bbf 7ecb ba3e dfe0 7dbe
000002a0: 1692 243d c151 4b3b d27a d23e a44c 9abe
000002b0: 1f06 863d f5b0 bbbe 23c5 0a3d 9506 2cbf
000002c0: 856a f13c e5d1 393f 0da2 eabe 0641 49bf
000002d0: 1431 68be 13ca 81be 4041 913e 0eed c83e
000002e0: 943c 003f 4900 a5bc 4714 2ebe 1268 773e
000002f0: 146e 78be 7bc7 0a3f 9367 c43e df7a cebe
00000300: b521 b8be 213d 4d3d d725 913e 0fe1 3bbe
00000310: be79 16bf 9a76 513d bfbc d13e 4fdb 2bbe
00000320: b677 c23e 0df4 163e 01d2 ddbe 0324 a23c
00000330: 77c3 6ebe 91cf d63e 9e7a d4be 75ac 543e
00000340: f1ae 6bbe 6428 dfbc d87e 013e 2782 d63e
00000350: a3da 80bd ea4b e43e fbfa 1f3e 50e9 0d3e
00000360: ac51 ecbe 2259 833f c95e ccbe 49c7 2cbd
00000370: deb3 ae3e a7c6 ff3d d11c 603e 2881 b23b
00000380: 818f df3e 5c63 4f3e b658 3dbf d3b5 8f3e
00000390: 31dd 623d 1f57 bbbc eb5d 7fbe 128c 5ebe
000003a0: fce6 3ebe 59dd 603e 693e f23d 436b 3cbf
000003b0: 8353 6bbe a299 a4be e1c4 2cbe d985 87be
000003c0: 602e 9abd 8738 2c3e ddab 82be 1b1c 563f
000003d0: 1182 79be 4060 773e 8c4f 9a3e 39dc 093f
000003e0: f62f 7abf ba52 cc3d ce8d 47be df64 c23e
000003f0: ddd8 513e b800 353e 42fe c53e 9143 2dbd

network_body._body_endoder.seq_layers.0.bias f4 [128]
0.018065095 -0.08227807 -0.019223629 -0.012172832 0.02722643 0.05230453 0.03691811 0.0022369968
-0.01680635 -0.0005632897 -0.017296607 -0.0015568177 0.05665256 0.011760421 -0.0676074 -0.028539576
-0.10136635 -0.019140834 -0.028995324 0.015242793 0.008460465 0.047438003 0.030664597 -0.018810587
-0.039197706 0.07023776 -0.013656806 0.033729028 0.046649493 -0.008817559 0.068775885 0.072872385
-0.022071378 -0.02915735 -0.042720538 0.047083706 -0.007229079 -0.038744178 0.036974046 -0.0069526387
0.017070254 0.011438801 -0.0008483593 -0.018708218 0.019944537 -0.00080925185 0.028612757 0.026271712
0.03838068 0.012748099 0.02322404 0.02208081 0.035904285 -0.016777089 -0.037536353 0.023391098
0.048680063 -0.019981747 -0.007808951 0.016988324 0.018889366 0.072999105 0.016513338 0.04414078
-0.0006392165 0.025080012 0.0007493043 0.015325895 -0.025608808 -0.04334154 0.037092466 -0.00063927984
0.025343467 -0.045926426 0.0040167314 -0.021455038 -0.020756602 0.035249326 0.011565122 0.017271163
0.038357403 -3.4991306e-05 -0.007408672 0.091848485 0.01829023 -0.0037569066 0.012639801 0.0072262655
0.023298476 0.0041794144 0.021028878 0.04099333 0.0346512 0.041546244 0.0067760097 0.051557947
0.018660873 0.0059652627 -0.022812858 -0.0069389227 -0.046838216 0.028661547 -0.0807897 0.036084976
0.029760338 0.004420821 -0.017189864 -0.039774295 0.04957527 0.021300847 0.07392495 0.0414971
0.006847424 0.024016742 -0.004006004 -0.047562987 0.065409034 -0.025185458 0.06466288 0.013765746
-0.052299727 0.048457623 0.04168536 0.033129245 0.058879577 0.02350589 0.01304218 0.006545165
00000000: 40fd 933c 6881 a8bd df7a 9dbc 8f70 47bc
00000010: f609 df3c 463d 563d 7237 173d 949a 123b
00000020: 78ad 89bc bba9 13ba 9db1 8dbc 220e ccba
00000030: 840c 683d c8ae 403c c075 8abd d4cb e9bc
00000040: 2999 cfbd 3dcd 9cbc 9a87 edbc e8bc 793c
00000050: c39d 0a3c 5a4e 423d 5234 fb3c a918 9abc
00000060: c68d 20bd d1d8 8f3d ccc0 5fbc 7327 0a3d
00000070: 8a13 3f3d 8677 10bc 5fda 8c3d 1e3e 953d
00000080: 09cf b4bc 65db eebc bbfb 2ebd d8da 403d
00000090: e9e1 ecbb 37b2 1ebd 1972 173d f6d2 e3bb
000000a0: ebd6 8b3c cf69 3b3c 6e64 5eba fa41 99bc
000000b0: ba62 a33c f923 54ba 4d65 ea3c c637 d73c
000000c0: 0f35 1d3d 67dd 503c 5840 be3c d1e2 b43c
000000d0: 5f10 133d 1b70 89bc b8bf 19bd b09e bf3c
000000e0: bf64 473d c3b0 a3bc 3be2 ffbb 192b 8b3c
000000f0: dfbd 9a3c 8e80 953d fb46 873c f6cc 343d
00000100: 1891 27ba 9974 cd3c f66c 443a 7619 7b3c
00000110: 90c9 d1bc e686 31bd 45ee 173d 5895 27ba
00000120: 1a9d cf3c 591d 3cbd c99e 833b 7ac2 afbc
00000130: c009 aabc 9961 103d a37b 3d3c 417c 8d3c
00000140: a71c 1d3d a1c3 12b8 72c4 f2bb 0f1b bc3d
00000150: 64d5 953c 6f36 76bb 2b17 4f3c 4fca ec3b
00000160: 72dc be3c 78f3 883b c144 ac3c 9fe8 273d
00000170: 6bee 0d3d 652c 2a3d 4a09 de3b 6d2e 533d
00000180: b0de 983c 4078 c33b 08e2 babc e75f e3bb
00000190: 6ed9 3fbd 9fcb ea3c 1275 a5bd d7cd 133d
000001a0: f4cb f33c 89dc 903b c2d1 8cbc 5fea 22bd
000001b0: 700f 4b3d 1d7f ae3c f765 973d ddf8 293d
000001c0: 5b60 e03b c2be c43c cc44 83bb 68d1 42bd
000001d0: 2cf5 853d bc51 cebc f96d 843d b989 613c
000001e0: 3d38 56bd 807b 463d 45be 2a3d 88b2 073d
000001f0: b62b 713d 6d8f c03c deae 553c d378 d63b

network_body._body_endoder.seq_layers.2.weight f4 [128, 128]
-0.05414461 0.056745704 -0.10543668 -0.03557912 0.045085367 0.14232264 -0.11858167 0.0019642096
-0.05035814 0.10051712 0.05802865 -0.045363206 -0.21546245 -0.03303062 -0.004508092 -0.18286975
-0.09981328 -0.06891906 0.03613956 0.1112248 -0.09715667 0.06955154 -0.12915854 -0.08974115
0.026668157 -0.06891904 0.040112767 0.0025683031 -0.13216662 -0.20909566 0.18847398 0.08120061
0.056515627 0.064805515 0.026390588 0.09230616 0.11518044 -0.08563564 0.07527618 -0.08607962
-0.014367999 -0.009121564 0.08401855 0.019886505 0.04561559 -0.037848417 -0.091070436 -0.028532822
0.046333812 -0.1711344 0.08736765 0.0062577915 0.11153129 0.0830901 -0.12564968 -0.0969325
-0.026478767 0.009529133 -0.0053468584 -0.0701767 -0.0876534 0.09546364 0.08083903 0.07339547
0.030281365 0.15106599 -0.06676956 0.08268717 0.002919309 -0.09163926 -0.055988465 -0.009687992
-0.040205117 0.09040019 0.021798566 0.10212746 -0.019814484 0.049155165 0.020177092 0.10461328
0.07758674 0.08622621 0.04493884 0.13867867 0.09301809 0.17462906 0.09428014 -0.1706387
-0.02426597 -0.067982025 -0.076702684 0.059920367 0.020321393 0.11068104 -0.0058848183 0.19461507
-0.0026047726 0.03438024 -0.0007078111 -0.020365419 -0.06216604 0.07819184 -0.048698857 0.067003876
-0.06697601 -0.13149603 -0.0024547344 -0.042130712 -0.17145984 -0.016312338 0.16322064 -0.056836214
0.047885668 -0.0027827378 0.015412051 -0.02522543 0.0014820276 -0.06700702 -0.16543661 -0.04819296
-0.14831366 -0.057170153 0.09700073 0.14431345 -0.049137644 -0.16223116 0.005236192 0.06728042
0.02523402 0.020041475 0.0022734655 0.097025745 -0.11961982 0.11120107 -0.04996968 0.09007222
-0.14826816 -0.1503137 0.09768421 -0.118774496 0.04353463 0.007970391 -0.113228664 -0.12681888
0.10611646 -0.0021690666 0.12099762 -0.05563587 -0.040786505 0.006244459 0.12600489 -0.24390385
0.009265123 -0.032716002 0.021414977 0.049673915 0.020983083 -0.09529838 0.067462504 -0.04446002
-0.069181085 -0.011042475 0.15759872 -0.020882256 0.010836112 -0.26714262 -0.044693854 -0.12254653
0.05686745 -0.06271243 -0.028036306 -0.03669698 0.026959244 -0.13112515 0.05994469 -0.11853953
0.071209066 -0.22986612 -0.20309202 0.06336856 0.05734826 0.030860541 0.052847654 0.00367342
0.05267676 -0.006485091 -0.030419929 -0.15308994 -0.22188802 -0.0071463306 0.109882444 0.031883765
-0.02706755 -0.1259 0.05748877 -0.03378884 -0.003138443 -0.0299044 0.07460227 -0.23539044
0.08246617 0.06984739 0.10807743 0.02685004 0.10005938 -0.26361844 0.078120425 0.047960762
-0.0041537564 0.07751384 -0.13177215 -0.06820859 0.08569036 0.0018916267 -0.030451767 -0.08561145
0.15655394 0.060573023 -0.0011257061 -0.06872722 -0.013536433 0.14336821 -0.14451563 0.0743768
-0.070847385 0.040673155 -0.0911353 0.25627202 -0.21176495 0.033092324 -0.048650134 0.020845935
-0.020308226 0.049205113 0.10790901 -0.09574141 -0.011079803 0.031418722 0.11559653 0.004688005
0.09906425 0.031593427 0.03964697 0.00024008544 -0.1418771 -0.024927603 -0.060398124 -0.04212161
0.011439929 -0.029877342 0.0705056 -0.005588205 0.053952787 -0.062568836 0.064932235 0.0002772931
00000000: bdc6 5dbd 2f6e 683d 30ef d7bd 69bb 11bd
00000010: 6fab 383d 07bd 113e f2da f2bd f8b9 003b
00000020: 5644 4ebd ebdb cd3d 73af 6d3d c5ce 39bd
00000030: 30a2 5cbe 1e4b 07bd 9eb8 93bb 3542 3bbe
00000040: e86a ccbd 7025 8dbd 1307 143d d4c9 e33d
00000050: 14fa c6bd 0a71 8e3d 2342 04be 35ca b7bd
00000060: 2e77 da3c 6d25 8dbd 494d 243d fa50 283b
00000070: b056 07be 2c1d 56be 53ff 403e 814c a63d
00000080: ee7c 673d c1b8 843d 1331 d83c 030b bd3d
00000090: b9e3 eb3d bd61 afbd 662a 9a3d 834a b0bd
000000a0: c167 6bbc 9d72 15bc eb11 ac3d 06e9 a23c
000000b0: 6ad7 3a3d f106 1bbd 2383 babd aabd e9bc
000000c0: 86c8 3d3d db3d 2fbe cfed b23d 290e cd3b
000000d0: 846a e43d 242b aa3d 4faa 00be 8c84 c6bd
000000e0: 00ea d8bc 1520 1c3c b334 afbb cdb8 8fbd
000000f0: a083 b3bd 7182 c33d ef8e a53d 5d50 963d
00000100: a010 f83c 0bb1 1a3e 7bbe 88bd e457 a93d
00000110: e151 3f3b 5dad bbbd 2954 65bd 62ba 1ebc
00000120: 1fae 24bd bc23 b93d e892 b23c 3428 d13d
00000130: fc51 a2bc ed56 493d 6e4a a53c 7d3f d63d
00000140: cce5 9e3d 5e97 b03d ca11 383d c801 0e3e
00000150: 4580 be3d f6d1 323e f215 c13d e9bb 2ebe
00000160: 6dc9 c6bc 293a 8bbd 4c16 9dbd 0f6f 753d
00000170: 0d79 a63c beac e23d 6fd5 c0bb 2c49 473e
00000180: d5b4 2abb 4bd2 0c3d 668c 39ba 61d5 a6bc
00000190: d1a1 7ebd 0b23 a03d 7478 47bd 5439 893d
000001a0: b82a 89bd e5a6 06be 9cdf 20bb 4191 2cbd
000001b0: 2b93 2fbe 74a1 85bc 5023 273e 17cd 68bd
000001c0: c323 443d 985e 36bb d482 7c3c 90a5 cebc
000001d0: 9840 c23a fa3a 89bd 3768 29be fb65 45bd
000001e0: 89df 17be 402b 6abd 52a8 c63d e8c6 133e
000001f0: 8e44 49bd ed1f 26be 5d94 ab3b 51ca 893d
00000200: 93b7 ce3c 052e a43c 6cfe 143b 6fb5 c63d
00000210: 3cfb f4bd 63bd e33d 02ad 4cbd c977 b83d
00000220: 9cd3 17be d6eb 19be a90e c83d 0b40 f3bd
00000230: 5e51 323d 3e96 023c 6ee4 e7bd cfdc 01be
00000240: 9653 d93d e626 0ebb 9acd f73d 70e2 63bd
00000250: c00f 27bd 529e cc3b 6d07 013e eec1 79be
00000260: becc 173c 3701 06bd 766e af3c e076 4b3d
00000270: b7e4 ab3c cc2b c3bd c829 8a3d b61b 36bd
00000280: d0ae 8dbd 7feb 34bc 8f61 213e 4411 abbc
00000290: f389 313c ebc6 88be e710 37bd adf9 fabd
000002a0: d8ed 683d 606f 80bd 65ac e5bc 934f 16bd
000002b0: a2d9 dc3c ac45 06be 9088 753d dac4 f2bd
000002c0: 0fd6 913d 0662 6bbe 5bf7 4fbe 60c7 813d
000002d0: 02e6 6a3d 3fcf fc3c c876 583d c3bd 703b
000002e0: 96c3 573d e380 d4bb 3733 f9bc 9cc3 1cbe
000002f0: 9d36 63be c42b eabb 0c0a e13d 8d98 023d
00000300: c4bc ddbc eeeb 00be 5879 6b3d 2b66 0abd
00000310: 56ae 4dbb 13fa f4bc 13c9 983d 310a 71be
00000320: 06e4 a83d 260c 8f3d b357 dd3d 9df4 db3c
00000330: efeb cc3d fff8 86be 9afd 9f3d 8172 443d
00000340: 3c1c 88bb 93bf 9e3d 47ef 06be f2b0 8bbd
00000350: 6d7e af3d 76f0 f73a fc75 f9bc 0e55 afbd
00000360: ad4f 203e 6b1b 783d 6e8c 93ba dbc0 8cbd
00000370: eac7 5dbc 1ecf 123e e8fb 13be dd52 983d
00000380: 6f18 91bd e598 263d 25a5 babd 1636 833e
00000390: e9d8 58be d18b 073d 5d45 47bd 18c5 aa3c
000003a0: 705d a6bc 4d8b 493d 66ff dc3d 1314 c4bd
000003b0: 1088 35bc ebb0 003d e0bd ec3d d69d 993b
000003c0: 33e2 ca3d 1c68 013d dc64 223d 72bf 7b39
000003d0: 3b48 11be f934 ccbc 0664 77bd b687 2cbd
000003e0: 8a6e 3b3c 54c1 f4bc 3d65 903d 431d b7bb
000003f0: 99fd 5c3d 1724 80bd 31fb 843d a661 9139

network_body._body_endoder.seq_layers.2.bias f4 [128]
0.0630146 0.045311768 -0.01072603 -0.0072563714 0.05675841 -0.0028889887 0.01900287 0.03492731
0.025659846 0.0042297314 0.01423583 0.037329905 0.022705456 0.0030884708 0.032778274 0.00042410413
0.03440555 0.010172577 0.0023996786 -0.027834522 0.022874072 -0.005712531 -0.005756041 0.05137212
0.01896501 0.027472528 0.034329295 0.03668282 -0.0014172443 0.009942257 0.00040277463 0.018058993
0.02382873 0.024164472 -0.01932393 0.009493025 0.013679884 0.06444082 0.052116085 -0.006306722
-0.017772038 0.048286736 -0.014741338 0.016068809 -0.00042238244 -0.007552426 0.0063368594 0.008788989
0.051583007 0.025888067 0.020718014 0.005007079 -0.0062777167 0.018721249 0.015763707 -0.039976876
0.027916303 -0.013269779 0.029800387 -0.03116694 0.0035073706 -0.025521884 -0.008103562 -0.027122347
-0.015219244 -0.008887213 0.019847775 0.038568977 0.030871386 0.005530803 -0.009550809 0.05654864
-0.03679204 0.048026584 0.026899492 0.05020476 0.06085818 0.0059960326 -0.005656841 0.000928543
-0.02660953 0.036229208 0.029369807 0.037055846 -0.025648745 0.012382926 0.04745517 -0.014629511
0.020232534 0.028640768 0.07852476 0.026461473 -0.019742722 0.0014774508 -0.025615467 0.0056046005
0.023748633 0.03967495 0.12039676 0.034454312 -0.029938316 0.03862736 0.0080046635 0.024837147
-0.023543052 0.015946092 0.035977364 0.09890663 -0.007995484 0.034693353 -0.010398963 0.03328833
0.0056866384 0.0588191 0.036474418 0.051069275 7.443967e-05 -0.004103638 0.00015350172 0.04389574
0.021817299 -0.009759641 0.027069 0.006547094 0.00083595293 0.017841486 0.033487387 -0.01796368
00000000: cc0d 813d d598 393d 3bbc 2fbc dbc6 edbb
00000010: 827b 683d 3055 3dbb e8ab 9b3c f00f 0f3d
00000020: 9934 d23c 8f99 8a3b 663d 693c 3ee7 183d
00000030: cb00 ba3c f167 4a3b 8342 063d 4b5a de39
00000040: d6ec 0c3d e1aa 263c ed43 1d3b 3905 e4bc
00000050: 6862 bb3c 2f30 bbbb 2c9d bcbb 926b 523d
00000060: 825c 9b3c 110e e13c e09c 0c3d ba40 163d
00000070: d4c2 b9ba d9e4 223c 7f2b d339 74f0 933c
00000080: 7834 c33c 92f4 c53c 384d 9ebc a288 1b3c
00000090: 9821 603c 8cf9 833d ad77 553d 9ea8 cebb
000000a0: aa96 91bc 50c8 453d a785 71bc bca2 833c
000000b0: 3673 ddb9 577a f7bb 6ea5 cf3b b1ff 0f3c
000000c0: b448 533d 3613 d43c d3b8 a93c 6c12 a43b
000000d0: 4eb5 cdbb 4e5d 993c e422 813c cbbe 23bd
000000e0: bbb0 e43c 7d69 59bc f11f f43c d051 ffbc
000000f0: eadb 653b 4513 d1bc cdc4 04bc af2f debc
00000100: 235a 79bc ac9b 11bc cd97 a23c 81fa 1d3d
00000110: fde5 fc3c bd3b b53b ff7a 1cbc 8c9f 673d
00000120: 40b3 16bd 86b7 443d 535c dc3c 82a3 4d3d
00000130: 6d46 793d 5e7a c43b 065d b9bb 7769 733a
00000140: 3bfc d9bc 1465 143d f398 f03c dfc7 173d
00000150: 511d d2bc c2e1 4a3c 5a60 423d 9eb0 6fbc
00000160: b3be a53c 0ba0 ea3c 97d1 a03d bbc5 d83c
00000170: 7dbb a1bc 06a7 c13a 87d7 d1bc cca6 b73b
00000180: 7e8c c23c 3382 223d 9492 f63d f71f 0d3d
00000190: 3341 f5bc b937 1e3d fe25 033c 4677 cb3c
000001a0: 5cdd c0bc 61a1 823c 005d 133d 8f8f ca3d
000001b0: 7eff 02bc 9e1a 0e3d 6960 2abc 5859 083d
000001c0: fb56 ba3b 4cec 703d 3366 153d 042e 513d
000001d0: 7e1c 9c38 d077 86bb 4ef5 2039 05cc 333d
000001e0: 31ba b23c e7e6 1fbc cfbf dd3c 0189 d63b
000001f0: da23 5b3a 4f28 923c 122a 093d 9128 93bc

action_model._continuous_distribution.log_sigma f4 [1, 2]
-0.02523039 -0.116540655
00000000: f6af cebc deac eebd

action_model._continuous_distribution.mu.weight f4 [2, 128]
-0.09100135 -0.044489015 0.0006595686 -0.016259793 -0.015679684 -0.014013654 -0.061160587 0.09812704
-0.047194842 0.01762214 -0.027632495 0.051721133 -0.048510972 -0.028738037 0.035714976 -0.051834393
-0.008446289 -0.031624798 0.013314449 0.031399757 -0.031595103 0.0043347697 0.023027712 -0.08908175
-0.038672253 0.013486766 -0.036359567 -0.048915997 0.04741287 0.04334654 -0.033547476 -0.037688013
0.04114548 -0.023763178 0.019044261 0.028995201 -0.043707214 -0.05136514 -0.025833325 -0.018423505
0.0059781005 0.09977345 -0.014801252 0.06839834 -0.023062589 0.01969582 0.03407006 -0.04430541
0.04277839 -0.016054375 0.036416426 0.031763777 -0.00028566294 -0.026490707 -0.030567633 0.007506456
0.014287851 -0.013692748 0.08712284 -0.0059683244 -0.026615378 0.0029282237 -0.021601688 0.012173951
0.031034226 -0.007346876 0.0008384422 0.07738054 -0.038254302 -0.0036043096 -0.031436075 0.104638875
-0.024943268 -0.050066493 0.017419541 -0.06601711 -0.072217576 -0.034241505 -0.011293373 -0.03340217
0.020956362 -0.039938446 -0.045355625 0.022153474 0.0076897135 -0.009057365 0.004415121 0.016169231
0.038118754 0.06698978 -0.027890872 0.051965605 0.011842346 -0.0067661735 -0.007084459 3.2648695e-05
-0.012779667 0.045380592 -0.05041316 -0.064414345 -0.011992105 -0.06730469 -0.02961736 0.03772292
0.0061360444 -0.02420063 0.100646265 -0.03249311 -0.011189346 -0.07759964 0.015794246 -0.004168873
-0.020730337 -0.061090108 0.04204262 0.0592004 -0.0436192 -0.0059053237 -0.005440122 0.0066436995
0.0120383045 -0.003050859 0.0027732437 -0.02287536 0.017636629 -0.051568247 0.031455416 -0.007354513
-0.02974128 -0.006763122 0.020349735 0.038546026 -0.054203317 0.038028635 0.04367048 0.000431789
-0.0010261142 -0.027305316 0.07404948 -0.027263137 -0.023789154 0.0011858442 0.04564822 0.024824895
0.07546314 0.051905658 -0.02180533 0.01592855 0.0090833595 0.0007560014 0.05096944 0.011325963
-0.032016657 0.073348746 -0.0022000237 -0.015656533 -0.014830059 -0.034886707 0.0025327755 0.020821413
0.00046502575 0.04993815 0.019083643 -0.021945067 0.007768967 -0.032219697 -0.062849626 0.020522097
0.03604068 -0.023429 0.007464721 0.018337496 0.036862534 0.026086543 0.038631834 0.04893556
-0.017846474 0.043595646 -0.019890204 0.04729644 -0.026427908 0.060591325 0.025878709 0.0091972025
-0.03216999 0.016650405 0.018675506 0.012903237 0.012241959 0.0048532863 -0.000119645374 0.019567518
0.00033987017 -0.018197712 -0.039264236 -0.034699835 -0.024356041 0.029243628 0.053356253 0.06340088
0.0033260135 -0.024562199 0.04654694 -0.047759518 -0.019957503 0.023704015 -0.0012924215 0.009926591
-0.003347553 -0.06284546 -0.029484354 -0.05462906 0.011935978 -0.0153202545 -0.07668856 0.019698737
0.056857552 -0.022911603 -0.103579484 0.0025066251 -0.0047176424 -0.009866164 0.0103399 -0.010407489
-0.011771139 -0.008935732 -0.13190591 -0.045481913 0.012319848 0.057223566 0.0463525 0.075224236
0.0042016213 0.052684627 0.023275716 -0.10888885 0.066838734 -0.017588167 0.03357367 0.06946504
0.028066415 -0.05195258 -0.016154217 -0.018614573 0.016043589 0.032354563 0.060160097 -0.04884185
0.086044565 0.032557733 -0.06075424 0.05392876 -0.027945057 -0.038159914 -0.01920378 0.011440619
00000000: ea5e babd 1d3a 36bd e6e6 2c3a 4233 85bc
00000010: ae72 80bc 8699 65bc 8683 7abd d4f6 c83d
00000020: 614f 41bd 4e5c 903c 8b5d e2bc 8ad9 533d
00000030: 71b3 46bd 086c ebbc de49 123d 4d50 54bd
00000040: 4e62 0abc 0189 01bd d924 5a3c 089d 003d
00000050: de69 01bd af0a 8e3b 9da4 bc3c 7e70 b6bd
00000060: cc66 1ebd 99f7 5c3c c5ed 14bd 245c 48bd
00000070: ff33 423d 248c 313d 1469 09bd bf5e 1abd
00000080: 2a88 283d ffaa c2bc b602 9c3c 5887 ed3c
00000090: 5606 33bd 4164 52bd 69a0 d3bc e4ec 96bc
000000a0: f1e3 c33b 0656 cc3d f380 72bc 6e14 8c3d
000000b0: c1ed bcbc 2159 a13c 0c8d 0b3d 9779 35bd
000000c0: 6538 2f3d 7784 83bc 6429 153d bc1a 023d
000000d0: 08c5 95b9 0a03 d9bc f968 fabc b8f8 f53b
000000e0: 9717 6a3c 8c57 60bc 766d b23d ef91 c3bb
000000f0: 7e08 dabc 71e7 3f3b 06f6 b0bc 4075 473c
00000100: 7d3b fe3c 10be f0bb e7ca 5b3a b079 9e3d
00000110: 8bb0 1cbd 4836 6cbb 1dc3 00bd e84c d63d
00000120: d355 ccbc 8612 4dbd 6db3 8e3c fb33 87bd
00000130: cfe6 93bd d240 0cbd d707 39bc b7d0 08bd
00000140: adac ab3c 7f96 23bd d2c6 39bd 347b b53c
00000150: fef9 fb3b 5865 14bc b8ac 903b 5675 843c
00000160: 6922 1c3d f031 893d 667b e4bc e3d9 543d
00000170: 6606 423c c7b6 ddbb c024 e8bb 45f0 0838
00000180: cf61 51bc 00e1 393d 087e 4ebd abeb 83bd
00000190: 897a 44bc 0bd7 89bd 1ba0 f2bc 5983 1a3d
000001a0: df10 c93b 6640 c6bc a11f ce3d 7f17 05bd
000001b0: 8553 37bc 8fec 9ebd ef62 813c 0b9b 88bb
000001c0: abd2 a9bc 9f39 7abd e234 2c3d 1e7c 723d
000001d0: 0caa 32bd 7281 c1bb 0d43 b2bb 64b3 d93b
000001e0: 4f3c 453c ecf0 47bb 4fbf 353b 1b65 bbbc
000001f0: b17a 903c 3a39 53bd 65d7 003d 20fe f0bb
00000200: fca3 f3bc 2e9d ddbb 7db4 a63c 70e2 1d3d
00000210: 4c04 5ebd eac3 1b3d d1df 323d bd61 e239
00000220: ae7e 86ba 66af dfbc 41a7 973d f156 dfbc
00000230: 79e1 c2bc 546e 9b3a a1f9 3a3d 945d cb3c
00000240: 6b8c 9a3d 079b 543d 17a1 b2bc 977c 823c
00000250: 5fd2 143c 652e 463a 55c5 503d 8890 393c
00000260: e623 03bd de37 963d 462e 10bb 2142 80bc
00000270: c7f9 72bc 5de5 0ebd ecfc 253b ab91 aa3c
00000280: b3ce f339 f28b 4c3d 4d55 9c3c 24c6 b3bc
00000290: d292 fe3b cdf8 03bd 4eb7 80bd f51d a83c
000002a0: 649f 133d 2dee bfbc 9e9a f43b 8438 963c
000002b0: 2bfd 163d 72b3 d53c 6a3c 1e3d a770 483d
000002c0: c532 92bc 5991 323d c8f0 a2bc e9b9 413d
000002d0: 577f d8bc 9c2e 783d 96ff d33c ddaf 163c
000002e0: aec4 03bd 6e66 883c 60fd 983c 1968 533c
000002f0: 7f92 483c 5108 9f3b 1fea fab8 0f4c a03c
00000300: 9a30 b239 5e13 95bc 89d3 20bd 6a21 0ebd
00000310: 5286 c7bc 5590 ef3c 168c 5a3d 52d8 813d
00000320: 3ff9 593b aa36 c9bc 01a8 3e3d 7c9f 43bd
00000330: eb7d a3bc ec2e c23c 7866 a9ba 24a3 223c
00000340: 9f62 5bbb 1fb5 80bd 2c89 f1bc b9c2 5fbd
00000350: 1f8f 433c ce01 7bbc e40e 9dbd 3f5f a13c
00000360: 77e3 683d 1db1 bbbc 7b21 d4bd 3146 243b
00000370: 7496 9abb b1a5 21bc af68 293c 2c84 2abc
00000380: bcdb 40bc 2d67 12bc 5812 07be 3e4b 3abd
00000390: 30d9 493c 4263 6a3d 1edc 3d3d 2a0f 9a3d
000003a0: c1ad 893b d6cb 573d b7ac be3c 1e01 dfbd
000003b0: bfe2 883d 0f15 90bc 8b84 093d b043 8e3d
000003c0: 8aeb e53c 3bcc 54bd d955 84bc 977d 98bc
000003d0: d86d 833c 3886 043d 6f6a 763d 640e 48bd
000003e0: 2238 b03d 425b 053d 70d9 78bd 67e4 5c3d
000003f0: 08ed e4bc 924d 1cbd 3f51 9dbc 6f71 3b3c

action_model._continuous_distribution.mu.bias f4 [2]
-0.0050607705 -0.014300535
00000000: d2d4 a5bb cb4c 6abc

action_model._discrete_distribution.branches.0.weight f4 [1, 128]
-0.0075295516 -0.008384296 -0.0014065832 0.001319827 -0.0022965784 0.007314221 0.0043453276 0.0051287115
-0.0009430805 -0.001652284 0.0116545325 -0.0027725657 0.0059675286 0.0034198544 0.00863365 -0.0046759867
-0.0061039464 -0.0026650191 0.012614957 0.011121935 -0.025919814 -0.012630539 0.0035082714 -0.005152017
-0.00039103325 0.001076132 0.008913011 -0.005888402 -0.0002051686 0.0036709514 0.0048349695 -0.0001936184
0.0013987588 -0.0067267804 -0.0041284463 -0.0038555872 -0.01392459 0.014706683 -0.002299907 -0.009757796
-0.0001729473 0.012227746 0.008983396 0.008027151 0.008733167 -0.0032639694 -0.019197663 0.005069397
0.011545259 -0.006547149 0.0023903118 0.0056444155 0.008302428 -0.010749922 -0.00058562716 0.006370862
-0.004592776 -0.010497962 0.0036131174 -0.0075746677 0.0010386124 0.0011009597 0.003181804 0.002737572
0.0046444703 0.00065576984 0.0071580536 0.007111139 0.0159167 0.01865477 0.0055839377 -0.007206883
0.013707369 0.009788824 -0.0051042777 -0.00074710365 0.0021998293 -0.016420456 -0.0011217151 -0.013619858
-0.011234668 -0.0012040054 0.0038679175 -0.0071066967 -0.01091392 0.0016645059 -0.02127899 -0.016503256
0.0006336064 0.00823099 0.006779962 -0.0014731643 -0.010636952 0.00036082568 -0.00939375 0.0025737858
-0.0034523662 0.0053717773 0.0019396096 -0.00012633036 -0.009537236 0.008085794 -0.024277385 0.00064567814
0.009691973 -0.013392496 0.008888791 -0.0009727347 0.010585821 0.0022482001 -0.013338083 0.017156467
-0.0051492318 -0.018293444 0.013559686 -0.007311128 -0.0055029984 -0.015498814 0.0025622705 -0.01053849
-0.00814083 -0.0006291947 0.008947037 0.0011961702 0.008770678 0.013997145 0.01732098 0.0019372078
00000000: 75ba f6bb 495e 09bc 1a5d b8ba 0cfe ac3a
00000010: 3182 16bb 22ac ef3b 4063 8e3b c00e a83b
00000020: 1039 77ba 7391 d8ba a7f2 3e3c efb3 35bb
00000030: 428b c33b a31f 603b 2774 0d3c 0539 99bb
00000040: 9d03 c8bb 9aa7 2ebb f7ae 4e3c c738 363c
00000050: ca55 d4bc 52f0 4ebc 07eb 653b 40d2 a8bb
00000060: 9803 cdb9 ff0c 8d3a e107 123c 7ff3 c0bb
00000070: 8722 57b9 5894 703b aa6e 9e3b 0b06 4bb9
00000080: 8f56 b73a 536c dcbb eb47 87bb 05ae 7cbb
00000090: f723 64bc 4df4 703c 09ba 16bb 2adf 1fbc
000000a0: 3059 35b9 e256 483c 182f 133c 5084 033c
000000b0: 8f15 0f3c 52e8 55bb 6b44 9dbc 2f1d a63b
000000c0: 5328 3d3c 7789 d6bb c7a6 1c3b caf4 b83b
000000d0: e806 083c 7120 30bc c684 19ba aac2 d03b
000000e0: ff7e 96bb a5ff 2bbc 0dca 6c3b eb34 f8bb
000000f0: 0d22 883a 144e 903a d085 503b d668 333b
00000100: a430 983b f8e7 2b3a 1b8e ea3b 8f04 e93b
00000110: bd63 823c e3d1 983c 77f9 b63b b727 ecbb
00000120: df94 603c 4e61 203c c941 a7bb 47d9 43ba
00000130: 032b 103b 3184 86bc 8306 93ba d325 5fbc
00000140: 9d11 38bc b8cf 9dba e37c 7d3b 4bdf e8bb
00000150: 4cd0 32bc 8d2b da3a 4751 aebc d631 87bc
00000160: 9b18 263a 46db 063c 722a de3b 3117 c1ba
00000170: 9c46 2ebc 342d bd39 3ee8 19bc f6ac 283b
00000180: 1841 62bb bc05 b03b 803a fe3a 8c77 04b9
00000190: 1142 1cbc 477a 043c 5ee1 c6bc ba42 293a
000001a0: 15cb 1e3c 336c 5bbc 4ba2 113c 1fff 7eba
000001b0: 2770 2d3c 8a56 133b fa87 5abc b88b 8c3c
000001c0: e3ba a8bb 22dc 95bc 7229 5e3c 3092 efbb
000001d0: 7f52 b4bb bdee 7dbc c4eb 273b a1a9 2cbc
000001e0: 1e61 05bc 8bf0 24ba 9896 123c d0c8 9c3a
000001f0: e4b2 0f3c 4854 653c bae4 8d3c e8e9 fd3a
