Shooter2Agents1EnvPlaybale/Assets/Models/OldModels/ShootTheGreen.onnx (onnx, 78254 bytes, 8 tensors)

network_body._body_endoder.seq_layers.0.weight f4 [128, 6]
0.73208946 -0.21206646 0.20496574 0.5967869 -0.29216537 -0.4696947 -0.06577613 0.5435407
0.60759693 -0.20524317 -0.028694311 0.19037195 0.51586246 0.46836457 0.16125087 -0.09375528
0.61736053 0.15084201 -0.15062039 -0.38460898 0.4618681 0.22680584 0.019189045 0.67078763
0.6199604 -0.018621668 0.26186615 -0.24512607 -0.19100554 -0.022449112 -0.30141234 -0.18060094
0.2206054 0.46596345 -0.07999742 0.19150563 -0.28439668 -0.26414797 -0.10511315 0.065445915
-0.10334574 0.06937065 -0.06916521 -0.029266566 -0.4121266 0.36117288 -0.85901046 0.20517708
-0.47504872 0.24727607 0.07296274 -0.23130617 -0.8947434 0.51631916 0.1322846 -0.32532007
-0.12490865 -1.020816 0.5663081 -0.45269868 0.3939721 -0.6046963 0.39719558 0.01189258
0.30625936 0.74687535 0.49548137 -0.73977023 -0.00033174467 -0.5941514 -0.49966124 0.17763767
-0.20366319 0.46663642 -0.14936401 0.54713136 -0.53835434 0.001720145 0.11228954 0.23005693
0.14873454 0.13170587 -0.32268712 0.24641375 -0.31397814 -0.12367498 -0.4549013 0.51207215
-0.7136065 0.73920846 0.2020994 -0.33706564 0.3744263 -0.22540046 0.05972156 -0.3426112
0.4758682 -0.12796405 -0.28043362 0.030839067 -0.20544618 0.15879616 0.120711304 -0.33971992
-0.054439064 0.21344545 0.40454805 0.49821043 -0.4123213 0.08961577 0.42617434 0.36080697
-0.66349846 -0.28526816 -0.39340279 0.032683156 0.8264173 0.018431893 -0.089017734 0.26708686
-0.23988044 -0.1922875 0.6538602 0.51748824 0.24787395 -0.33398175 -0.2573827 0.026594952
-0.7182397 0.09800718 0.20969315 0.25679147 -0.10705644 0.68279356 0.07197123 0.607033
-0.00337377 0.5387637 -0.56501657 -0.6872492 0.22680503 0.6290061 -0.41147166 -0.0019322513
0.08931183 -0.42519665 -0.16043817 0.31737807 -0.15852879 0.30097312 0.2456852 0.32798207
0.026399927 0.3526169 0.2423604 0.6811373 0.0028215845 -0.14449556 -0.54713285 -0.015001345
0.0094018215 0.033597194 -0.5525 0.36290604 0.3029175 -0.08536589 0.42457736 0.08378818
-0.7368725 0.092060104 -0.21106555 0.50156647 -0.12996128 0.13262537 -0.75687754 0.18182115
-0.17507493 0.09363773 0.2412553 0.089307055 0.11206 -0.21291578 -0.10271368 0.59655714
-0.5060707 0.34036437 0.3459303 0.07789126 -0.045736622 0.06596588 0.5440751 0.52685875
-0.05926672 -0.40700758 0.5841756 -0.40519005 -0.16673717 -0.41276383 0.04990793 -0.5714301
0.10528659 -0.3482805 0.22302274 -0.10872119 -0.21962902 -0.068920776 0.41070554 0.07118269
-0.41753656 -0.5988601 -0.110777944 0.8187562 -0.26634812 0.1905903 0.12516166 -0.5598591
0.73513955 -0.14448102 -0.04124737 -0.09946322 -0.41847524 -0.30540365 -0.27305186 -0.8446517
-0.24407662 0.3274009 0.21464394 -0.18067859 0.36268198 -0.16555929 -0.43165955 0.21026564
0.29754937 -0.3758207 0.64978623 -0.70521986 -0.45658177 -0.6168049 0.7617891 0.7481373
0.04607866 -0.8824847 -0.06934195 0.19021545 0.112766795 -0.33665404 -0.51945734 0.27172232
0.19678009 0.5184116 -0.6544598 0.123232424 -0.24331331 -0.066849835 0.4870564 -0.5047882
00000000: 376a 3b3f f327 59be 8ae2 513e 07c7 183f
00000010: b396 95be d37b f0be a3b5 86bd 7c25 0b3f
00000020: 798b 1b3f 442b 52be 5510 ebbc ddf0 423e
00000030: 900f 043f 7bcd ef3e f31e 253e c502 c0bd
00000040: 570b 1e3f 5476 1a3e 3b3c 1abe 78eb c4be
00000050: fa79 ec3e ca3f 683e 5832 9d3c bdb8 2b3f
00000060: bab5 1e3f 788c 98bc 5213 863e 5402 7bbe
00000070: f596 43be 33e7 b7bc b852 9abe 74ef 38be
00000080: 62e6 613e c392 ee3e b0d5 a3bd 0d1a 443e
00000090: 719c 91be 673e 87be 9045 d7bd 8208 863d
000000a0: eea6 d3bd 3312 8e3d 7da6 8dbd 70c0 efbc
000000b0: 4202 d3be a7eb b83e 1ce8 5bbf f119 523e
000000c0: 9639 f3be f035 7d3e 7d6d 953d 86db 6cbe
000000d0: e70d 65bf 7e2d 043f 9d75 073e 5a90 a6be
000000e0: 1bd0 ffbd 19aa 82bf 91f9 103f 1fc8 e7be
000000f0: b6b6 c93e 60cd 1abf 385d cb3e 19d9 423c
00000100: 07ce 9c3e 3933 3f3f bcaf fd3e 9561 3dbf
00000110: 04ee adb9 4e1a 18bf 99d3 ffbe a6e6 353e
00000120: 158d 50be f8ea ee3e e1f2 18be cd10 0c3f
00000130: 97d1 09bf 7d76 e13a 0ff8 e53d 0b94 6b3e
00000140: de4d 183e e7dd 063e 3f37 a5be e353 7c3e
00000150: bec1 a0be 4f49 fdbd d3e8 e8be 2917 033f
00000160: eaae 36bf c43c 3d3f 25f3 4e3e de93 acbe
00000170: ceb4 bf3e 61cf 66be 989e 743d bc6a afbe
00000180: ffa4 f33e 0209 03be ff94 8fbe 36a2 fc3c
00000190: 7c60 52be 769b 223e 7d37 f73d c5ef adbe
000001a0: 7ffb 5ebd 7291 5a3e ec20 cf3e 7015 ff3e
000001b0: c71b d3be 7988 b73d 8633 da3e b1bb b83e
000001c0: 09db 29bf ab0e 92be 176c c9be c6de 053d
000001d0: 1690 533f 7bfe 963c ee4e b6bd 9cbf 883e
000001e0: 38a3 75be 04e7 44be 6263 273f 1c7a 043f
000001f0: abd2 7d3e a8ff aabe aac7 83be a8dd d93c
00000200: 8fde 37bf fdb7 c83d cdb9 563e 2c7a 833e
00000210: 6840 dbbd 8fcb 2e3f a765 933d 8466 1b3f
00000220: 781a 5dbb 6bec 093f eda4 10bf 90ef 2fbf
00000230: 943f 683e 8b06 213f 6aac d2be 9843 fdba
00000240: 1fe9 b63d 60b3 d9be e749 24be 617f a23e
00000250: 5f55 22be 2619 9a3e e794 7b3e 44ed a73e
00000260: a944 d83c 348a b43e 532d 783e 045f 2e3f
00000270: 55ea 383b a5f6 13be e610 0cbf 34c8 75bc
00000280: 190a 1a3c 369d 093d a470 0dbf d2ce b93e
00000290: 0118 9b3e 50d4 aebd 3462 d93e 2399 ab3d
000002a0: ada3 3cbf 028a bc3d 9121 58be a966 003f
000002b0: 9214 05be f2ce 073e bac2 41bf 532f 3a3e
000002c0: d846 33be 23c5 bf3d a10b 773e 9ee6 b63d
000002d0: b77f e53d 9806 5abe 8d5b d2bd f8b7 183f
000002e0: d98d 01bf 3d44 ae3e c71d b13e 7485 9f3d
000002f0: 5356 3bbd 1f19 873d 8148 0b3f 37e0 063f
00000300: a9c1 72bd 4c63 d0be 888c 153f 1275 cfbe
00000310: 26bd 2abe c855 d3be 426c 4c3d 3e49 12bf
00000320: 7fa0 d73d d251 b2be 1360 643e 37a9 debd
00000330: 6ee6 60be 5626 8dbd ff47 d23e 3bc8 913d
00000340: 5ac7 d5be e54e 19bf 8cdf e2bd 029a 513f
00000350: c85e 88be 1b2a 433e 612a 003e ed52 0fbf
00000360: 1b32 3c3f d5f2 13be 01f3 28bd 5fb3 cbbd
00000370: 6342 d6be de5d 9cbe 74cd 8bbe 183b 58bf
00000380: 39ef 79be 17a1 a73e 9fcb 5b3e cf03 39be
00000390: 74b1 b93e 6088 29be 7b02 ddbe e04f 573e
000003a0: 6458 983e 926b c0be 6458 263f 4a89 34bf
000003b0: 16c5 e9be ede6 1dbf 9c04 433f ed85 3f3f
000003c0: fabc 3c3d 84ea 61bf 2703 8ebd d7c7 423e
000003d0: 47f2 e63d eb5d acbe 28fb 04bf 301f 8b3e
000003e0: b880 493e 9fb6 043f ad8a 27bf 4861 fc3d
000003f0: 2027 79be 91e8 88bd 755f f93e cd39 01bf

network_body._body_endoder.seq_layers.0.bias f4 [128]
-0.06483341 -0.006116506 0.0038577765 -0.02297272 0.0090531465 -0.0059720073 -0.017590228 -0.014356409
-0.013953171 -0.033685047 -0.011748756 -0.0136573445 0.020920135 -0.020985221 -0.008205762 -0.03532098
-0.0019224286 -0.0061445707 -0.0015376623 -0.009889162 -0.007854625 0.011715041 0.011859495 -0.0089661535
-0.010418387 -0.010082499 -0.0058212243 -0.016770674 -0.017544057 -0.03253686 -0.0031823746 -0.01466165
-0.07463973 -0.038788896 -0.018618857 -0.015168015 -0.02358871 -0.012311822 0.0033518234 0.0004684361
-0.034969363 -0.016561273 -0.08662583 -0.011125846 -0.007991648 0.0006207115 0.016603446 -0.007035656
-0.019821523 -0.0060526617 -0.02097431 0.0081399195 -0.011336057 -0.016218998 -0.022368757 -0.016926587
-0.014553666 0.0023882005 0.0110778995 -0.018776469 -0.013108195 0.0072974768 -0.014939565 -0.0006532387
-0.007962719 -0.0063009523 -0.009384506 -0.020963479 -0.010321576 0.00011376922 -0.026339801 -0.007001379
-0.016914846 0.012027735 -0.017502537 -0.012339339 0.0068245176 -0.0106839975 -0.010256399 -0.006649871
-0.0060821567 -0.012555457 0.021502204 0.0009067027 -0.015641613 -0.008144294 0.02144405 -0.008272369
-0.0015073085 -0.014530744 -0.009612388 -0.007355079 0.001071324 0.007840177 0.008394838 -0.0053111906
-0.010423403 -0.005215588 -0.013436539 0.009014501 0.0039694393 0.0013400896 -0.0016704695 -0.001704844
-0.010442609 -0.010497201 0.005292563 0.003826571 0.0062475395 -0.009244296 -0.023479767 -0.008486503
-0.008545177 -0.015456207 -0.007086121 0.007326629 -0.0072019403 -0.03489326 0.011605926 -0.024952443
-0.011725742 -0.01852171 -0.009417992 -0.014266729 0.0049226005 0.016718576 -0.021330306 -0.0026453133
00000000: 61c7 84bd f96c c8bb c0d2 7c3b 4931 bcbc
00000010: a653 143c d4b0 c3bb 6219 90bc 2537 6bbc
00000020: d79b 64bc 55f9 09bd db7d 40bc 0ec3 5fbc
00000030: b460 ab3c 33e9 abbc 7671 06bc bbac 10bd
00000040: 00fa fbba 6558 c9bb 638b c9ba 2706 22bc
00000050: afb0 00bc 71f0 3f3c 544e 423c c6e6 12bc
00000060: e2b1 2abc 1131 25bc f8bf bebb a762 89bc
00000070: 8eb8 8fbc 5f45 05bd 638f 50bb 6b37 70bc
00000080: b7dc 98bd 1be1 1ebd 9386 98bc 4483 78bc
00000090: 1c3d c1bc 86b7 49bc 44aa 5b3b 6e98 f539
000000a0: 093c 0fbd 82ab 87bc e268 b1bd 2e49 36bc
000000b0: 67ef 02bc 3eb7 223a f303 883c 5c8b e6bb
000000c0: bf60 a2bc 6855 c6bb 51d2 abbc 4c5d 053c
000000d0: dfba 39bc b4dd 84bc af3e b7bc a0a9 8abc
000000e0: 8072 6ebc 5b83 1c3b 1480 353c 1cd1 99bc
000000f0: c1c3 56bc ac1f ef3b 14c5 74bc 1b3e 2bba
00000100: 1076 02bc 3878 cebb 79c1 19bc 9abb abbc
00000110: d41b 29bc 6397 ee38 91c6 d7bc d36b e5bb
00000120: 0191 8abc fa0f 453c 7b61 8fbc f02a 4abc
00000130: 34a0 df3b ef0b 2fbc 750a 28bc 29e7 d9bb
00000140: d44c c7bb 67b5 4dbc 6425 b03c caaf 6d3a
00000150: d722 80bc a56f 05bc 6fab af3c d588 07bc
00000160: e190 c5ba 5c12 6ebc 477d 1dbc e002 f1bb
00000170: ab6b 8c3a 1674 003c 818a 093c 7f09 aebb
00000180: ecc6 2abc 86e7 aabb ee24 5cbc 8fb1 133c
00000190: 1212 823b f2a5 af3a a8f3 daba 1275 dfba
000001a0: 7a17 2bbc 74fc 2bbc 3c6d ad3b 35c7 7a3b
000001b0: 29b8 cc3b 6375 17bc a458 c0bc f90a 0bbc
000001c0: 1201 0cbc 083c 7dbc b132 e8bb 3814 f03b
000001d0: 41fe ebbb 3cec 0ebd c826 3e3c 1169 ccbc
000001e0: 541d 40bc d7ba 97bc ec4d 1abc 00bf 69bc
000001f0: c44d a13b 65f5 883c e5bc aebc fe5c 2dbb

network_body._body_endoder.seq_layers.2.weight f4 [128, 128]
-0.05887938 -0.040178664 -0.017811004 0.0017099566 -0.024687443 0.034803912 0.16389762 -0.08374597
0.076129064 0.011495615 -0.05902814 0.005574572 0.070716605 -0.16143033 0.009771408 -0.18039468
-0.16580704 -0.03789801 0.018518513 -0.11308423 0.11803048 -0.041868728 0.011135438 -0.012817482
0.12499137 -0.001530807 0.005831824 0.09091367 0.058363046 -0.050874084 0.2698515 -0.023369312
-0.020123878 0.054634646 -0.06285658 -0.13092771 0.03236309 0.027397698 0.11868295 0.034101304
-0.074742995 0.084274314 0.03914156 0.12379887 -0.09506155 0.04553282 -0.0722456 0.08036919
0.029588213 -0.0812879 -0.034994658 -0.12021541 -0.028967468 0.18457879 -0.10942636 -0.040373713
-0.13331024 0.07042081 0.082852505 -0.01156807 -0.1615231 -0.016823068 -0.03695331 0.039026212
0.009726659 0.025948087 -0.2042705 -0.066035144 0.15776318 0.115964055 0.073603265 0.009903689
-0.0011640977 -0.12745854 0.021560296 0.008316858 -0.053654406 0.089838155 0.090188414 -0.1476707
-0.19179924 0.017044133 0.08148392 0.08968633 -0.15873465 -0.02798436 -0.030808775 -0.056363806
-0.011699688 0.037556026 -0.0768909 0.07430851 0.045155816 -0.044282183 0.06378418 -0.07275649
-0.08633752 0.07888908 -0.04483832 -0.02087105 -0.06233176 -0.24659124 -0.10004586 0.10587509
-0.06813035 0.12717071 -0.094255455 -0.0034630164 -0.22668575 -0.17348768 -0.076419435 -0.04321097
-0.08214317 -0.080970496 -0.05538397 0.015097645 0.1520451 0.04291389 -0.101757504 -0.006533754
0.15568386 0.041277125 -0.07648688 0.028845876 -0.08264114 -0.09479387 0.0066990037 -0.084927045
-0.064348236 0.11288748 -0.026768856 0.043910094 -0.10604425 0.10201463 -0.005243009 0.209071
-0.033829305 0.01615188 0.099920616 -0.05700392 0.13002141 -0.013260263 0.060231432 -0.009865308
-0.059561342 0.03623543 -0.026495062 0.20839702 0.040959775 0.053554025 -0.08071662 0.030937228
0.05925107 0.03080666 0.005706541 -0.010181745 0.032311123 -0.07372828 -0.052296236 -0.0704464
0.066236906 0.041117772 0.007443913 0.06630141 -0.084599 -0.077784866 -0.04818456 0.046578802
0.03689534 -0.054182507 0.049153794 0.16959198 -0.020620462 -0.014677943 -0.11123433 -0.039516605
-0.05589646 0.054034345 0.11836322 0.09868587 0.046636973 0.03719097 0.013462747 -0.011397323
-0.01605474 0.07142906 -0.043286197 -0.14948207 0.030109495 0.005192317 0.011248111 0.034134
-0.049267493 -0.111214474 0.10643351 0.0047548497 -0.10998197 0.043457706 -0.0018795358 0.042528614
-0.06623808 0.010373696 -0.055280007 -0.11193938 -0.013193542 0.017852323 -0.05798708 0.111089505
0.043567542 0.014611819 -0.045716446 0.010571172 -0.046977203 0.039590266 -0.039898198 0.27952337
0.11727874 0.03348871 0.014337383 -0.044923916 -0.15404367 0.13933328 -0.02988342 0.06643908
-0.15822709 0.08797321 0.08486223 -0.007307336 -0.06571003 0.034292802 0.050965074 0.06307738
-0.14231837 0.02324567 -0.08947934 -0.1158243 -0.073698886 -0.055431694 0.20165533 0.018309709
0.08871119 0.18678577 0.05643601 0.09312509 -0.13937399 -0.07088825 -0.04252193 0.046205323
0.013349294 0.07411951 -0.03725854 0.1705144 0.04597991 -0.0038375189 -0.070379 0.12536417
00000000: 812b 71bd 6292 24bd 62e8 91bc 9f20 e03a
00000010: 523d cabc 8c8e 0e3d c7d4 273e 0283 abbd
00000020: 8ee9 9b3d 1b58 3c3c 7ec7 71bd e6aa b63b
00000030: ded3 903d fe4d 25be 4118 203c 62b9 38be
00000040: 52c9 29be f23a 1bbd 23b4 973c b498 e7bd
00000050: f7b9 f13d 8b7e 2bbd 6a71 363c 6b00 52bc
00000060: 7afb ff3d 5ca5 c8ba e318 bf3b f230 ba3d
00000070: 170e 6f3d 5861 50bd fa29 8a3e 0071 bfbc
00000080: d5da a4bc 94c8 5f3d f3ba 80bd ea11 06be
00000090: 298f 043d 2371 e03c 0c10 f33d cfad 0b3d
000000a0: db12 99bd 0398 ac3d e752 203d 438a fd3d
000000b0: a1af c2bd 9f80 3a3d 80f5 93bd 9a98 a43d
000000c0: fb62 f23c 457a a6bd 8f56 0fbd 7f33 f6bd
000000d0: 2f4d edbc 3902 3d3e ed1a e0bd e85e 25bd
000000e0: 7b82 08be c938 903d 93ae a93d 0188 3dbc
000000f0: 5066 25be 88d0 89bc 5b5c 17bd f3d9 1f3d
00000100: 915c 1f3c 1591 d43c 492c 51be 6f3d 87bd
00000110: ac8c 213e 907e ed3d 4fbd 963d 1543 223c
00000120: a394 98ba 7e84 02be 389f b03c 6e43 083c
00000130: b9c4 5bbd 11fd b73d b4b4 b83d fd36 17be
00000140: 0567 44be 23a0 8b3c 0be1 a63d 77ad b73d
00000150: 568b 22be 753f e5bc af62 fcbc bcdd 66bd
00000160: 0cb0 3fbc 59d4 193d fa78 9dbd 0f2f 983d
00000170: 4ef5 383d 3c61 35bd 48a1 823d 5b01 95bd
00000180: bad1 b0bd 9990 a13d 63a8 37bd c4f9 aabc
00000190: 964f 7fbd 6a82 7cbe d8e4 ccbd 0ad5 d83d
000001a0: ed87 8bbd 0a39 023e 0109 c1bd c6f3 62bb
000001b0: 4f20 68be c1a6 31be cb81 9cbd fcfd 30bd
000001c0: ae3a a8bd dcd3 a5bd 4dda 62bd 1d5c 773c
000001d0: b6b1 1b3e 7ac6 2f3d 3d66 d0bd 1a19 d6bb
000001e0: 976b 1f3e 3412 293d 27a5 9cbd 304e ec3c
000001f0: c23f a9bd 4a23 c2bd 5183 db3b 3bee adbd
00000200: 02c9 83bd 8d31 e73d 5c4a dbbc 12db 333d
00000210: ba2d d9bd 0ced d03d 8ccd abbb b516 563e
00000220: 9990 0abd f350 843c 2ea3 cc3d f17c 69bd
00000230: 5524 053e 9341 59bc 3cb5 763d 1aa2 21bc
00000240: 98f6 73bd 9a6b 143d 2c0c d9bc 0766 553e
00000250: 70c5 273d 775b 5b3d c14e a5bd 1270 fd3c
00000260: 40b1 723d 405e fc3c effd ba3b 55d1 26bc
00000270: ab58 043d dafe 96bd 9434 56bd 3446 90bd
00000280: 37a7 873d 1c6b 283d 11ec f33b 09c9 873d
00000290: 3e42 adbd ac4d 9fbd 2c5d 45bd 6ac9 3e3d
000002a0: 911f 173d 7aee 5dbd 7d55 493d 85a9 2d3e
000002b0: 3eec a8bc c17b 70bc d3ce e3bd 2adc 21bd
000002c0: b0f3 64bd 1e53 5d3d 6a68 f23d d11b ca3d
000002d0: 6906 3f3d 8f55 183d db92 5c3c d6bb 3abc
000002e0: 3b85 83bc 6649 923d de4c 31bd d411 19be
000002f0: 30a8 f63c 5024 aa3b ff49 383c 18d0 0b3d
00000300: b6cc 49bd 6ac4 e3bd d0f9 d93d 92ce 9b3b
00000310: 3a3e e1bd b500 323d c25a f6ba 7c32 2e3d
00000320: d5a7 87bd 6ff6 293c 4a6d 62bd 7940 e5bd
00000330: ba29 58bc 093f 923c dc83 6dbd e582 e33d
00000340: e173 323d 6966 6f3c 2b41 3bbd b632 2d3c
00000350: 2b6b 40bd 6729 223d 4b6c 23bd b01d 8f3e
00000360: d62f f03d 752b 093d 58e7 6a3c 2402 38bd
00000370: a0bd 1dbe 62ad 0e3e 13ce f4bc 3611 883d
00000380: 4806 22be 4c2b b43d 40cc ad3d 6172 efbb
00000390: fb92 86bd 9c76 0c3d c1c0 503d b72e 813d
000003a0: e8bb 11be b46d be3c f240 b7bd 4a35 edbd
000003b0: 71ef 96bd 580c 63bd bc7e 4e3e 3efe 953c
000003c0: 36ae b53d c544 3f3e 7229 673d 5eb8 be3d
000003d0: 0eb8 0ebe dc2d 91bd 7a2b 2ebd cb41 3d3d
000003e0: ffb6 5a3c f8cb 973d 699c 18bd 549b 2e3e
000003f0: 6e55 3c3d e27e 7bbb dd22 90bd 775f 003e

network_body._body_endoder.seq_layers.2.bias f4 [128]
-0.0082195075 -0.001607247 -0.0003952147 -0.004737781 -0.022712206 -0.0032764317 -0.0016004478 -0.0011178138
-0.013732049 0.0047977786 -0.018813478 -0.016504804 -0.013332434 -0.002830934 -0.008368834 -0.013474453
0.0034635519 -0.00933246 -0.0116789155 -0.02513577 -0.0019926378 -0.0074781682 0.0015991268 -0.016054984
-0.0063459445 -0.016540252 -0.01670241 -0.021405954 -0.0055831657 -0.010374714 -0.01313769 -0.01327369
-0.0028631613 -0.011387102 -0.0017688053 -0.012436612 -0.0074801734 -0.006926762 -0.014360845 -0.0058949543
0.008199753 -0.016472958 -0.0028763958 -0.00056342536 0.007839165 -0.00959577 -0.029204711 -0.004289279
-0.00047777506 -0.022932893 -0.007979885 -0.015440501 -0.0011194 -0.019004066 -0.018278457 -0.01098262
-0.014353307 -0.0014966977 -0.0012509504 -0.01588395 -0.0096447375 0.006126683 -0.006438572 0.003457699
-0.016978703 -0.005832843 -0.019702407 -0.018842742 0.0060210153 -0.003720362 -0.00906436 -0.016562676
-0.012625316 -0.013528089 -0.006297572 0.0042532883 -0.0055933935 -0.0062855035 -0.004836668 -0.0070279357
-0.01599251 -0.0043621496 -0.007444287 -0.009817815 -0.001138053 -0.022177955 -0.008669669 -0.013634857
-0.01039479 -0.013212218 -0.015694337 0.002897089 -0.016952014 -0.026078707 -0.008348131 -0.012561168
-0.006773896 -0.022761896 -0.0069644526 -0.026785832 0.022448912 -0.010233028 -0.016731191 0.0071121412
-0.0019048392 -0.00036807047 -0.022653807 -0.0031737005 -0.011658595 -0.021781374 -0.0134389205 -0.019048436
-0.0031796875 0.0032522592 -0.01067009 -0.008513908 -0.01325161 -0.008841938 -0.0069877715 -0.013879999
0.007079605 -0.015686715 -0.01509985 -0.02192735 -0.00902692 -0.008748895 -0.0038372702 0.013055973
00000000: 1dab 06bc 43aa d2ba d234 cfb9 633f 9bbb
00000010: f30e babc 67b9 56bb 1ec6 d1ba 9b83 92ba
00000020: 63fc 60bc af36 9d3b b91e 9abc 1535 87bc
00000030: 4870 5abc 3187 39bb 6f1d 09bc f4c3 5cbc
00000040: c2fc 623b 2de7 18bc ec58 3fbc 88e9 cdbc
00000050: ea96 02bb 6c0b f5bb cb99 d13a be85 83bc
00000060: a4f1 cfbb 6c7f 87bc 7ed3 88bc 8a5b afbc
00000070: fdf2 b6bb b4fa 29bc 773f 57bc e479 59bc
00000080: e0a3 3bbb f890 3abc 42d7 e7ba eec2 4bbc
00000090: 3e1c f5bb e4f9 e2bb c049 6bbc 762a c1bb
000000a0: 4258 063c 4cf2 86bc ea81 3cbb d6b2 13ba
000000b0: d76f 003c 9437 1dbc b83e efbc 158d 8cbb
000000c0: e27d fab9 c3dd bbbc 10be 02bc 28fa 7cbc
000000d0: d5b8 92ba 6aae 9bbc b4bc 95bc 72f0 33bc
000000e0: 222a 6bbc d72c c4ba eef6 a3ba 0f1f 82bc
000000f0: f604 1ebc 58c2 c83b a8fa d2bb 909a 623b
00000100: ec16 8bbc 6f21 bfbb f166 a1bc 185c 9abc
00000110: f04b c53b 51d1 73bb ae82 14bc 73ae 87bc
00000120: 6ada 4ebc eba4 5dbc dd5b cebb 2b5f 8b3b
00000130: c948 b7bb a0f6 cdbb e97c 9ebb 994a e6bb
00000140: b902 83bc 5df0 8ebb 35ef f3bb e7da 20bc
00000150: b92a 95ba 8bae b5bc 3a0b 0ebc bc64 5fbc
00000160: e94e 2abc 0f78 58bc 6991 80bc 17dd 3d3b
00000170: f3de 8abc 03a3 d5bc 99c6 08bc 5bcd 4dbc
00000180: 8ff7 ddbb 2877 babc 1036 e4bb f66d dbbc
00000190: c8e6 b73c 6ea8 27bc da0f 89bc f70c e93b
000001a0: ccab f9ba 95f9 c0b9 7a94 b9bc dcfd 4fbb
000001b0: b103 3fbc da6e b2bc eb2e 5cbc 770b 9cbc
000001c0: 4e62 50bb db23 553b 9ad1 2ebc eb7d 0bbc
000001d0: 481d 59bc c7dd 10bc adf9 e4bb ef68 63bc
000001e0: 08fc e73b 6d81 80bc 5c65 77bc fca0 b3bc
000001f0: a6e5 13bc 8657 0fbc b67a 7bbb b8e8 553c

action_model._continuous_distribution.log_sigma f4 [1, 2]
-0.042226076 -0.08120004
00000000: 40f5 2cbd 354c a6bd

action_model._continuous_distribution.mu.weight f4 [2, 128]
0.03855579 0.0127004795 -0.02256369 0.014466932 0.0004483464 0.006362325 -0.0108090695 0.005687018
0.0029484818 -0.006349751 0.01333676 -0.002405787 0.016976347 -0.0016394315 -0.003943563 -0.009057978
-0.046071935 0.0038542845 0.03060106 0.023550125 -0.025738316 0.01168853 -0.0037557925 0.023071289
-0.0130795315 0.020086296 0.0022048454 0.002194458 0.02369831 0.0018728005 -0.0020026022 0.015463195
-0.01943762 0.024405953 -0.02645544 0.005436556 0.02145365 -0.0065767425 0.0027735583 0.006152721
-0.01222472 0.004488876 -0.013930492 0.015385047 0.012180517 -0.004244479 0.018375942 -0.00733613
-0.0046225027 -0.002381966 0.017240515 -0.004276121 0.026860354 0.031945866 0.00766799 0.0057104137
0.0077172727 -0.005240727 -0.022820907 0.00637744 -0.013637773 -0.009418813 -0.0034603905 -0.0031076744
0.005180237 -0.034459036 0.026904777 -0.008156496 -0.002492954 0.0039618085 0.02197516 -0.0015705393
0.017314028 0.012117876 -0.032341585 -0.027081229 0.012087278 -0.0001565217 0.018353306 0.024208385
0.010146667 0.0018678152 -0.0010256151 0.010308162 -0.05461841 -0.0015730081 -0.0015118116 0.0010480462
0.02778424 0.009522903 1.4290324e-05 -0.002711011 0.01322805 -0.0008266348 0.005001224 0.0017041344
-0.0025622314 0.0005996685 -0.005661929 0.008908393 -0.005364401 0.0020743592 0.022328582 -0.034028333
0.017499441 0.01218055 -0.00026546896 -0.016995758 0.016505279 0.0052596238 0.009257893 0.017827298
0.012083638 0.0064374795 0.0023980318 -0.016960962 0.023319906 0.020810382 -0.00917095 0.004762584
-0.011387444 -0.005505021 0.022975592 0.0021812806 -0.0046544517 -0.002633531 0.013861333 -0.025540983
0.024445469 -0.036013007 -0.01872963 0.017502632 -0.00042680834 -0.025813313 -0.017055737 -0.027368989
-0.0032215847 0.0010517646 0.00047273777 -0.00037496854 0.029100362 -0.00809939 0.0015538501 -0.00096708245
0.0076051885 0.005441037 0.002018247 -0.011365647 -0.0059920126 -0.0019741983 -0.02236927 -0.016615776
-0.0055813035 -0.013979132 0.0087444335 0.0001022724 -0.0023759985 0.0012211446 0.0052316734 0.008352266
-0.00816552 0.02136569 -0.012716568 -0.000852492 0.0025063737 0.008340184 -0.0089299325 0.0030249956
-0.0041259327 -0.013903153 -0.017027436 0.024345718 0.011510408 -0.0064669033 -0.004408046 0.0038260699
0.0019213225 -0.001440515 -0.001319313 -0.0037966392 0.013801471 -0.018261258 -0.015060782 -0.0013100958
-0.0014868362 0.012572646 0.0046566324 0.007568544 0.008980238 -0.020334285 0.0030891357 0.018943135
-0.0055417237 0.00445036 0.0035313168 0.012429001 -0.017658647 0.013211984 0.00032324935 0.0066837748
0.017899126 0.0018353598 0.010852542 -0.033074047 0.0047467165 0.026998576 0.009730755 0.015997693
-0.009798552 -0.038834915 -0.010332954 -0.0069782045 -0.0060372083 -0.0020773169 0.0120284455 0.0023633568
-0.009386482 0.023452172 0.00047419054 0.014126356 -0.010676084 -0.0010502391 -0.00087433844 0.00038435715
-0.011619107 -0.00055690814 0.010626311 -0.0019607411 0.0122234775 0.0195137 0.00058744533 0.03670067
-0.012869516 0.0017497846 0.006832037 0.01808308 0.0054401103 -0.010888401 0.014130449 -0.016416559
-0.030163454 0.025015658 0.008004777 0.021882327 -0.02304591 0.0064993026 -0.006072239 0.0018004368
0.033229355 -0.007886733 -0.0019279686 -0.0037797967 -0.00029042317 -0.0136211105 0.015643867 0.017690603
00000000: adec 1d3d ac15 503c 7dd7 b8bc b606 6d3c
00000010: 0910 eb39 0d7b d03b 8618 31bc 2a5a ba3b
00000020: 513b 413b 9211 d0bb 6d82 5a3c 68aa 1dbb
00000030: fb11 8b3c 31e2 d6ba 0139 81bb ea67 14bc
00000040: edb5 3cbd 2a98 7c3b 13af fa3c 31ec c03c
00000050: 29d9 d2bc 4081 3f3c be23 76bb 0000 bd3c
00000060: 884b 56bc 048c a43c 2b7f 103b e5d0 0f3b
00000070: f522 c23c c278 f53a 173e 03bb 5759 7d3c
00000080: a53b 9fbc feee c73c 14b9 d8bc 2325 b23b
00000090: 91bf af3c b781 d7bb 96c4 353b c49c c93b
000000a0: 314a 48bc 6c17 933b b83c 64bc 9011 7c3c
000000b0: cb90 473c 4515 8bbb 2589 963c eb63 f0bb
000000c0: 5d78 97bb c21a 1cbb fb3b 8d3c b41e 8cbb
000000d0: 3f0a dc3c abd9 023d c343 fb3b 6c1e bb3b
000000e0: 2de1 fc3b 68ba abbb e9f2 babc d8f9 d03b
000000f0: f770 5fbc 5d51 1abc b8c7 62bb 20aa 4bbb
00000100: fabe a93b eb24 0dbd 6867 dc3c d3a2 05bc
00000110: d460 23bb 0fd2 813b 4005 b43c 8eda cdba
00000120: 26d6 8d3c 0e8a 463c 9c78 04bd 74d9 ddbc
00000130: b809 463c f91f 24b9 ac59 963c aa50 c63c
00000140: 353e 263c 7ad1 f43a ef6d 86ba 91e3 283c
00000150: 8eb7 5fbd 652d ceba fb27 c6ba 985e 893a
00000160: c69b e33c f305 1c3c 79c0 6f37 38ab 31bb
00000170: 77ba 583c 86b2 58ba 4fe1 a33b 435d df3a
00000180: 1ceb 27bb 1233 1d3a b487 b9bb 82f4 113c
00000190: dbc7 afbb f9f1 073b 6eea b63c 4b61 0bbd
000001a0: fd5a 8f3c ee90 473c a42e 8bb9 b03a 8bbc
000001b0: 1436 873c ec58 ac3b 6bae 173c 8e0a 923c
000001c0: 74fa 453c 7ef1 d23b 4c28 1d3b b7f1 8abc
000001d0: 6309 bf3c 897a aa3c c141 16bc 730f 9c3b
000001e0: 6792 3abc 7763 b4bb 4f37 bc3c d1f3 0e3b
000001f0: 5f84 98bb 5297 2cbb a51a 633c 533b d1bc
00000200: dd41 c83c 6082 13bd e26e 99bc ae61 8f3c
00000210: 3fc5 dfb9 7176 d3bc 79b8 8bbc ee34 e0bc
00000220: 3921 53bb 5ddb 893a cad9 f739 6d97 c4b9
00000230: e263 ee3c 4eb3 04bc 8faa cb3a ce83 7dba
00000240: f234 f93b ba4a b23b 9144 043b fb36 3abc
00000250: a558 c4bb 8d61 01bb c23f b7bc cf1d 88bc
00000260: 5ee3 b6bb bb08 65bc d044 0f3c 147b d638
00000270: a4b6 1bbb d00e a03a 756e ab3b f1d7 083c
00000280: acc8 05bc 1907 af3c 2759 50bc c579 5fba
00000290: f941 243b 44a5 083c da4e 12bc 013f 463b
000002a0: d532 87bb 0dca 63bc 1f7d 8bbc ac70 c73c
000002b0: 2696 3c3c 51e8 d3bb 5f71 90bb cdbe 7a3b
000002c0: e3d4 fb3a aacf bcba ccec acba 09d1 78bb
000002d0: 911f 623c a298 95bc 80c1 76bc 85b7 abba
000002e0: f2e1 c2ba 80fd 4d3c aa96 983b 8c01 f83b
000002f0: d921 133c 1694 a6bc 1973 4a3b a22e 9b3c
00000300: 5997 b5bb 53d4 913b aa6d 673b 02a3 4b3c
00000310: dea8 90bc 1477 583c cb79 a939 9103 db3b
00000320: 30a1 923c 7590 f03a dcce 313c a778 07bd
00000330: 588a 9b3b 1e2c dd3c bf6d 1f3c 980d 833c
00000340: 1b8a 20bc 5c11 1fbd 8d4b 29bc 6ca9 e4bb
00000350: c6d3 c5bb 9823 08bb f512 453c 8ce2 1a3b
00000360: c2c9 19bc c51e c03c c79c f839 3b72 673c
00000370: beea 2ebc 2da8 89ba dc33 65ba 8b83 c939
00000380: 115e 3ebc 79fd 11ba fb19 2e3c c77f 00bb
00000390: fb44 483c 32db 9f3c cafe 193a 7153 163d
000003a0: aada 52bc 0759 e53a 48df df3b f822 943c
000003b0: f442 b23b 4465 32bc 6683 673c 057c 86bc
000003c0: 5919 f7bc a3ed cc3c 7826 033c 9142 b33c
000003d0: c7ca bcbc 1af8 d43b a2f9 c6bb a2fc eb3a
000003e0: 811b 083d 5b37 01bc e4b3 fcba 77b6 77bb
000003f0: f043 98b9 142b 5fbc 9127 803c e2eb 903c

action_model._continuous_distribution.mu.bias f4 [2]
-0.007093678 -0.006531918
00000000: 1672 e8bb b309 d6bb

action_model._discrete_distribution.branches.0.weight f4 [1, 128]
0.005992914 -0.008029264 -0.0018510846 -0.0017062459 -0.0003622989 0.0018370248 0.008981644 0.002985146
-0.0017014912 0.009272973 0.0003216868 0.016978046 -0.005544112 0.0012273615 -0.0066085034 0.00081553013
-0.0037147924 0.0016142185 0.006365613 0.006592179 0.0013845393 -0.019141145 0.010322693 -0.006641605
-0.0046002995 -0.008763055 0.0019991363 -0.010344303 0.0050909123 0.0060617486 -0.0077228467 -0.0045207036
-0.0035505032 0.010496573 -0.016595237 -0.00778187 0.007734339 -0.00919974 0.008659201 -0.0015999249
0.0060977484 -0.0057963515 -0.003788453 -0.00111368 0.002734197 -0.0070302063 -0.017236635 0.010949367
0.0037134353 0.008116858 -0.0068262727 0.010795517 -0.0006331536 0.0051890356 0.0010657088 0.0069196993
0.004860315 0.004029417 0.025326176 0.0008894992 0.00145558 0.0074861124 -0.027726997 -0.01587051
-0.005622784 -0.0044340687 -0.0032541193 0.007400097 0.0018139336 0.010981615 0.004132279 0.008535856
-0.0053699124 0.007068156 -0.008472349 0.004722604 -0.0008043867 0.012799747 -0.011552071 0.0010198852
-0.007566361 0.016489467 -0.007039845 -0.01422818 -0.013469048 -0.009996043 0.016181858 0.0021367425
-0.009207768 0.0063718446 -0.0032410694 -0.0005335691 -0.004787867 0.005105806 0.003966077 0.0055488325
0.015611266 -0.00554962 0.00020951264 0.011013786 -0.0010266808 -0.0076820436 -0.00655529 -0.006434039
-0.013953375 0.0017163454 0.0010063936 0.0131108165 -0.01694209 0.001332083 0.004643647 -0.012741688
0.007841273 0.012789542 0.016562132 0.014805517 -0.00023669236 0.016495781 -0.0096686995 -0.014879066
0.0014855748 -0.0028666642 0.013141728 0.0028562874 -0.005201302 -0.005037427 0.0045289723 0.015432772
00000000: 3560 c43b 2d8d 03bc 18a0 f2ba 1da4 dfba
00000010: eff2 bdb9 53c8 f03a bf27 133c 70a2 433b
00000020: 9204 dfba abed 173c 12a8 a839 8b15 8b3c
00000030: 62ab b5bb 6bdf a03a 258c d8bb 4dc9 553a
00000040: e073 73bb 2f94 d33a a296 d03b 3503 d83b
00000050: 6e79 b53a e4cd 9cbc 8320 293c d2a1 d9bb
00000060: 1cbe 96bb eb92 0fbc f103 033b 277b 29bc
00000070: abd1 a63b a2a1 c63b ef0f fdbb 6922 94bb
00000080: 8faf 68bb d1f9 2b3c bcf2 87bc 0fff febb
00000090: 5770 fd3b 82ba 16bc 52df 0d3c 92b4 d1ba
000000a0: 9fcf c73b 52ef bdbb b247 78bb e6f8 91ba
000000b0: 3730 333b a55d e6bb d833 8dbc f964 333c
000000c0: 1b5d 733b 92fc 043c edae dfbb aedf 303c
000000d0: 38fa 25ba c908 aa3b 41af 8b3a a5be e23b
000000e0: 4743 9f3b 3309 843b d778 cf3c 482d 693a
000000f0: 29c9 be3a 104e f53b ba23 e3bc df02 82bc
00000100: 553f b8bb aa4b 91bb 1043 55bb 837c f23b
00000110: 83c1 ed3a 3bec 333c 1268 873b fad9 0b3c
00000120: 17f6 afbb fd9b e73b 9bcf 0abc 13c0 9a3b
00000130: 7add 52ba 08b6 513c e644 3dbc abad 853a
00000140: 3def f7bb eb14 873c 80ae e6bb 501d 69bc
00000150: 48ad 5cbc 71c6 23bc d18f 843c 9708 0c3b
00000160: 2edc 16bc e8ca d03b 1f68 54bb 37df 0bba
00000170: 8ae3 9cbb 9b4e a73b def5 813b fbd2 b53b
00000180: 65c6 7f3c 96d9 b5bb 9fb0 5b39 2b73 343c
00000190: b191 86ba a7b9 fbbb c2cd d6bb a2d4 d2bb
000001a0: b29c 64bc fff6 e03a f7e8 833a c0ce 563c
000001b0: 23ca 8abc 4a99 ae3a bc29 983b 83c2 50bc
000001c0: af78 003c 3a8b 513c 4fad 873c d792 723c
000001d0: 9f30 78b9 2922 873c 7769 1ebc 53c7 73bc
000001e0: 9eb7 c23a a5de 3bbb 6750 573c 8d30 3b3b
000001f0: af6f aabb 0011 a5bb c667 943b bdd9 7c3c
