Shooter2Agents1EnvPlaybale/Assets/Models/NewModels/collectManyCubes.onnx (onnx, 79278 bytes, 8 tensors)

network_body._body_endoder.seq_layers.0.weight f4 [128, 8]
0	0x3e80d701	0.25164035
1	0xbf0e0cde	-0.55488384
2	0xbdd060d4	-0.101747185
3	0x3cdf4a5a	0.027257133
4	0x3d179049	0.037002835
5	0x3e802eb9	0.25035647
6	0xbe671f60	-0.22570562
7	0x3e3cf892	0.18454197
8	0x3dae84a6	0.085213944
9	0x3f929bf6	1.1453846
10	0xbc993b77	-0.018705113
11	0x3e1d2abc	0.15348333
12	0xbedb4bbd	-0.4283122
13	0x3e06a4ef	0.13148855
14	0x3ea043bd	0.3130168
15	0x3eced32f	0.40395495
16	0xbe78d869	-0.24301304
17	0x3eb1aed1	0.34703687
18	0x3cb250c5	0.02176703
19	0x3da511be	0.08060025
20	0x3eb0dc33	0.34543
21	0x3e761d62	0.24034646
22	0x3ef42710	0.47686052
23	0x3ea77d55	0.32712808
24	0xbe8ad75e	-0.27117437
25	0x3ea88431	0.32913354
26	0x3cd4d489	0.02598025
27	0xbf23eb11	-0.6403056
28	0x3eeef797	0.4667327
29	0x3e0dc16e	0.13843319
30	0x3d85ffbc	0.06542918
31	0x3f29120a	0.6604315
32	0xbd9602e6	-0.073247716
33	0xbc1c1d4b	-0.009528468
34	0xbef6537e	-0.48110574
35	0x3cbedd8a	0.023298997
36	0xbe3738c6	-0.17892751
37	0xbf0e5a4f	-0.5560655
38	0xbd1182a8	-0.035524994
39	0x3e37dfc2	0.1795645
40	0xbf488d1c	-0.78340316
41	0xbf23aedd	-0.63938695
42	0x3ecc4e4f	0.39903495
43	0xbef037b7	-0.46917507
44	0x3ccd4ff4	0.025062539
45	0xbe301fef	-0.17199682
46	0xbec28c83	-0.37997827
47	0x3ec1d6d7	0.37859222
48	0x3e8af6dc	0.27141464
49	0x3c45c773	0.012071478
50	0x3e727927	0.23679028
51	0x3de15094	0.11001697
52	0xbf1c26be	-0.60996616
53	0xbd8ee46e	-0.06977163
54	0x3f1ffdbe	0.62496555
55	0xbdc6f618	-0.097149074
56	0xbf3e696d	-0.74379617
57	0xbd9a94af	-0.075478904
58	0x3c110cac	0.008853119
59	0x3e97d242	0.296526
60	0x3dfeaced	0.12435327
61	0xbe847599	-0.2587097
62	0xbef5ab27	-0.4798214
63	0x3cebe2ea	0.028794724
64	0xbe9b8da0	-0.3038149
65	0x3f7471c5	0.954861
66	0x3d9f493e	0.07777642
67	0x3e2aeee6	0.16692695
68	0xbe80bb7d	-0.25143042
69	0xbeaa553f	-0.33268163
70	0xbea5d81a	-0.32391435
71	0xbe46b09f	-0.19403313
72	0x3d2018d3	0.039086174
73	0xbdf513c1	-0.119666584
74	0x3ea63368	0.32461095
75	0x3d35ff0a	0.044432677
76	0xbdd4a5f1	-0.10383213
77	0xbeaf33de	-0.3421926
78	0x3ebc8241	0.36818126
79	0x3e3e16dc	0.18563408
80	0x3e3b6fb3	0.18304329
81	0xbe080b59	-0.13285579
82	0x3c886913	0.016651666
83	0xbd169261	-0.03676069
84	0x3f483ccd	0.78217775
85	0x3e029b38	0.12754524
86	0x3f17954f	0.592122
87	0x3e560113	0.20898847
88	0x3e90fb82	0.28316885
89	0xbd389db8	-0.045072287
90	0x3ca31c4c	0.019910954
91	0x3da25234	0.07925835
92	0xbe7fd8a2	-0.24984983
93	0x3f5cdb8c	0.862725
94	0xbe5ce0bc	-0.21570104
95	0x3dfb2d05	0.12264446
96	0x3d80b105	0.06283764
97	0xbec866d1	-0.39140943
98	0xbee48acf	-0.44637153
99	0xbf4fec08	-0.8121953
100	0xbed2cf41	-0.41173747
101	0xbca42a1c	-0.02003961
102	0xbf1b2549	-0.6060377
103	0x3f0c533f	0.54814523
104	0xbe34c6dc	-0.17653984
105	0x3de325fe	0.11091231
106	0x3f095d15	0.53657657
107	0x3e5c59d3	0.2151864
108	0x3d14a167	0.036286738
109	0xbec7c790	-0.39019442
110	0xbe9c4dab	-0.30528006
111	0xbe95ac15	-0.2923285
112	0x3debbccd	0.1151062
113	0xbe009809	-0.12557997
114	0x3eeec6e6	0.46636122
115	0x3ec8d394	0.3922392
116	0xbf0e2c6d	-0.5553654
117	0x3dd45351	0.10367454
118	0x3e41f989	0.18942846
119	0x3eb2aca0	0.34897327
120	0xbf0eecc1	-0.5583001
121	0x3e025817	0.12728916
122	0x3df85cbc	0.12127063
123	0x3ed1e55c	0.409953
124	0x3f294fe7	0.66137546
125	0x3da63788	0.081160605
126	0x3ea2e6fd	0.31816855
127	0xbdedf3a2	-0.11618735
128	0xbef0b308	-0.4701159
129	0x3ce1a29b	0.027543357
130	0x3c467108	0.01211191
131	0xbe1ee3a2	-0.15516523
132	0x3eb4ac6c	0.35287797
133	0xbeb508fa	-0.3535841
134	0x3e56a50e	0.20961401
135	0xbed4eecc	-0.41588438
136	0x3e4013c4	0.1875754
137	0xbe38be6c	-0.1804139
138	0x3e53b43f	0.20674227
139	0x3eff4c2d	0.49862805
140	0x3e89639e	0.26833814
141	0x3e9896d4	0.29802573
142	0x3e44e52b	0.19228046
143	0xbebceadf	-0.36897942
144	0xbe28d95e	-0.16489169
145	0x3ee46b2f	0.44613025
146	0x3f0b8701	0.54502875
147	0x3e7fbe5e	0.24974963
148	0x3e8cc2f2	0.2749248
149	0xbef88079	-0.48535517
150	0xbf07cc7b	-0.5304639
151	0x3e9453b2	0.28970104
152	0xbe67fca3	-0.22654967
153	0xbed362d7	-0.41286346
154	0x3d0d4331	0.034487907
155	0x3b40c577	0.0029414573
156	0xbe465704	-0.19369131
157	0x3e8b7ddb	0.27244458
158	0x3e2641d1	0.16236044
159	0xbe9ed2b5	-0.31020132
160	0x3e8587a9	0.26080063
161	0xbe804aa5	-0.2505695
162	0xbd6f7dd1	-0.058469597
163	0xbeaf1d51	-0.34202054
164	0x3e4b4581	0.19850732
165	0x3f1bb7e4	0.6082747
166	0x3f110330	0.5664549
167	0xbf25251b	-0.64509743
168	0xbf3424b5	-0.7036851
169	0xbf1e4131	-0.61818224
170	0x3e981f23	0.29711255
171	0x3e8f01f1	0.2793117
172	0xbdf784e4	-0.12085894
173	0x3ec87e01	0.39158633
174	0xbf1d68ac	-0.6148784
175	0x3e1ac16c	0.15112847
176	0xbf25cdb2	-0.6476699
177	0xbec9e495	-0.39432207
178	0xbf5c0840	-0.8595009
179	0xbdde4997	-0.1085388
180	0x3e042528	0.12904799
181	0xbdc7d235	-0.09756891
182	0x3e10d2e8	0.14142954
183	0xbe9aa07a	-0.3020056
184	0x3f0e74fe	0.55647266
185	0x3d5da89d	0.05411588
186	0xbd3aac7d	-0.045574654
187	0xbe4c902b	-0.1997687
188	0x3db9fe0e	0.0908166
189	0xbf15aec7	-0.58469814
190	0xbd43698c	-0.04770808
191	0xbd90ba64	-0.07066801
192	0x3d2f2c04	0.042766586
193	0x3d91916b	0.071078144
194	0xbd058183	-0.032594215
195	0x3f02bb2b	0.51066846
196	0x3e84e69c	0.2595719
197	0xbdc875c1	-0.09788085
198	0xbf4a3d23	-0.7899954
199	0xbd99906c	-0.074982494
200	0xbe84f75b	-0.25969967
201	0x3d1915e5	0.037374396
202	0x3e3076d9	0.17232837
203	0x3f2438a5	0.6414893
204	0x3eb2c473	0.34915504
205	0x3d1ff204	0.039049163
206	0xbe33976e	-0.17538235
207	0x3e257df6	0.16161332
208	0xbf2a9000	-0.66625977
209	0xbf11a936	-0.5689882
210	0xbed9b1f1	-0.4251857
211	0xbe99ed27	-0.30063745
212	0xbef8f806	-0.48626727
213	0xbe1fddc5	-0.15611942
214	0x3ebb1497	0.36539146
215	0x3e899caf	0.26877353
216	0xbebc57af	-0.36785647
217	0x3ee4035d	0.44533816
218	0x3ea36c09	0.31918362
219	0x3e8f08e8	0.27936482
220	0x3d2a7f9c	0.041625604
221	0x3ecfc4f7	0.4057996
222	0xbe60c8e2	-0.2195163
223	0xbe6a0c17	-0.22856174
224	0x3da23fa7	0.07922297
225	0x3d733836	0.05937978
226	0xbd911408	-0.07083899
227	0x3e1ed819	0.15512122
228	0xbf80dfd2	-1.0068305
229	0x3ca6f570	0.020380706
230	0xba9789c3	-0.0011561442
231	0x3d9f0485	0.07764534
232	0x3db220e2	0.08697678
233	0x3d72a1c7	0.059236314
234	0xbea667ca	-0.3250106
235	0x3e36c0af	0.1784694
236	0x3d304748	0.04303673
237	0x3f4fc020	0.81152534
238	0x3f31aba1	0.6940251
239	0xbe069748	-0.13143647
240	0x3dd47504	0.103738815
241	0x3e8edb14	0.27901518
242	0xbf14d6b6	-0.5814012
243	0x3e06d5dc	0.13167518
244	0x3f2724d7	0.6529059
245	0xbed0de87	-0.40794775
246	0x3e6bd843	0.23031716
247	0xbde94733	-0.11390533
248	0x3d49f6dd	0.049307693
249	0x3d0a7fcc	0.033813283
250	0x3e0d6ee5	0.13811834
251	0x3e7ae53c	0.24501508
252	0x3df3fdc9	0.1191364
253	0x3e2d820f	0.16944145
254	0xbe8abec1	-0.2709866
255	0xbe4035fb	-0.18770592

network_body._body_endoder.seq_layers.0.bias f4 [128]
0	0x3c927de9	0.017882304
1	0x3d56266f	0.052282747
2	0x3d2c96df	0.04213607
3	0x3cb30c73	0.021856522
4	0x3cbeb5b3	0.02328
5	0x3bce5028	0.0062961765
6	0xbda2b7f5	-0.07945243
7	0xb9fdc45c	-0.0004840222
8	0x3d2220b1	0.03958196
9	0x3cc39372	0.023874018
10	0x3d324eaf	0.04353207
11	0x3d39ff90	0.04540974
12	0x3b2e16b7	0.0026563832
13	0xbc9b248c	-0.018938325
14	0xbcf436e4	-0.02981133
15	0x3d0101f0	0.03149599
16	0x3c9108a3	0.017704314
17	0xbd21e517	-0.039525118
18	0x3c978ae3	0.018498844
19	0xb99232e8	-0.00027885218
20	0xbbe3d647	-0.006953034
21	0xbd1b5ccb	-0.03793029
22	0x3c81316a	0.015770633
23	0xbcf41a79	-0.02979778
24	0x3c911c7e	0.017713781
25	0x3d25a7f4	0.040443376
26	0xbb52050e	-0.003204647
27	0x3c67c2d0	0.014145568
28	0xbd10f94c	-0.035393998
29	0x3b15a1c2	0.002283201
30	0x3c591df7	0.013251773
31	0xbb830b51	-0.0039991518
32	0x3cd9d325	0.02658994
33	0x3c892bf9	0.0167446
34	0x3d3f208c	0.0466619
35	0xbca7710f	-0.020439653
36	0x3b5fefa4	0.0034169937
37	0xbc908538	-0.017641649
38	0xbb1ec7fb	-0.0024228084
39	0x3c9791f6	0.018502217
40	0x3a471b16	0.00075952837
41	0x3c2f3d3d	0.010695753
42	0xbbf0b6e7	-0.0073460224
43	0x3ccc7981	0.024960281
44	0x3cfd1263	0.030892557
45	0x3d1d3c66	0.03838768
46	0x3ccafd07	0.024778856
47	0xbc545a67	-0.012961007
48	0x3c86be3a	0.016448129
49	0x3ab27260	0.0013614409
50	0x3bbc0efa	0.00573909
51	0x3c429119	0.011875414
52	0xbbc324fe	-0.0059553375
53	0x3cfb807c	0.030700915
54	0x3c38ec62	0.011286827
55	0x3d239b42	0.039942987
56	0x3c7d3ec1	0.015456856
57	0x3c6e8993	0.014559167
58	0x3cb642b6	0.022248607
59	0x3c7d8ca7	0.015475429
60	0xbbd346f7	-0.0064476687
61	0x3c65002d	0.013977093
62	0x3d05d32b	0.03267209
63	0xbb3a68e3	-0.0028443865
64	0xbb5f613f	-0.0034085063
65	0x3cc30566	0.023806285
66	0xbb7645b0	-0.0037578158
67	0xbb90e5de	-0.0044219336
68	0xb9bf455f	-0.00036482044
69	0xbb80f81e	-0.003935828
70	0x3bcae05e	0.0061912974
71	0x3c26f04e	0.010189129
72	0x3cbe019e	0.02319413
73	0x3d0e849a	0.034794427
74	0xbd490bcd	-0.04908352
75	0xbc88d35d	-0.016702348
76	0x3b387e8b	0.0028151597
77	0x3b8485ca	0.004044269
78	0xbd52e17c	-0.05148457
79	0x3b43e006	0.0029888167
80	0x3ba9324b	0.005163466
81	0x3b6936bd	0.0035585605
82	0x3ba21ec8	0.004947517
83	0xbbdc92e2	-0.006731377
84	0x3d128760	0.035773635
85	0x3d5ee9c9	0.054422174
86	0x3c70cf62	0.014697881
87	0xbbd74eea	-0.0065706866
88	0x3d00de31	0.0314619
89	0xbd33e651	-0.04392082
90	0xbc6312f0	-0.0138594955
91	0x3d4ba4a6	0.049717568
92	0x3d1a24c4	0.03763272
93	0x3cf0f6b9	0.029414522
94	0x3ca21a14	0.019787826
95	0x3d18f148	0.03733948
96	0x390bc1a7	0.00013328214
97	0x3d45ea17	0.04831895
98	0x3d5715ad	0.052510906
99	0x3c59d2f5	0.013294925
100	0xba13395c	-0.0005616152
101	0x3d448a5a	0.047983505
102	0x3c3ae4ed	0.011407119
103	0xbcc35c0e	-0.023847606
104	0x3ca5ed4d	0.020254755
105	0xbca06cdb	-0.019583156
106	0xbd569bbe	-0.05239462
107	0x3c15020b	0.009094725
108	0xbc316bf4	-0.010828961
109	0xbc022a18	-0.007944606
110	0xbaae3fd0	-0.0013294164
111	0x3bef3d24	0.0073009897
112	0x3b5f018e	0.0034028026
113	0x3cac8324	0.021058626
114	0x3d16f35c	0.03685318
115	0x3b07d389	0.002072545
116	0x3cba9e0d	0.022780443
117	0xbd265b87	-0.04061463
118	0x3c6e0f73	0.014530051
119	0xbbb309eb	-0.005463829
120	0x3cb08918	0.021549746
121	0x3d6fd359	0.058551166
122	0xbc966da0	-0.01836282
123	0x3d9f9177	0.07791417
124	0xbc9f09af	-0.019413797
125	0x3d3a5a91	0.045496527
126	0x3cbb8c92	0.022894178
127	0xbd04d421	-0.032428864

network_body._body_endoder.seq_layers.2.weight f4 [128, 128]
0	0x3cdc3a93	0.0268834
1	0x3dd0fb71	0.10204209
2	0xbe19ddb9	-0.15025987
3	0xbdb629ef	-0.08894717
4	0xbd86fced	-0.065912105
5	0x3d1f9089	0.0389562
6	0xbe88223b	-0.26588616
7	0x3da543ee	0.08069597
8	0xbdcf5106	-0.10122876
9	0x3c1745ec	0.009232979
10	0xbd6f4b9e	-0.058421724
11	0x3bf4452d	0.0074545355
12	0xbbed9813	-0.0072507947
13	0xbd0a514b	-0.033768933
14	0x3ca7705d	0.020439321
15	0xbda60a4d	-0.081074335
16	0x3d878ea2	0.06619002
17	0xbd3d1ac4	-0.046168104
18	0x3da5eeb3	0.08102169
19	0x3dec2e1a	0.11532231
20	0x3e0434ae	0.1291072
21	0x3e0a2e35	0.13494189
22	0x3d09f188	0.033677608
23	0xbd9aa6f0	-0.07551372
24	0xbdb62934	-0.088945776
25	0x3dbb0ecc	0.09133682
26	0xbe25b245	-0.16181286
27	0xbe28e627	-0.16494046
28	0x3d469f94	0.04849203
29	0xbdafbeb3	-0.08581295
30	0xbd2cc785	-0.042182464
31	0xbcd2b724	-0.025722094
32	0x3d91ba74	0.07115641
33	0xbcf8e8d9	-0.030384468
34	0x3d9dd1af	0.077060096
35	0xbc27aaeb	-0.010233621
36	0xb9257434	-0.00015778915
37	0x3d3c5e10	0.045988142
38	0xbc422d15	-0.011851569
39	0x3c247d94	0.010039706
40	0xbdfb1274	-0.12259379
41	0xbd9d6dde	-0.07686971
42	0x3dba581a	0.09098835
43	0x3d11ef38	0.035628527
44	0xbd6262d4	-0.05527003
45	0xbe4e5bd6	-0.2015222
46	0x3d8a3f90	0.06750405
47	0x3d18ae5a	0.03727565
48	0x3d584ee0	0.052809596
49	0xbdc78ada	-0.09743281
50	0x3dc2b1e6	0.09506588
51	0xbe0337be	-0.12814233
52	0x3e014d5f	0.12627171
53	0xbd193d26	-0.03741183
54	0xbd4eed05	-0.05051901
55	0xbd884ee0	-0.06655669
56	0x3d9209a6	0.071307465
57	0x3dd35c32	0.10320319
58	0xbd5b0f6e	-0.05348151
59	0xbe1cd0c5	-0.15314014
60	0xbdf7aee9	-0.12093908
61	0xbca1e0c3	-0.019760495
62	0x3d354e52	0.044264145
63	0x3d1d6a5d	0.038431514
64	0x3d3cb82a	0.04607407
65	0x3dd15d44	0.10222867
66	0x3d8c237d	0.06842706
67	0x3d128706	0.0357733
68	0x3c8b54e5	0.017008254
69	0x3cbced12	0.023062263
70	0x3dd52370	0.1040715
71	0x3d0b9522	0.03407777
72	0xbe22db44	-0.15903956
73	0xbe336bf5	-0.17521651
74	0x3e07fb45	0.13279445
75	0x3dc195c4	0.09452394
76	0xbd00215e	-0.03128182
77	0x3d6d6e87	0.057966735
78	0xbc07acd7	-0.008280954
79	0xbe460d82	-0.1934109
80	0x3e369056	0.17828497
81	0x3d591f53	0.05300839
82	0xbd5b4e2a	-0.05354134
83	0x3d1868a6	0.037209176
84	0xbde724fa	-0.112863496
85	0x3d6c013c	0.057618365
86	0xbd87b4bc	-0.06626269
87	0x3c6bd3e2	0.0143937785
88	0xbc4a35e3	-0.012341949
89	0x3db88736	0.090101644
90	0x3d8e1273	0.06937113
91	0x3b7acbe9	0.0038268513
92	0xbd1cdec6	-0.03829839
93	0x3cefdacc	0.029279135
94	0x3e03b478	0.12861812
95	0xbe024c9a	-0.12724534
96	0xbb9916e1	-0.004671917
97	0x3cf464f7	0.0298333
98	0x3d14d932	0.036339946
99	0x3b61093d	0.0034337782
100	0x3d8584cd	0.0651947
101	0xbda807ba	-0.08204599
102	0x3c6d49bf	0.0144829145
103	0xbe0d22d0	-0.13782811
104	0xbb994c4c	-0.0046782847
105	0xbcdccf34	-0.02695427
106	0xbdfa17e0	-0.12211585
107	0xbde571eb	-0.11203369
108	0x3d54ce46	0.05195453
109	0xbb786127	-0.0037899704
110	0xbc8133c5	-0.015771756
111	0x3ce26871	0.027637692
112	0xbcc884d3	-0.024477398
113	0xbd87693f	-0.06611871
114	0x3d870af1	0.06593884
115	0xba1e55e5	-0.0006040021
116	0x3d7c30de	0.06157004
117	0xbca21f8c	-0.019790433
118	0x3d98f156	0.07467906
119	0x3d176675	0.036962945
120	0x3e7e7726	0.24850139
121	0xbe207c19	-0.1567234
122	0x3c928247	0.017884387
123	0xbe43fd92	-0.19139698
124	0x3d53e381	0.051730637
125	0xbdc20477	-0.09473508
126	0xbc62bb7e	-0.013838647
127	0x3d0ef41a	0.034900762
128	0xbddc40c4	-0.107545406
129	0x3d8ef382	0.06980039
130	0x3de062ea	0.10956366
131	0x3c519139	0.012790971
132	0x3dcd08dc	0.100114554
133	0x3e7218ae	0.23642227
134	0x3de3c40e	0.11121379
135	0x3d2ec63e	0.042669527
136	0x3dec4218	0.11536044
137	0x3e247000	0.1605835
138	0x3d950449	0.07276208
139	0xbc9df696	-0.01928262
140	0xbe446b44	-0.19181544
141	0xbc44f79b	-0.012021924
142	0xbd66c657	-0.056341495
143	0xbb9589cd	-0.0045635463
144	0x3d3a521a	0.045488454
145	0xbd85566b	-0.065106235
146	0x3ca0eec0	0.019645095
147	0x3da913e2	0.082557455
148	0xbd0c7974	-0.034295514
149	0xbd004e54	-0.0313247
150	0x3d868f7f	0.065703385
151	0x3d1d30f5	0.038376767
152	0x3da7f553	0.08201089
153	0x3da9f171	0.082980044
154	0x3d525e50	0.051359475
155	0x3e2a6afc	0.16642374
156	0x3d1095ff	0.035299297
157	0x3d91a57b	0.07111641
158	0xbdca296c	-0.09871182
159	0xbc5f4697	-0.01362767
160	0x3d50946c	0.050922796
161	0xbdd8c635	-0.1058468
162	0xbde6ad19	-0.112634845
163	0xbca52f82	-0.020164255
164	0xbda533c9	-0.08066518
165	0x3ab60197	0.0013885972
166	0xbd2d88ea	-0.0423669
167	0x3dbb8260	0.091557264
168	0xbdb4e373	-0.08832445
169	0x3d6b0ecc	0.05738716
170	0xbdf6e165	-0.12054709
171	0x3d31d7ac	0.04341857
172	0x3d62a750	0.055335343
173	0x3dce86ef	0.1008433
174	0xbcf37d33	-0.029722786
175	0xbd490733	-0.04907913
176	0x3d8ca615	0.06867615
177	0x3deb0269	0.11475069
178	0x3cf8e3b7	0.03038202
179	0x3d8af9d6	0.06785934
180	0x3dae8541	0.0852151
181	0xbde3490d	-0.11097918
182	0xbd7f6fcf	-0.06236249
183	0x3d673852	0.056450196
184	0x3cb0c73b	0.021579375
185	0x3e3d39d8	0.18479097
186	0x3dfe8201	0.1242714
187	0x3dca17d4	0.09867826
188	0x3e59f8b1	0.21286274
189	0x3e1489f2	0.14505747
190	0x3c0487ac	0.008088987
191	0xbd1683ee	-0.03674691
192	0x3d3d6daf	0.04624718
193	0x3d907b2c	0.07054743
194	0xbe507a0d	-0.20359059
195	0x3c0d8cc6	0.00863952
196	0x3d150a2c	0.036386654
197	0xbe4c2f53	-0.19939928
198	0x3d6a902a	0.05726639
199	0x3db010eb	0.08596977
200	0x3dd54d12	0.104150906
201	0x3e1b3418	0.15156591
202	0xbd9b5262	-0.07584073
203	0xbd3567e2	-0.044288523
204	0x3d093886	0.03350117
205	0xbd2a838d	-0.041629363
206	0x3cdedc9c	0.027204804
207	0xbd113952	-0.035455056
208	0x3e28194f	0.16415904
209	0x3bd416e5	0.006472456
210	0x3da62523	0.08112552
211	0x3cb4bfa2	0.022064034
212	0xbd28224a	-0.041048326
213	0x3e0eb7d8	0.13937318
214	0x3d7b4549	0.061345372
215	0x3d663ae1	0.056208495
216	0xbd466b6e	-0.048442297
217	0x3dfe42f3	0.12415113
218	0x3dcad7d2	0.09904446
219	0x3e4bc5dc	0.19899696
220	0xbe0185e9	-0.12648739
221	0x3d743439	0.059620116
222	0x3d4ab650	0.049490273
223	0x3d584902	0.052804
224	0xbe202d1a	-0.15642205
225	0xbe9bd20a	-0.30433685
226	0x3d91ca10	0.071186185
227	0x3df60b05	0.120138206
228	0xbde66c4c	-0.11251125
229	0x3c6d3861	0.014478774
230	0xbd875a4e	-0.06609021
231	0xbdb2eef9	-0.08736987
232	0x3d59314d	0.053025533
233	0x3db16e85	0.08663658
234	0xbc987882	-0.01861215
235	0x3e373827	0.17892514
236	0xbc193032	-0.00934987
237	0xbe36f1fe	-0.1786575
238	0xbcfbc17e	-0.030731913
239	0xbda53599	-0.080668636
240	0x3dc593f4	0.096473604
241	0x3d8baf2f	0.06820523
242	0xbdaec5e8	-0.08533841
243	0xbd022e44	-0.031782404
244	0x3d24e9f5	0.04026218
245	0x3e116913	0.14200239
246	0xbd8b4666	-0.06800537
247	0xbdb83c61	-0.08995891
248	0x3cee7f22	0.029113356
249	0x3e06f2bb	0.13178532
250	0xbd900b85	-0.07033447
251	0xbdfca15c	-0.12335464
252	0xbd0e8885	-0.034798164
253	0x3dd5165e	0.10404657
254	0xbc6649a9	-0.014055648
255	0xbd84d235	-0.06485406

network_body._body_endoder.seq_layers.2.bias f4 [128]
0	0xbc997224	-0.018731184
1	0x3d7a52b0	0.061114013
2	0x3c67a8f9	0.014139407
3	0x3bf6c3dd	0.007530673
4	0xbc8fdf91	-0.01756266
5	0xbd0e419e	-0.034730546
6	0x3bec253d	0.0072065876
7	0x3cfdb7a9	0.030971365
8	0x3bcf0197	0.006317328
9	0xbbc6b4d4	-0.006064037
10	0x3cdc2078	0.026870951
11	0x3bf3e7d1	0.007443406
12	0x3cce4560	0.025179565
13	0x3cd5e235	0.02610884
14	0xbbb1ad69	-0.0054222834
15	0x3d3b9364	0.04579486
16	0x3d2b8fc4	0.041885152
17	0x3c70d06d	0.01469813
18	0x3ca973e3	0.020685142
19	0x3c9e45be	0.019320365
20	0xbd10927b	-0.035295945
21	0x3ba360cc	0.0049859043
22	0xbbf530e7	-0.0074826363
23	0x3d1eed3d	0.038800467
24	0x3cc199ac	0.023632847
25	0x3d02f028	0.031967312
26	0x3bacf543	0.005278261
27	0xbc42afcf	-0.011882736
28	0x3d4c10e8	0.04982081
29	0x3bfee8a9	0.0077792
30	0x3d46756d	0.04845183
31	0x3d5dadfb	0.054121
32	0x3a23055b	0.00062187546
33	0x3c1b0fd0	0.009464219
34	0x3c846a2a	0.016163904
35	0x3c9fffed	0.019531215
36	0x3ccce29b	0.025010398
37	0x3b38c3cc	0.0028192876
38	0x3d22a70e	0.039710097
39	0x3c07668a	0.008264193
40	0xbbf8f94d	-0.0075980783
41	0xbbecb3c4	-0.007223578
42	0x3cd0256e	0.025408473
43	0xba59c567	-0.00083073083
44	0x3b923a7a	0.0044625374
45	0x3c09f55f	0.008420317
46	0x3c9e49fc	0.019322388
47	0x3ab4b1e0	0.0013785921
48	0xbcc16a39	-0.023610221
49	0xbbc20615	-0.005921135
50	0xbb61cfe0	-0.0034456179
51	0x3d184cfc	0.037182793
52	0x3b78857a	0.0037921355
53	0x3d919129	0.07107765
54	0x3ae7e4b2	0.0017692058
55	0x3cbe17a7	0.023204638
56	0x3cedeeb4	0.029044487
57	0x3c0d6f7f	0.00863254
58	0x3d173c1a	0.03692255
59	0x3c575892	0.013143675
60	0x3c61465e	0.013749687
61	0xba96e0e9	-0.001151112
62	0xbcc14b03	-0.023595339
63	0x3ca533e5	0.020166347
64	0xbc8be1e6	-0.01707549
65	0x3cc1742c	0.023614965
66	0x3ca85a27	0.0205508
67	0x3c66fa66	0.014097786
68	0xbc369440	-0.011143744
69	0xb9a1f258	-0.00030888873
70	0xbc4348ab	-0.011919181
71	0x398f9617	0.0002738691
72	0x3ba0c28c	0.0049060043
73	0x3d076138	0.0330517
74	0xbd55a44e	-0.052158646
75	0xbcaf6c17	-0.021413846
76	0x3cdee913	0.027210748
77	0x3b788b85	0.0037924957
78	0x3b92386a	0.0044622915
79	0x3d06ccc7	0.032910135
80	0xbc4f37ea	-0.012647608
81	0xbc47cfcc	-0.012195539
82	0x3ce83c61	0.028349103
83	0x3c3227a5	0.01087371
84	0x3b9b1b12	0.0047334516
85	0xbc5135ff	-0.012769221
86	0xbca8fe9a	-0.020629216
87	0x3c0f86dc	0.00876018
88	0x3cbfab04	0.023396976
89	0x3ca78772	0.020450328
90	0x3c693b52	0.0142353345
91	0x3d049396	0.03236731
92	0x3d18993b	0.037255507
93	0x3d2f145e	0.042744033
94	0x3c934d80	0.01798129
95	0x3cabb269	0.020959096
96	0xbc38f867	-0.0112896925
97	0x3c944244	0.018098004
98	0xbb6998f7	-0.0035644153
99	0x3d1105bf	0.03540587
100	0x3d11cf74	0.035598233
101	0x3d88bda3	0.06676795
102	0x3c7066dc	0.014672961
103	0xbba4e0d8	-0.0050316863
104	0x3cc3d267	0.023904039
105	0x3b86744a	0.004103218
106	0x3c936a4a	0.017995019
107	0x3cf5228a	0.029923696
108	0xbb8fa5c3	-0.004383774
109	0x3c5098ca	0.01273174
110	0x3cbcc262	0.023041908
111	0x3c14def0	0.009086356
112	0x3b6139b5	0.0034366671
113	0x3c2dfc5b	0.010619248
114	0x3bf06b7e	0.007337033
115	0x3ca2da8f	0.019879607
116	0x3ca56203	0.020188337
117	0x3cd3a3b1	0.02583489
118	0xbc6c8a8a	-0.014437327
119	0x3d172e2a	0.03690926
120	0x3b3d4da7	0.0028885396
121	0x3b1b251b	0.002367324
122	0xbc86ae02	-0.016440395
123	0xbb12dac0	-0.0022408217
124	0x3aa72708	0.0012752721
125	0x3c988e03	0.018622404
126	0xbbe5563d	-0.006998806
127	0x3cf03c2b	0.029325565

action_model._continuous_distribution.log_sigma f4 [1, 2]
0	0xbdb4f70f	-0.08836185
1	0xbd7be727	-0.06149974

action_model._continuous_distribution.mu.weight f4 [2, 128]
0	0x3d14fcde	0.036373965
1	0xbd932f36	-0.07186739
2	0x3ce3d628	0.027812079
3	0x3b2f8d4a	0.0026787096
4	0xbca7fa1c	-0.020505004
5	0x3ccd5ec8	0.02506961
6	0x3d216714	0.039404944
7	0xbcb3e34e	-0.021958973
8	0x3a9bdec6	0.0011891953
9	0xbbc9c464	-0.006157445
10	0xbcb7d8bc	-0.022442214
11	0x3d531277	0.05153128
12	0xbd0adf4f	-0.03390437
13	0xbc0578f8	-0.008146517
14	0xbbee3fef	-0.007270805
15	0xbcbefdb4	-0.023314334
16	0xbcc6b75b	-0.024257353
17	0x3d8dd603	0.06925585
18	0xbc973eba	-0.018462528
19	0xbc26e1ab	-0.010185639
20	0x3d055b2a	0.032557644
21	0x3d1c6bef	0.03818887
22	0xbc2a8fc5	-0.010410254
23	0xbceeb4e1	-0.029138984
24	0xbd0512ae	-0.032488517
25	0xbd2ca023	-0.042144906
26	0xbb9235a7	-0.0044619623
27	0x3d3fa313	0.04678638
28	0x3c1c3c5b	0.009535874
29	0x3cf57b52	0.02996603
30	0xbbe2d589	-0.006922428
31	0xbd9046c8	-0.070447505
32	0x3d12b9e3	0.035821807
33	0xbcb03dc0	-0.02151382
34	0x3c300dcc	0.010745477
35	0x3cd7ecb6	0.02635799
36	0xbd3e8e71	-0.04652256
37	0xbc3e8074	-0.011627305
38	0x3c7732bd	0.015087781
39	0xbd13f841	-0.036125425
40	0xbade9607	-0.0016981967
41	0x3cfed009	0.031105058
42	0xbd3bdb72	-0.045863576
43	0x3cc04cdb	0.023474148
44	0x3cb57dd1	0.02215472
45	0xbceae6cd	-0.028674508
46	0xbcecb2d9	-0.028893875
47	0x3d246e53	0.040144276
48	0xbc87ac95	-0.016561786
49	0x3c884153	0.016632712
50	0xbc42ccf0	-0.011889681
51	0xbd89d6d6	-0.0673043
52	0x3d049cd4	0.032376125
53	0xbd324367	-0.04352131
54	0x3d479962	0.04873026
55	0x3d4a4299	0.04937992
56	0xbd859646	-0.06522803
57	0x3d279b8e	0.040919833
58	0xbd359066	-0.044327162
59	0x3d163d49	0.03667954
60	0x3bb0f91d	0.0054007904
61	0xbb8f34ba	-0.004370299
62	0x3c4e9b96	0.012610337
63	0xbcca315a	-0.024681736
64	0x3d23d25a	0.03999553
65	0x3d795137	0.060868468
66	0xbd30f2c3	-0.043200266
67	0xbd506cbe	-0.050884955
68	0x3cb96503	0.022631174
69	0x3d088a50	0.03333503
70	0x3c0d68b5	0.008630921
71	0x3b567703	0.0032724745
72	0x3cb3e701	0.021960737
73	0x3d4c23da	0.04983888
74	0x3c029da7	0.007972158
75	0x3d4ae360	0.049533248
76	0xbb91e145	-0.004451903
77	0x3c340379	0.010987156
78	0x3d59794b	0.05309419
79	0xbd1f4870	-0.03888744
80	0x3ca9be86	0.020720731
81	0xbc153552	-0.009106951
82	0x3bee264f	0.0072677503
83	0xbc4aacd1	-0.012370304
84	0x3ca1cc0f	0.019750623
85	0x3c07b97b	0.008283968
86	0x3c040665	0.008058165
87	0x3d3e6dfe	0.046491615
88	0xbb8a8a03	-0.004227878
89	0xbd695e7a	-0.056974865
90	0xbcb6a076	-0.02229331
91	0xbcb24b30	-0.021764368
92	0xbd2c00d2	-0.04199297
93	0xbce00990	-0.02734831
94	0xbd2d3db0	-0.042295158
95	0xbd754435	-0.0598795
96	0x3c968124	0.018372126
97	0xbd16815c	-0.03674446
98	0x3d603840	0.054741144
99	0xbd706d24	-0.058697835
100	0xbd2c2cf1	-0.042035047
101	0xbda9de30	-0.08294332
102	0xbc26a663	-0.010171506
103	0x3d477aab	0.04870097
104	0x3d9ce036	0.07659952
105	0xbd131a9f	-0.03591406
106	0x3d97999e	0.07402347
107	0xbd5ab5f2	-0.053396173
108	0xbd0e0bf7	-0.03467938
109	0x3ca5ab81	0.020223381
110	0x3b01049b	0.0019686583
111	0x3d0252f4	0.03181739
112	0xbc089bca	-0.008337924
113	0xbc6a58bd	-0.014303383
114	0x3cd8ce6d	0.026465619
115	0x3c23bbca	0.009993503
116	0x3d6e4d2b	0.05817906
117	0xbd213822	-0.039360173
118	0x3cc7feb2	0.02441344
119	0x3d187dca	0.037229337
120	0x3cf6ce40	0.030127645
121	0x3cee4ce9	0.029089408
122	0x3c2175a7	0.009854711
123	0x3cd289d9	0.025700497
124	0x3cf16932	0.029469106
125	0xbbb4967e	-0.005511104
126	0x3d0bb83b	0.034111243
127	0xbc78b60b	-0.015180121
128	0x3b6f80b8	0.0036545228
129	0x3d4adb3a	0.049525477
130	0xbd40f62e	-0.047109775
131	0xbcc70df9	-0.024298655
132	0x3d0272c5	0.031847734
133	0x3c8edf8e	0.017440584
134	0xbd49d95a	-0.04927955
135	0x3d102cd9	0.03519902
136	0xbd4cca38	-0.04999754
137	0x3c84ea20	0.01622492
138	0x3d544354	0.05182202
139	0xbd552761	-0.052039508
140	0x3c184d26	0.009295737
141	0x3d887b23	0.066641115
142	0xbba14d57	-0.0049225497
143	0x3d9bc2a4	0.07605484
144	0x3d2216a4	0.039572373
145	0xbc63c620	-0.013902217
146	0x3d34dee5	0.04415788
147	0x3d69120a	0.05690197
148	0x3c2589db	0.010103668
149	0xbd612c2a	-0.05497376
150	0xbc270ddc	-0.010196175
151	0xbd3f600c	-0.046722457
152	0x3c9f0701	0.01941252
153	0xbd0d8efa	-0.03456018
154	0xbd45d6f1	-0.048300687
155	0xbd1f2dac	-0.038861915
156	0xbdb496ad	-0.088178016
157	0x3d4fd6c1	0.050741915
158	0xbd286679	-0.04111335
159	0x3c554d8d	0.013018978
160	0xbd09a12f	-0.033600982
161	0x3d0f34da	0.034962513
162	0x3d42e480	0.047581196
163	0xbd6cc961	-0.057809237
164	0xbcde82ba	-0.027161945
165	0xbd277c82	-0.040890224
166	0xbdb2eeb4	-0.08736935
167	0xbca54e8c	-0.020179056
168	0x3c8e9e09	0.017409341
169	0x3cdbce36	0.026831727
170	0x3c24c104	0.010055784
171	0x3d4a5334	0.049395755
172	0x3d7661d6	0.060151897
173	0xbbb0ffe1	-0.005401597
174	0xbcafef27	-0.021476341
175	0x3d6ff02d	0.05857866
176	0x3cb1806c	0.021667682
177	0x3d09f08a	0.03367666
178	0x3cb4705f	0.022026239
179	0x3d18efa6	0.03733792
180	0x3cfc56d0	0.030803114
181	0x3d175b0e	0.03695207
182	0x3c35a086	0.011085635
183	0xbd765576	-0.060140096
184	0x3d03aa3c	0.03214477
185	0x3c75e9f6	0.015009394
186	0x3d1fe44d	0.039036084
187	0xbd93a920	-0.072099924
188	0x3d2bf0c7	0.04197767
189	0x3d34c8fe	0.044136994
190	0xbc15e23a	-0.009148175
191	0x3d066183	0.03280784
192	0x3b8baa55	0.0042622485
193	0xbd1a3a2f	-0.037653144
194	0xbcc0f6a9	-0.023555117
195	0x3c08f7d4	0.008359868
196	0xbcbadf87	-0.022811664
197	0xbd0e0e23	-0.03468145
198	0x3ca03316	0.01955561
199	0x3d59ed09	0.05320457
200	0xbd906985	-0.07051376
201	0x3d17e210	0.037080824
202	0xbb365d12	-0.002782647
203	0xbca7d4f8	-0.020487294
204	0x3d9f0d45	0.07766203
205	0xbd6dfc33	-0.058101844
206	0x3bf84c8d	0.007577485
207	0x3d04b730	0.032401264
208	0x3d7c4ff6	0.061599694
209	0x3ca896fa	0.020579804
210	0xbccd818e	-0.02508619
211	0xbcc345c0	-0.02383697
212	0xbd20f2b6	-0.039293967
213	0x3d12f19b	0.035874944
214	0x3d0e6370	0.0347628
215	0x3cef4c4f	0.029211191
216	0x3d239f4b	0.039946835
217	0x3bbbba71	0.0057290127
218	0xbc99459f	-0.018709956
219	0x3da32073	0.079651736
220	0x3cf8e256	0.030381363
221	0x3cb8d850	0.022564083
222	0xbd2fe80b	-0.042945903
223	0xbcda27a5	-0.026630232
224	0xbcd431cc	-0.025902651
225	0xbd22f8b8	-0.039787978
226	0x3c8085b2	0.01568875
227	0xbd7be292	-0.06149537
228	0xbc881b81	-0.016614677
229	0x3d09e6d2	0.033667393
230	0xbd630ecc	-0.055434033
231	0xbd5f4545	-0.05450942
232	0xbd0cda37	-0.034387793
233	0x3cb60ef8	0.022223935
234	0xbd91a9e7	-0.071124844
235	0xbd25af13	-0.040450167
236	0xbbc5e2e5	-0.006039011
237	0x3d9652ec	0.07340035
238	0xbd3ef2ce	-0.046618275
239	0x3d2e42d4	0.0425442
240	0xbd57e9c4	-0.05271317
241	0xbcd67589	-0.026179092
242	0xbd23a2fe	-0.039950363
243	0x3d1414d5	0.03615268
244	0xbd53d53b	-0.051717024
245	0x3ce02372	0.027360652
246	0xbc91f8aa	-0.017818768
247	0xbdb31437	-0.0874409
248	0x3c87a88c	0.016559862
249	0xbce9816f	-0.028504102
250	0xbc33890f	-0.01095797
251	0xbd36bf66	-0.044616126
252	0x3d09bdf9	0.033628438
253	0x3d24cdad	0.04023521
254	0x3d1ce043	0.03829981
255	0xbd69255b	-0.05692039

action_model._continuous_distribution.mu.bias f4 [2]
0	0xbc9ec337	-0.019380195
1	0x3b3dd686	0.0028966977

action_model._discrete_distribution.branches.0.weight f4 [1, 128]
0	0x3a470237	0.00075915776
1	0xbbdd1467	-0.006746817
2	0xbc2bd3b4	-0.010487486
3	0xb9e01dad	-0.0004274672
4	0x3ada1563	0.0016638454
5	0xbc17c248	-0.009262629
6	0xbb5f91b0	-0.0034113936
7	0x3c2cedf7	0.010554782
8	0xbc0d2843	-0.008615556
9	0x3bde3be7	0.0067820433
10	0xbc3d06fc	-0.01153731
11	0xbbee0fa0	-0.0072650462
12	0xbc8fec1e	-0.017568644
13	0xbabbe7eb	-0.0014336085
14	0xbb339f43	-0.002740816
15	0x3ada8b30	0.0016673561
16	0x3c598918	0.013277315
17	0x3c1358bc	0.008993324
18	0x3c1614d3	0.009160238
19	0x3c4ced80	0.012507796
20	0x3c1898a7	0.009313739
21	0xbb81fa36	-0.003966595
22	0x3af15d63	0.0018414672
23	0xbc888fc3	-0.016670113
24	0xbb509b58	-0.0031830873
25	0x3b330aa5	0.0027319577
26	0xbc433b49	-0.01191599
27	0xbb6e9e90	-0.0036410429
28	0xbb531543	-0.0032208718
29	0xbb970923	-0.0046092435
30	0xbb5ce5dd	-0.0033706345
31	0x3c081924	0.008306775
32	0xbc0f2258	-0.0087362155
33	0xbc81abd7	-0.01582901
34	0x3bc9503e	0.006143599
35	0xbc373b74	-0.011183608
36	0x3ce908cd	0.02844658
37	0x3c4ad850	0.0123806745
38	0x3b312150	0.0027027912
39	0x3c430d3b	0.01190501
40	0x3b825cb4	0.003978336
41	0x3b8fc081	0.004386962
42	0xbc88b049	-0.016685622
43	0xbc2ba207	-0.010475642
44	0xbc44059f	-0.011964231
45	0xbb2b05cf	-0.0026095991
46	0xbb4daef5	-0.00313848
47	0xbc40da6b	-0.011770825
48	0xbaa1aa2e	-0.0012334043
49	0x3b0458ab	0.0020194452
50	0xbbb17949	-0.0054160696
51	0x3be1e698	0.006893944
52	0x3bec1648	0.0072048046
53	0xbb81398f	-0.003943629
54	0xbb30ed46	-0.0026996895
55	0x3c28eae6	0.01030991
56	0x3a1625e7	0.0005727694
57	0xbb5a05ff	-0.0033267734
58	0xbaa42d33	-0.0012525677
59	0x3cb9ba3e	0.022671815
60	0x3baf6bc0	0.005353421
61	0xbb83ac63	-0.004018353
62	0x3c28d2bb	0.010304148
63	0xbc0dabb9	-0.008646899
64	0xbc317f79	-0.0108336145
65	0x3a59c3c8	0.0008307067
66	0xbbe03817	-0.006842624
67	0xbc2054f0	-0.009785876
68	0x3c426829	0.011865654
69	0x3bf97d47	0.007613811
70	0x3bf8871f	0.007584467
71	0xbbb232e3	-0.005438195
72	0xbac5b9bd	-0.0015085262
73	0xba0d6983	-0.00053944456
74	0xb8f322d8	-0.00011593633
75	0x3c646deb	0.013942222
76	0x3b82f9d8	0.003997069
77	0x3b14f0dc	0.0022726571
78	0x3c271977	0.010198942
79	0x3c8195a8	0.015818432
80	0x3ba07897	0.004897188
81	0xbbf291c2	-0.0074026296
82	0x3b74cad5	0.0037352343
83	0xbb32d7da	-0.0027289302
84	0x3bc5baeb	0.0060342452
85	0xbbe8e7e5	-0.007107722
86	0xb9169d8f	-0.0001436381
87	0xbca63c17	-0.020292325
88	0x3b9e7b81	0.0048365
89	0x3b10f62f	0.0022119393
90	0xbb8b028b	-0.0042422465
91	0xbb9e9477	-0.0048394757
92	0xbc39e35b	-0.01134571
93	0x3c4a43d2	0.012345271
94	0xba34e2b5	-0.0006900237
95	0xbb820bd1	-0.003968694
96	0xbc494ce8	-0.012286402
97	0xba8717c4	-0.0010306765
98	0xbbea3367	-0.007147241
99	0x3c0c070d	0.008546603
100	0xbc470da2	-0.012149246
101	0x3abebec2	0.00145527
102	0x3b0da0f8	0.0021610837
103	0x3b8e9bfd	0.0043520913
104	0xbb80fefb	-0.003936646
105	0xbc18bada	-0.009321893
106	0x3c223fbd	0.009902892
107	0x3c238731	0.009980963
108	0xbbb27051	-0.005445518
109	0xbb29256f	-0.0025809666
110	0x3ba29d44	0.004962595
111	0xbbcb81c7	-0.006210539
112	0x3bd4e9fb	0.006497619
113	0xbc16f86e	-0.009214504
114	0x3b1b7ffa	0.0023727403
115	0x3c948e73	0.018134331
116	0x3bb89423	0.0056328936
117	0xbb10c531	-0.0022090191
118	0x3bf556cb	0.007487153
119	0x3c649df5	0.0139536755
120	0x3c7b770f	0.01534821
121	0x3c7a1d6a	0.015265802
122	0x3c8d7b16	0.017270606
123	0x3cb843d3	0.022493279
124	0xbb8598c5	-0.0040770494
125	0x3b9af741	0.004729182
126	0xbc9e033b	-0.01928865
127	0xbcd2ee53	-0.025748407
