Shooter2Agents1EnvPlaybale/Assets/Models/NewModels/ShootTheGreen.onnx (onnx, 78730 bytes, 7 tensors)

network_body._body_endoder.seq_layers.0.weight f4 [128, 7]
-0.11218961 -0.2547437 0.27878547 -0.28520542 0.49981534 -0.14659305 -0.1800142 0.2743088
-0.41270992 -0.054247666 0.8867268 -0.35049027 0.21057472 0.4349406 0.52292 -0.5691125
-0.037796434 0.20535356 -0.8170573 0.71424824 0.2609371 -0.41581506 0.76823413 0.6844076
0.08737215 0.22336115 0.20464273 -0.41648966 -0.7484959 0.07323588 0.100509465 0.23602453
-0.79165137 -0.030231463 -0.47508237 0.07809126 0.17925476 -0.37538782 -0.66455644 0.43449247
-0.39419684 -0.06054687 -0.24111274 0.0147192525 0.30034342 0.38252696 0.07232663 0.30197522
0.9718865 0.6650778 -0.14281039 0.35315204 -0.23676147 0.5412641 -0.57979363 -0.0005547108
-0.23699166 -0.71946144 -0.44700325 -0.3484279 0.29085413 0.6866775 -0.5414961 -0.031776514
0.045178775 1.0651547 -0.35307884 -0.7254533 -0.007177149 0.14014308 0.23563029 0.1524019
-0.2268795 0.118450746 -0.3561775 0.022117922 0.31908557 -0.17757991 -0.5229428 0.07367857
0.21496479 -0.03677268 -0.8312734 -0.012420371 0.3700789 0.11439741 0.46680453 0.1337567
0.3145657 -0.5232773 0.04906521 -0.3255903 -0.09452692 0.060168017 -0.17804143 0.359863
-0.48359206 0.2282552 0.3180048 -0.0839283 0.3321513 -0.58489865 0.0150586 -0.13228221
-0.15974128 -0.028681172 0.40954274 -0.019680727 -0.057303518 0.6051811 0.03982826 -0.9408184
-0.19695166 0.61856276 -0.052848037 -0.27120152 0.9288873 -0.2956631 0.34308884 0.49365878
-0.29197153 -0.05294111 -0.28235447 0.41257593 0.20849054 0.31529015 -0.26969957 -0.054319963
0.491627 0.7233362 -0.54479855 -0.64140755 -0.029175112 -0.16186677 -0.6280252 -0.5731758
0.11425668 0.15754774 -0.008485969 -0.19885492 -0.5454169 -0.40852332 0.27578455 0.44011924
0.3066299 0.22261575 -0.06161675 0.17898381 0.43264642 0.1010069 -0.15976863 0.20701271
0.38519526 0.496521 0.08398323 -0.59686786 -0.2921079 -0.30748785 -0.1774975 -0.44267836
0.5068096 0.42148292 0.14980626 0.49447784 0.7441162 0.30343306 0.15227598 -0.393945
0.46142474 0.39985335 0.7070216 0.4119061 0.44189152 0.76550305 -0.09724611 0.4693219
0.13535377 -0.30132347 0.9971768 0.15343392 0.5607676 0.3407205 -0.5131907 0.035099015
-0.4272544 0.10644736 -0.27489042 -0.020251667 -0.4294628 -0.32188562 -0.0022407528 0.20718858
0.2506537 -0.2294188 -0.29922086 -0.509635 0.0060794093 -0.15230675 -0.4287651 -0.5006837
-0.21574107 0.14635997 -0.16998975 0.12424758 0.14976634 -0.4280039 -0.012697892 0.34977472
0.2953746 -0.4180423 -0.096037544 0.28299785 0.071682505 -0.44560277 0.34639466 0.6405698
-0.35719344 -0.09735008 0.08810715 -0.10815286 -0.10371404 -0.101473555 0.30891067 0.12806116
0.38955104 0.3292622 -0.26592097 -0.26649633 -0.34226963 0.3281607 -0.88979644 -0.16943271
0.3510942 -0.2705151 0.012332612 -0.35681117 0.0014677171 -0.17834513 -0.109018765 -0.19672638
-0.19282971 0.19529408 0.0091565335 -0.015306876 0.36885548 0.034372557 -0.71309507 0.6325971
0.06906487 -0.47579893 0.07362277 -0.133026 0.38728425 -0.3420099 0.74513876 0.050244972
00000000: abc3 e5bd c46d 82be f8bc 8e3e 7206 92be
00000010: cce7 ff3e 7d1c 16be a455 38be 3472 8c3e
00000020: b74e d3be cd32 5ebd 8700 633f 7673 b3be
00000030: e6a0 573e 89b0 de3e 16de 053f 5bb1 11bf
00000040: 6fd0 1abd 3448 523e ab2a 51bf f9d8 363f
00000050: 8c99 853e b6e5 d4be feaa 443f 5635 2f3f
00000060: 2bf0 b23d c9b8 643e dd8d 513e 223e d5be
00000070: 6d9d 3fbf b1fc 953d e8d7 cd3d 6ab0 713e
00000080: aaa9 4abf f9a7 f7bc ff3d f3be 4fee 9f3d
00000090: 8f8e 373e d532 c0be 5f20 2abf cc75 de3e
000000a0: 2bd4 c9be ffff 77bd 42e6 76be 0529 713c
000000b0: 9dc6 993e 93da c33e fc1f 943d 7f9c 9a3e
000000c0: 8ecd 783f 8a42 2a3f e33c 12be 58d0 b43e
000000d0: 9971 72be 4990 0a3f 5b6d 14bf 036a 11ba
000000e0: f1ad 72be a02e 38bf 9cdd e4be 2465 b2be
000000f0: d5ea 943e 19ca 2f3f 7d9f 0abf 1728 02bd
00000100: 610d 393d fd56 883f c0c6 b4be 4fb7 39bf
00000110: 4a2e ebbb ab81 0f3e 1149 713e 3e0f 1c3e
00000120: 1a53 68be 4e96 f23d e65c b6be a530 b53c
00000130: 2f5f a33e 82d7 35be 94df 05bf cae4 963d
00000140: bb1f 5c3e f39e 16bd 55ce 54bf d07e 4bbc
00000150: fb7a bd3e 3049 ea3d 0101 ef3e 84f7 083e
00000160: c10e a13e 80f5 05bf 9af8 483d c6b3 a6be
00000170: 5497 c1bd bd72 763d 7e50 36be f73f b83e
00000180: 6199 f7be bbbb 693e 86d1 a23e 9ae2 abbd
00000190: bc0f aa3e ebbb 15bf 59b8 763c fd74 07be
000001a0: 3893 23be c7f4 eabc 96af d13e 7a39 a1bc
000001b0: 18b7 6abd 26ed 1a3f f522 233d 7ad9 70bf
000001c0: b2ad 49be 215a 1e3f 2f77 58bd edda 8abe
000001d0: 8fcb 6d3f 2761 97be 57a9 af3e d8c0 fc3e
000001e0: 4b7d 95be c7d8 58bd c490 90be 273d d33e
000001f0: 8b7e 553e b66d a13e 1016 8abe 9c7e 5ebd
00000200: 89b6 fb3e 902c 393f eb77 0bbf 4933 24bf
00000210: a500 efbc 67c0 25be 42c6 20bf a6bb 12bf
00000220: 68ff e93d 3254 213e bc08 0bbc a0a0 4bbe
00000230: 71a0 0bbf f829 d1be a233 8d3e 4f57 e13e
00000240: 98fe 9c3e 62f5 633e d861 7cbd 8847 373e
00000250: d583 dd3e b5dc ce3d 639a 23be 24fb 533e
00000260: 5038 c53e 0038 fe3e 66ff ab3d 55cc 18bf
00000270: 2b8f 95be 0c6f 9dbe e8c1 35be bda6 e2be
00000280: 46be 013f 9ccc d73e d066 193e 332c fd3e
00000290: 667e 3e3f 945b 9b3e 3cee 1b3e 29b3 c9be
000002a0: dd3f ec3e 94b9 cc3e 5eff 343f 5be5 d23e
000002b0: 9b3f e23e 02f8 433f f828 c7bd f64a f03e
000002c0: 2e9a 0a3e 1247 9abe fb46 7f3f c81d 1d3e
000002d0: 778e 0f3f eb72 ae3e 7760 03bf fcc3 0f3d
000002e0: 17c1 dabe 1301 da3d 70be 8cbe d3e6 a5bc
000002f0: 8ce2 dbbe 31ce a4be 98d9 12bb 3e29 543e
00000300: af55 803e c3ec 6abe 7a33 99be 7077 02bf
00000310: c835 c73b 4df6 1bbe 1987 dbbe cf2c 00bf
00000320: 3aeb 5cbe 63df 153e cb11 2ebe 8475 fe3d
00000330: 595c 193e 5423 dbbe d20a 50bc ac15 b33e
00000340: 573b 973e a409 d6be 55af c4bd 18e5 903e
00000350: 47ce 923d 0c26 e4be a45a b13e 62fc 233f
00000360: 0fe2 b6be 7b5f c7bd 8571 b43d 3f7f ddbd
00000370: 0768 d4bd 5ed1 cfbd 8a29 9e3e 7722 033e
00000380: 3c73 c73e 0e95 a83e cb26 88be 3572 88be
00000390: f73d afbe ae04 a83e b3c9 63bf c57f 2dbe
000003a0: 9ec2 b33e f580 8abe b90e 4a3c f4af b6be
000003b0: 6a60 c03a 1ba0 36be 3b45 dfbd a472 49be
000003c0: 2775 45be 2cfb 473e 4905 163c b1c9 7abc
000003d0: a0da bc3e 3dca 0c3d 668d 36bf e2f1 213f
000003e0: e271 8d3d eb9b f3be 89c7 963d f837 08be
000003f0: 1f4a c63e ec1b afbe 6ac1 3e3f accd 4d3d

network_body._body_endoder.seq_layers.0.bias f4 [128]
0.0015471099 0.03996881 0.06422068 -0.00088291866 0.033065714 0.029595766 -0.029401356 0.039498672
-0.05462708 -0.0040686135 0.06086389 0.04785316 -0.07041182 0.041483156 0.035034616 0.038496796
-0.0079381345 0.04887516 0.03844591 -0.038800664 0.013583366 0.011753544 -0.04996474 -0.03342832
-0.013956932 -0.051878635 0.05415935 0.01785794 -0.040877573 0.036648605 0.01021108 -0.06811876
-0.0023777387 0.015616132 0.040682804 -0.030501498 0.022303099 -0.02951257 0.008665268 0.012608658
-0.08360497 0.011017762 0.048044134 0.0897438 -0.012907511 -0.035010017 0.04006291 0.10728936
-0.033709724 -0.043801464 0.035548985 0.086535096 0.03160928 -0.024765164 -0.049538687 0.017545786
0.00032049906 -0.06340788 0.011204474 0.03613628 0.09849758 -0.0029011017 0.076284535 -0.00405746
0.039186604 -0.0029304265 0.08789649 0.026367866 0.054722834 -0.03204951 -0.0043789614 0.028630763
0.030001156 -0.020900074 -0.027782913 0.022865832 0.06850654 -0.03138795 -0.0012493564 -0.019925619
0.013459102 0.12049778 0.0398773 -0.032402612 0.06283183 0.064703144 0.062182743 -0.06436206
0.05383597 0.028153645 -0.037803985 -0.046538208 -0.008124782 -0.03276391 0.08093767 -0.03079338
0.016037425 0.0071073887 0.009052975 -0.049971662 -0.012900006 0.07106111 0.025629446 -0.0015855855
0.054628346 -0.028359685 0.08465992 -0.0011301736 -0.02838391 -0.003069094 0.05709127 0.015822154
-0.014667728 0.0059872926 0.0333983 0.076531656 -0.0059367185 -0.0024746933 -0.010813212 -0.0034154218
0.07320384 -0.003952871 -0.0007627358 0.022827731 -0.056956224 -0.02874811 -0.054756463 0.014333444
00000000: 65c8 ca3a 56b6 233d 2286 833d ab73 67ba
00000010: ea6f 073d d272 f23c 1ddb f0bc 5cc9 213d
00000020: a5c0 5fbd 0152 85bb 6a4c 793d ad01 443d
00000030: 1334 90bd 3eea 293d 7580 0f3d d1ae 1d3d
00000040: f30e 02bc 5231 483d 7579 1d3d 72ed 1ebd
00000050: c48c 5e3c f091 403c d4a7 4cbd 22ec 08bd
00000060: 9eab 64bc b17e 54bd 32d6 5d3d d14a 923c
00000070: 3e6f 27bd d91c 163d 604c 273c d981 8bbd
00000080: d6d3 1bbb ceda 7f3c 03a3 263d 47de f9bc
00000090: fdb4 b63c 58c4 f1bc c5f8 0d3c 8b94 4e3c
000000a0: 1539 abbd d883 343c edc9 443d 99cb b73d
000000b0: 067a 53bc aa66 0fbd 0219 243d 86ba db3d
000000c0: 3513 0abd 2a69 33bd d09b 113d 5039 b13d
000000d0: bb78 013d 50e0 cabc 14e9 4abd 2ebc 8f3c
000000e0: a808 a839 fedb 81bd f892 373c a303 143d
000000f0: 19b9 c93d 6920 3ebb 113b 9c3d 71f4 84bb
00000100: 2282 203d 660c 40bb 1303 b43d 6c01 d83c
00000110: 0d25 603d 5946 03bd 647d 8fbb 108b ea3c
00000120: fcc4 f53c a236 abbc fe98 e3bc 2051 bb3c
00000130: 284d 8c3d a790 00bd 72c1 a3ba 0d3b a3bc
00000140: 9183 5c3c 8ac7 f63d 6156 233d 9ab8 04bd
00000150: f9ad 803d 1583 843d 55b3 7e3d 41d0 83bd
00000160: 1b83 5c3d 79a2 e63c 5ad8 1abd d99e 3ebd
00000170: ce1d 05bc 7333 06bd a6c2 a53d 6642 fcbc
00000180: eb60 833c 19e5 e83b ee52 143c 16af 4cbd
00000190: 8c5a 53bc 7d88 913d d8f4 d13c 6cd3 cfba
000001a0: f9c1 5f3d 9252 e8bc 2e62 ad3d 5522 94ba
000001b0: 6085 e8bc da22 49bb 89d8 693d 769d 813c
000001c0: e950 70bc 0d31 c43b a8cc 083d a1bc 9c3d
000001d0: ce88 c2bb 772e 22bb e629 31bc 45d5 5fbb
000001e0: e5eb 953d 1687 81bb 55f2 47ba 3901 bb3c
000001f0: ee4a 69bd 2881 ebbc 5048 60bd d2d6 6a3c

network_body._body_endoder.seq_layers.2.weight f4 [128, 128]
0.16256191 0.06957877 0.07583981 0.052403096 -0.12516695 0.006317269 0.06057768 0.08072996
0.084303275 0.052052993 0.042896748 0.12557936 -0.028910544 0.14788803 0.18047546 0.031151045
-0.09701577 0.11632873 -0.07571683 -0.08915886 -0.13686626 0.03752197 -0.11559045 0.20411685
0.048478328 -0.02167625 -0.03892747 0.031896405 0.0731605 0.07774247 0.0034573872 -0.08224374
0.060424242 -0.020369014 -0.13098145 -0.06145559 0.053405818 -0.08937701 0.08777923 0.06244212
0.026576022 -0.014480435 0.04552713 -0.07983893 0.104116865 -0.028309185 0.082834534 0.08467914
-0.060374353 0.2944493 -0.087117866 0.07848344 -0.023821618 0.0093556605 -0.032252427 -0.022727178
0.17448601 0.051578853 -0.06586902 -0.040152628 0.07011134 0.0934365 -0.14759082 0.041083228
0.09469353 0.018318208 -0.039863646 -0.016313337 0.07282705 -0.08861207 0.051310726 0.20075998
0.11880444 0.020586658 0.08998226 0.10112001 -0.07696409 0.16393785 0.059310727 0.011943009
-0.13372105 0.008910621 -0.03980408 0.031222189 0.10691833 0.1344186 0.14042711 0.15637107
-0.08290748 0.077007286 0.09376845 -0.12646927 -0.1482475 -0.09305276 -0.20575964 -0.18964009
-0.14217368 0.012914601 0.08162941 -0.0055724997 0.16753702 -0.07352516 0.008998355 0.023838785
0.08427497 -0.06589937 0.030011786 0.23542544 0.1733806 -0.059715487 -0.1888461 0.124179244
0.09413308 0.13121733 -0.046572834 -0.10586315 0.050845794 0.13769092 -0.017457535 -0.012742021
0.05754433 0.041158937 -0.034005277 -0.16687171 -0.07209893 -0.03764895 -0.043099117 0.15878807
0.05622734 -0.011380503 0.060885493 -0.054412346 -0.08776228 -0.06765239 -0.07962961 -0.033862468
-0.0019925039 0.06876604 -0.04845976 0.07520544 0.09588932 0.015691422 -0.09142997 -0.035383888
0.09330019 -0.02801744 0.12641367 0.02660785 -0.09271523 -0.15693766 -0.1848293 0.07099551
-0.1501991 -0.026474295 0.12591399 -0.11356418 -0.08319574 0.020101357 -0.1329335 -0.04299601
-0.057854157 -0.081146486 -0.0173881 0.13148625 -0.06307445 -0.04292064 0.12532416 0.11103512
-0.032971695 -0.110404804 -0.0527153 0.05989853 0.074085474 -0.08777797 -0.015023011 -0.023380848
-0.07388154 0.013709865 -0.0050334586 -0.12167397 0.05582465 -0.123114325 -0.0015543061 -0.034891892
-0.08205294 0.008082633 0.094503336 0.030618628 0.20220084 0.020929674 -0.18717839 0.036146566
0.23547791 0.03505129 0.02903574 -0.089216754 0.061061934 -0.0418263 0.09437782 -0.034359727
0.038453232 0.05758624 0.10123021 -0.19700187 -0.028359024 -0.09685465 -0.07934537 -0.13200793
-0.2459328 0.025610168 -0.04532644 -0.09723555 0.016761983 0.029131792 -0.25938278 0.040719867
0.022526564 -0.119229965 -0.043086182 -0.10814333 -0.02876363 -0.035697285 -0.10279483 0.05635333
-0.0568464 0.0048578368 0.026661463 0.14700167 -0.06550764 -0.02560119 0.0062311376 0.038542584
0.062586345 0.13139945 -0.05111197 -0.22376318 -0.028336382 -0.050997052 0.06057415 -0.0929075
0.083908215 -0.11046616 -0.08429222 0.06995244 0.03403996 0.015742922 0.030136243 -0.12723534
0.05441631 -0.011817643 -0.09110286 -0.027142316 0.032766957 0.10580761 -0.08307455 -0.085152715
00000000: a176 263e 507f 8e3d e751 9b3d a1a4 563d
00000010: c42b 00be 1801 cf3b 4d20 783d c055 a53d
00000020: 32a7 ac3d 8535 553d 80b4 2f3d e097 003e
00000030: ced5 ecbc f66f 173e 8fce 383e 7a30 ff3c
00000040: 34b0 c6bd c23d ee3d 6d11 9bbd ec98 b6bd
00000050: ab26 0cbe a3b0 193d b0ba ecbd 0204 513e
00000060: 3691 463d 6492 b1bc 6972 1fbd cea5 023d
00000070: 2cd5 953d 7237 9f3d 5595 623b 686f a8bd
00000080: 697f 773d ebdc a6bc 0020 06be dbb8 7bbd
00000090: 0fc0 5a3d 4b0b b7bd 99c5 b33d 4fc3 7f3d
000000a0: f5b5 d93c 593f 6dbc a87a 3a3d 9882 a3bd
000000b0: 393b d53d aae8 e7bc 27a5 a93d 426c ad3d
000000c0: 194b 77bd 0fc2 963e da6a b2bd edbb a03d
000000d0: 8e25 c3bc 7c48 193c 1f1b 04bd 592e babc
000000e0: 76ac 323e 5944 533d 56e6 86bd 1577 24bd
000000f0: 8996 8f3d a35b bf3d 0c22 17be e346 283d
00000100: aeee c13d 1110 963c 1048 23bd 8ca3 85bc
00000110: 5926 953d 3f7a b5bd 322b 523d 0694 4d3e
00000120: be4f f33d 5aa5 a83c 9e48 b83d 0218 cf3d
00000130: 599f 9dbd 53df 273e ceef 723d 9cac 433c
00000140: 2cee 08be dafd 113c 9a09 23bd adc5 ff3c
00000150: fff7 da3d 08a5 093e 20cc 0f3e bd1f 203e
00000160: 66cb a9bd ffb5 9d3d ac09 c03d 2981 01be
00000170: 31ce 17be 7292 bebd a8b2 52be 0331 42be
00000180: fa95 11be c397 533c 522d a73d 8499 b6bb
00000190: d38e 2b3e 5c94 96bd d66d 133c 8e49 c33c
000001a0: 5b98 ac3d 40f6 86bd 47db f53c 5e13 713e
000001b0: af8a 313e 3a98 74bd df60 41be b051 fe3d
000001c0: d8c8 c03d d65d 063e 28c3 3ebd c7ce d8bd
000001d0: ae43 503d d9fe 0c3e 1b03 8fbc e9c3 50bc
000001e0: 9ab3 6b3d 4696 283d 1e49 0bbd 6be0 2abe
000001f0: 9ba8 93bd c935 1abd b388 30bd 5799 223e
00000200: a44e 663d 4a75 3abc 1163 793d 7bdf 5ebd
00000210: b6bc b3bd 568d 8abd d914 a3bd 5fb3 0abd
00000220: ab94 02bb 36d5 8c3d be7d 46bd 4f05 9a3d
00000230: 9f61 c43d 4c8b 803c a33f bbbd b2ee 10bd
00000240: 2c14 bf3d d584 e5bc 9672 013e b5f8 d93c
00000250: 7ce1 bdbd 44b4 20be e443 3dbe 1866 913d
00000260: cbcd 19be 9fe0 d8bc 99ef 003e 5694 e8bd
00000270: 8762 aabd 9aab a43c b81f 08be 961c 30bd
00000280: 7bf8 6cbd 2130 a6bd 7d71 8ebc 55a4 063e
00000290: 2d2d 81bd 8ecd 2fbd fa54 003e 6266 e33d
000002a0: 540d 07bd ea1b e2bd 00ec 57bd 2958 753d
000002b0: 20ba 973d f0c4 b3bd 1323 76bc 3189 bfbc
000002c0: 344f 97bd 579f 603c b6ef a4bb 3430 f9bd
000002d0: 63a8 643d 5d23 fcbd dcb9 cbba cdea 0ebd
000002e0: 5f0b a8bd 056d 043c f78a c13d ebd3 fa3c
000002f0: bd0d 4f3e b574 ab3c b1ab 3fbe 6c0e 143d
00000300: 1f21 713e f191 0f3d 5cdc ed3c 46b7 b6bd
00000310: 141c 7a3d 0e52 2bbd 2949 c13d c9bc 0cbd
00000320: 2381 1d3d 8ddf 6b3d c951 cf3d dcba 49be
00000330: 2f51 e8bc bb5b c6bd d37f a2bd 162d 07be
00000340: cfd5 7bbe 6acc d13c 38a8 39bd 6f23 c7bd
00000350: 6d50 893c cca5 ee3c d2cd 84be e0c9 263d
00000360: a189 b83c d72e f4bd 237b 30bd 407a ddbd
00000370: b4a1 ebbc 5137 12bd 1986 d2bd c0d2 663d
00000380: c5d7 68bd 7d2e 9f3b 2469 da3c 9b87 163e
00000390: df28 86bd 96b9 d1bc 922e cc3b d4de 1d3d
000003a0: 452d 803d 948d 063e c95a 51bd 2d22 65be
000003b0: b321 e8bc 49e2 50bd 9a1c 783d 4a46 bebd
000003c0: 12d8 ab3d 153c e2bd 66a1 acbd 3a43 8f3d
000003d0: 7c6d 0b3d 4df7 803c 48e0 f63c fb49 02be
000003e0: a3e3 5e3d ca9e 41bc 2394 babd 9059 debc
000003f0: a536 063d a9b1 d83d fd22 aabd 8c64 aebd

network_body._body_endoder.seq_layers.2.bias f4 [128]
0.03609896 0.037226416 0.057915136 0.040025145 -0.011295486 -0.024216225 0.07297733 -0.0052226023
0.06438745 0.026004635 -0.05382027 0.07403748 -0.06797027 0.064548396 0.009149667 0.05319327
-0.0076185702 0.008077712 -0.02466741 -0.0027887064 0.015569089 0.08443093 0.068995975 0.0560001
-0.03509971 0.09506378 0.08231982 -0.019644748 -0.028463796 -0.03816297 -0.032776307 -0.06739612
0.03738056 -0.06441108 0.08246451 0.06687318 0.01620352 0.0074229036 -0.061565135 -0.02882221
-0.04497378 -0.022985198 -0.0054893787 0.03366036 0.09001929 -0.061090473 0.0289799 0.014075474
-0.057222255 -0.016946618 0.07450656 -0.008117782 -0.0074949805 -0.028929178 -0.045178078 -0.028492747
0.019095724 -0.01183963 -0.03264983 -0.015902461 0.08546885 0.08870497 -0.02626144 -0.029329482
0.057024036 -0.027437938 -0.048069455 -0.010500804 -0.038583606 -0.043132946 0.0376271 0.0003252647
0.051032435 -0.0024967028 -0.009667691 0.025428807 0.016185006 -0.051807344 0.081320554 -0.07875925
0.076120034 -0.018021004 -0.0023737717 0.00532564 0.051004335 0.093209885 0.076756634 0.09123744
0.057541396 -0.054828517 0.10971104 0.06475102 -0.048289236 -0.079963155 -0.046129216 0.0714858
-0.02384329 0.009860615 0.035177022 0.013407871 0.11007992 0.011496649 0.10332431 -0.03754194
-0.089670666 0.019983223 0.056229573 -0.05007154 0.03524203 0.058044415 0.03209569 0.008228277
0.0924722 -0.033566516 0.055447828 0.011251395 0.010671366 -0.048583973 -0.0065119304 0.052877743
-0.026606688 -0.029196886 -0.035227224 0.06441937 -0.015891016 0.011592012 0.103863955 -0.017826749
00000000: 81dc 133d ba7a 183d 6c38 6d3d 68f1 233d
00000010: b410 39bc 1b61 c6bc 2375 953d 5d22 abbb
00000020: 91dd 833d ac07 d53c a572 5cbd f6a0 973d
00000030: ff33 8bbd f331 843d 7ce8 153c 30e1 593d
00000040: 33a5 f9bb 6158 043c 4f13 cabc bbc2 36bb
00000050: 7e15 7f3c 20ea ac3d c34d 8d3d 5c60 653d
00000060: b7c4 0fbd cdb0 c23d 4b97 a83d 06ee a0bc
00000070: e82c e9bc c650 1cbd 7340 06bd fa06 8abd
00000080: 5c1c 193d f5e9 83bd 27e3 a83d cef4 883d
00000090: 3fbd 843c d43b f33b b92b 7cbd 8e1c ecbc
000000a0: 6d36 38bd 744b bcbc 3fe0 b3bb 72df 093d
000000b0: 095c b83d 013a 7abd 4167 ed3c d19c 663c
000000c0: e261 6abd a2d3 8abc e596 983d 7200 05bc
000000d0: 7498 f5bb e2fc ecbc a60c 39bd 9f69 e9bc
000000e0: a36e 9c3c 02fb 41bc d4bb 05bd e145 82bc
000000f0: 4b0a af3d f4aa b53d 3b22 d7bc 6244 f0bc
00000100: 0992 693d 87c5 e0bc 7ae4 44bd 900b 2cbc
00000110: d809 1ebd 2cac 30bd e01e 1a3d 4a88 aa39
00000120: 6307 513d b99f 23bb 3c65 1ebc 1350 d03c
00000130: 6b96 843c f033 54bd 648b a63d 884c a1bd
00000140: d2e4 9b3d c9a0 93bc 4891 1bbb b582 ae3b
00000150: ece9 503d d3e4 be3d 9532 9d3d b2da ba3d
00000160: 87b0 6b3d de93 60bd 2fb0 e03d 2f9c 843d
00000170: efca 45bd b9c3 a3bd fdf1 3cbd 2667 923d
00000180: 0153 c3bc 6b8e 213c c815 103d b0ac 5b3c
00000190: 9571 e13d 715c 3c3c b29b d33d 94c5 19bd
000001a0: 41a5 b7bd dbb3 a33c fb50 663d d117 4dbd
000001b0: f259 103d fbbf 6d3d c576 033d e5cf 063c
000001c0: 1162 bd3d 0b7d 09bd 431d 633d c557 383c
000001d0: f4d6 2e3c fdff 46bd 0862 d5bb 5596 583d
000001e0: 45f6 d9bc 4f2e efbc 6c4a 10bd 4dee 833d
000001f0: e02d 82bc 6cec 3d3c a0b6 d43d 6709 92bc

action_model._continuous_distribution.mu.weight f4 [1, 128]
0.045458637 -0.040684916 -0.04281202 -0.03622794 0.07374025 0.0657396 -0.034186948 0.018311985
-0.054087467 -0.019091005 0.032532223 -0.06214856 0.0040239906 -0.027188536 -0.007016417 -0.04161068
-0.03435192 -0.033986907 0.027704254 0.08251221 0.047131516 -0.054947633 0.002389718 -0.0042283516
-0.02062614 -0.027091753 -0.06140659 0.09809644 0.0071782935 0.030647619 -0.015458197 0.022532884
-0.033640098 0.033379037 -0.07416284 -0.03782476 -0.03586763 0.021268856 0.014908615 0.011779095
0.014393581 0.05516698 0.02854804 0.011452343 -0.063688405 0.060419105 0.032344125 0.06245865
0.044949513 -0.003126257 -0.0507525 0.060041875 0.052332334 0.04704992 0.044629216 0.03712363
0.0068883826 -0.02876608 0.028699035 0.0039057827 -0.03501072 -0.057181194 0.012513303 0.061571132
-0.025176676 0.0026875625 0.029335985 0.014687884 0.046562035 0.048363406 0.03315396 0.03905424
0.01730081 -0.01741689 0.045737572 0.03713624 0.012906432 0.032904513 -0.0067900303 0.05483787
0.024210552 0.06678816 0.004850554 0.015202403 0.023618164 -0.06576268 -0.0049767243 -0.029603438
-0.011755444 0.0050187856 -0.020842046 -0.027909113 0.04819214 0.020844767 0.03267468 -0.0082963705
0.09421989 -0.038293406 -0.00603161 0.05635999 -0.07244745 0.004738437 -0.047048114 0.057225592
0.030539392 -0.047364786 -0.07744243 0.019029483 -0.04553341 -0.06823808 0.037495393 0.06306011
-0.017620385 0.055689983 0.0014475047 2.8754903e-05 0.0027501308 0.03517026 -0.004281661 -0.01566946
0.026845828 0.029205926 0.0092996415 -0.0613041 0.04842152 -0.007122015 -0.017620198 0.04024139
00000000: d632 3a3d 3aa5 26bd a85b 2fbd c063 14bd
00000010: 2105 973d 7ca2 863d 9d07 0cbd 0403 963c
00000020: d28a 5dbd bd64 9cbc 8240 053d 7d8f 7ebd
00000030: aedb 833b 7eba debc f9e9 e5bb f66f 2abd
00000040: 99b4 0cbd db35 0bbd 08f4 e23c 29fc a83d
00000050: fa0c 413d c510 61bd d19c 1c3b fc8d 8abb
00000060: 27f8 a8bc 86ef ddbc 7a85 7bbd c9e6 c83d
00000070: e437 eb3b b710 fb3c 6144 7dbc e296 b83c
00000080: 33ca 09bd 75b8 083d b0e2 97bd 23ee 1abd
00000090: f0e9 12bd 063c ae3c 4343 743c 1bfd 403c
000000a0: 0ed3 6b3c c5f6 613d 94dd e93c 9ca2 3b3c
000000b0: 116f 82bd 067a 773d 467b 043d a4d4 7f3d
000000c0: fb1c 383d e4e1 4cbb dae1 4fbd 78ee 753d
000000d0: 6e5a 563d 6bb7 403d 20cd 363d f30e 183d
000000e0: f1b7 e13b d8a6 ebbc 3d1a eb3c 29f8 7f3b
000000f0: 6767 0fbd d436 6abd 9904 4d3c 0332 7c3d
00000100: 513f cebc d121 303b 0552 f03c 73a5 703c
00000110: d5b7 3e3d b518 463d 72cc 073d 57f7 1f3d
00000120: 6eba 8d3c dead 8ebc 5257 3b3d 2c1c 183d
00000130: 8075 533c e2c6 063d e77e debb ad9d 603d
00000140: 3555 c63c 3bc8 883d 65f1 9e3b 8013 793c
00000150: e17a c13c 95ae 86bd ca13 a3bb e982 f2bc
00000160: e899 40bc a074 a43b f0bc aabc a7a1 e4bc
00000170: 1f65 453d a5c2 aa3c e3d5 053d 80ed 07bc
00000180: 5cf6 c03d 8cd9 1cbd d0a4 c5bb bcd9 663d
00000190: 545f 94bd e444 9b3b 86b5 40bd 6265 6a3d
000001a0: bf2d fa3c 9401 42bd 239a 9ebd b8e3 9b3c
000001b0: 3e81 3abd 68c0 8bbd c594 193d a925 813d
000001c0: a058 90bc 2e1b 643d 33ba bd3a af36 f137
000001d0: 8a3b 343b b10e 103d 2d4d 8cbb 3d5d 80bc
000001e0: c8eb db3c 4441 ef3c 865d 183c 021a 7bbd
000001f0: a555 463d cb5f e9bb 3c58 90bc 28d4 243d

action_model._discrete_distribution.branches.0.weight f4 [2, 128]
-0.05209174 0.025443913 0.012388287 0.00063239515 0.018024985 0.01785011 0.029287728 -0.02473389
-0.010828102 -0.027126078 0.0021905664 0.008061854 0.031980854 0.0024569768 0.036924124 0.0040466134
-0.0068113715 0.04556634 0.0036678705 -0.01309861 -0.06307949 -0.027031604 -0.052663893 -0.0610847
0.031000366 -0.046924613 -0.017141473 0.031153085 0.02978498 -0.025338361 0.032364562 0.07596667
0.05676883 0.02691632 -0.05031945 -0.025503544 0.03237583 -0.053073697 0.001355998 0.01797008
0.033893738 -0.008513092 -0.019965054 -0.051453304 -0.04464987 0.0339969 -0.04961642 -0.029890167
0.036288146 0.02743323 -0.02414946 -0.022048559 -0.032995265 0.02498913 0.08104066 0.059659194
-0.038906943 0.0025370554 -0.011915185 0.043118805 -0.016720304 -0.02929549 -0.009054517 0.0055681258
-0.037223827 -0.016937912 0.07408581 -0.00088079955 -0.009651287 -0.009724024 -0.05856242 -0.0244877
-0.055421825 0.027055543 -0.017627094 -0.0443651 -0.022103073 0.028582305 -0.015625758 0.023137175
-0.053402722 -0.043727744 0.0035569593 -0.04030371 -0.060329586 -0.026321018 -0.04884507 -0.029490886
-0.017750362 0.053405423 -0.05076094 -0.04674889 0.039070334 0.056729466 -0.011912529 -0.053149223
0.035226244 0.057136953 -0.0013034323 -0.067832 -0.028904859 -0.013395899 -0.042859446 0.033930525
0.06272276 0.02564715 0.03916622 0.025664562 0.04179096 0.029751759 -0.043611545 -0.046459723
-0.035337754 0.0018226831 -0.032296777 -0.0044146627 -0.021557242 0.019173896 0.058003616 0.001867676
0.009511705 -0.01854076 0.015451411 0.02953612 -0.015373255 -0.042323057 -0.07610435 -0.016548399
0.03982145 -0.03039978 -0.014363084 0.000103930855 -0.0037899704 0.015234377 -0.04242013 0.034859966
0.01746676 0.024671977 -0.011167235 8.0016245e-05 -0.01860821 -0.0016833829 -0.0399287 -0.018820137
-0.008670109 -0.044787753 0.013765748 0.00190675 0.048307832 0.034475163 0.030474795 0.05812405
-0.022196956 0.05295834 0.03104067 -0.018849086 -0.018688928 0.023839017 -0.023590129 -0.06419385
-0.06195776 -0.04810371 0.044013403 0.03709998 -0.02648534 0.047135245 -0.0129105225 -0.036469683
-0.019227471 0.015787818 -0.007996694 0.044024274 0.05173001 -0.019048544 0.063694395 0.032081783
-0.03391772 -0.032220695 0.0034258466 0.03894527 0.023135189 -0.045226652 -0.088153705 -0.06730574
0.040852424 0.018925881 0.02395338 -0.049569447 0.012898658 0.033266082 -0.0013170155 0.008167183
0.023398867 0.017646948 -0.08514235 0.004330014 -0.004797126 -0.02032011 0.07127977 0.056442574
0.043874796 -0.02748723 0.047839507 0.049184404 0.022738814 -0.023554655 0.03085684 -0.031729028
0.06074085 0.024131779 0.0043969913 0.023991793 0.053199552 0.03947976 0.051601734 0.02922639
0.009496974 -0.058398172 0.03921467 0.054226138 -0.06353533 -0.048164386 -0.0015620969 0.06975433
-0.0343869 -0.05696223 0.016971633 0.05066884 0.046884097 0.012139225 0.03585776 -0.029219883
-0.06732679 -0.046043705 -0.030187665 -0.022471137 -0.03770242 -0.035788782 0.046293285 0.056982443
0.038962618 0.0015105797 0.034387313 0.0034613304 0.024435207 -0.021843357 -0.06639568 0.022580981
0.006599112 0.008534491 -0.014375569 -0.03340784 0.01265948 0.021770276 0.08087381 0.015606202
00000000: 265e 55bd c16f d03c 3ef8 4a3c 52c7 253a
00000010: 22a9 933c 653a 923c d1ec ef3c ba9e cabc
00000020: 5a68 31bc 8237 debc 9b8f 0f3b de15 043c
00000030: 5bfe 023d 3b05 213b c03d 173d 7499 843b
00000040: ed31 dfbb c5a3 3a3d a860 703b 8d9b 56bc
00000050: d22f 81bd 6271 ddbc 18b6 57bd f333 7abd
00000060: 7bf4 fd3c 0634 40bd 466c 8cbc c134 ff3c
00000070: a1ff f33c 6592 cfbc b490 043d 6a94 9b3d
00000080: 6f86 683d 9d7f dc3c c51b 4ebd cfec d0bc
00000090: 859c 043d ce63 59bd bebb b13a fd35 933c
000000a0: 29d4 0a3d 7f7a 0bbc c18d a3bc b3c0 52bd
000000b0: c8e2 36bd 5540 0b3d 963a 4bbd 39dc f4bc
000000c0: e1a2 143d a7bb e03c 17d5 c5bc 2e9f b4bc
000000d0: 0b26 07bd 01b6 cc3c a5f8 a53d 335d 743d
000000e0: e35c 1fbd ba44 263b e837 43bc 589d 303d
000000f0: 05f9 88bc 18fd efbc 6659 14bc d374 b63b
00000100: 0378 18bd 60c1 8abc 4dba 973d 75e5 66ba
00000110: 6f20 1ebc 8351 1fbc 26df 6fbd 6e9a c8bc
00000120: ff01 63bd 96a3 dd3c b266 90bc 2eb8 35bd
00000130: 8111 b5bc 7025 ea3c 9701 80bc 2c8a bd3c
00000140: d0bc 5abd dd1b 33bd e01b 693b 8115 25bd
00000150: 281c 77bd 2d9f d7bc c511 48bd df96 f1bc
00000160: 3569 91bc a5bf 5a3d b4ea 4fbd c47b 3fbd
00000170: 3708 203d 285d 683d c52c 43bc 00b3 59bd
00000180: 6549 103d 7008 6a3d eed7 aaba 81eb 8abd
00000190: e2c9 ecbc 797a 5bbc 638d 2fbd bcfa 0a3d
000001a0: ca74 803d f919 d23c c26c 203d 7d3e d23c
000001b0: ff2c 2b3d f6b9 f33c 05a2 32bd 8d4c 3ebd
000001c0: 52be 10bd 19e7 ee3a a049 04bd e0a8 90bb
000001d0: d098 b0bc 9312 9d3c 3395 6d3d cfcc f43a
000001e0: fbd6 1b3c cbe2 97bc ea27 7d3c bcf5 f13c
000001f0: 1be0 7bbc f15a 2dbd 99dc 9bbd 8290 87bc
00000200: d11b 233d f608 f9bc 2453 6bbc 74f5 d938
00000210: 2761 78bb 9c99 793c bbc0 2dbd 53c9 0e3d
00000220: 7316 8f3c e31c ca3c c7f6 36bc 65ce a738
00000230: 3f70 98bc f5a4 dcba 478c 23bd b02c 9abc
00000240: 130d 0ebc 5d73 37bd bb89 613c eaeb f93a
00000250: 6fde 453d d435 0d3d 47a6 f93c 7c13 6e3d
00000260: 64d6 b5bc d8ea 583d 0149 fe3c 6669 9abc
00000270: 8619 99bc 0b4a c33c 1640 c1bc 1178 83bd
00000280: 6cc7 7dbd 6508 45bd 6647 343d 26f6 173d
00000290: c9f7 d8bc e310 413d a886 53bc 3c61 15bd
000002a0: ee82 9dbc 7455 813c 9104 03bc cc52 343d
000002b0: d9e2 533d b10b 9cbc 3572 823d 3068 033d
000002c0: 4fed 0abd d9f9 03bd 2b84 603b 1385 1f3d
000002d0: 0286 bd3c 953f 39bd ee89 b4bd 98d7 89bd
000002e0: df54 273d 730a 9b3c e139 c43c 5509 4bbd
000002f0: e554 533c 0442 083d b59f acba a6cf 053c
00000300: fbae bf3c 5590 903c 1d5f aebd cae2 8d3b
00000310: 3631 9dbb 5c76 a6bc 21fb 913d 5430 673d
00000320: 0fb6 333d e62c e1bc 5cf3 433d 9675 493d
00000330: c046 ba3c b1f5 c0bc 7cc7 fc3c 4cf6 01bd
00000340: 66cb 783d 02b0 c53c a314 903b 708a c43c
00000350: c6e7 593d 87b5 213d 575c 533d 2f6c ef3c
00000360: 3299 1b3c ec32 6fbd 909f 203d 3a1c 5e3d
00000370: d01e 82bd 0548 45bd 46bf ccba 5cdb 8e3d
00000380: 47d9 0cbd 3a51 69bd 1808 8b3c 218a 4f3d
00000390: 8a09 403d 9ae3 463c 96df 123d 895e efbc
000003a0: a1e2 89bd 5398 3cbd 1f4c f7bc 6415 b8bc
000003b0: da6d 1abd 4297 12bd 079e 3d3d 6c66 693d
000003c0: 4497 1f3d a5fe c53a b6d9 0c3d 7dd7 623b
000003d0: 582c c83c d7f0 b2bc 75fa 87bd c0fb b83c
000003e0: 5d3d d83b 40d4 0b3c 8287 6bbc a9d6 08bd
000003f0: b569 4f3c 9457 b23c 2ba1 a53d 28b1 7f3c

action_model._discrete_distribution.branches.0.bias f4 [2]
-0.07812647 0.07812646
00000000: c500 a0bd c400 a03d
